experiments/kidney_data/model_kidney.pth (torch, 818664 bytes, 27 tensors)

weight f4 [10, 1, 10]
000000 df 90 6f be 48 c2 6b bd 69 f6 13 be 6a e6 f0 3e
       -0.23395108 -0.057558328 -0.14449467 0.47050792
000010 c4 06 dd 3c 06 89 38 bd d2 14 53 be 17 9f de bd
       0.026980765 -0.04505255 -0.20613411 -0.10870188
000020 82 e0 6b bd 47 1f fd bd 08 91 3a 3e 38 b8 56 bc
       -0.057587154 -0.12359481 0.18219388 -0.013105445
000030 87 b5 22 3e b3 6e d1 bd c4 b4 1f 3e 63 e1 10 3d
       0.1588956 -0.10226192 0.155963 0.035371196
000040 26 8e f5 3e 6c c2 9e 3d e8 ce c5 be dc 91 89 bd
       0.47960013 0.07751927 -0.3863442 -0.067172736
000050 c9 d7 1e 3f 71 b2 30 be 0f 07 c6 3d fb a6 42 bd
       0.6204801 -0.1725557 0.09669315 -0.047522526
000060 84 d1 5c 3b 9f 8f b5 bc 96 f6 bc be be be 8b 3d
       0.0033694217 -0.02216321 -0.3690688 0.068234906
000070 89 00 d8 3d df a8 9b 3d 44 30 2d be b3 d1 ac be
       0.10546977 0.07600569 -0.16912943 -0.33753738
000080 eb a7 65 be cc a6 10 be 11 7b 52 be 09 4b e7 bd
       -0.22427337 -0.14126128 -0.20554759 -0.11293609
000090 cf 60 80 bd 41 a9 2b be 80 22 9b be 36 c9 4f be
       -0.06268465 -0.16763784 -0.3029976 -0.202916
0000a0 31 7a 87 3c d4 72 8b 3d d6 49 90 3e a2 af 42 be
       0.016537758 0.06809011 0.28181332 -0.19012311
0000b0 c0 c3 c2 3c d1 15 c2 bd 78 2f dc bc 88 36 16 bf
       0.023774981 -0.094768174 -0.026878104 -0.5867696
0000c0 44 58 b7 be 5a 5f 68 3d c1 67 7b 3b 9b 52 2a be
       -0.3580953 0.05673156 0.0038361403 -0.16633074
0000d0 e1 64 16 be 2a 4f 49 bd ca d5 18 be 3c 5c c0 3c
       -0.1468692 -0.049147762 -0.14925304 0.02348148
0000e0 a9 2c 53 3d 83 69 90 3e 4d 54 83 3f e8 b8 d6 bc
       0.051556263 0.282055 1.0260102 -0.026211217
0000f0 57 dc 4d be ff 76 86 3d 61 1e 60 be 07 09 49 bc
       -0.20103584 0.065656655 -0.21886589 -0.012270219
000100 5f 0b e1 be 20 36 27 be b3 4e b3 3e 53 a7 bb bd
       -0.43953988 -0.16329241 0.3502098 -0.09162774
000110 ed 58 0c 3e 5f bd b3 3d 4e 11 ab bc 1b bc 8a 3f
       0.13705797 0.08776354 -0.020882275 1.0838655
000120 7b 07 1f 3e f7 b1 19 3e 1b f8 33 be 41 4e 36 3d
       0.15530197 0.15009294 -0.17575113 0.044508222
000130 00 51 3d bd 8c b0 b3 bd b4 3d 4f bd ec b3 ef bd
       -0.046219826 -0.08773908 -0.050595954 -0.11704239
000140 70 82 2a 3d 3a 7a 13 bd b3 cc 0e 3d 99 1e bd bd
       0.0416283 -0.036005236 0.034863185 -0.09234352
000150 a7 ee 53 be f4 15 29 be b8 2f b8 3d 1f 3b 52 3d
       -0.20696507 -0.1651228 0.08993477 0.051325914
000160 99 b4 3c bc a4 8b 4d 3f f4 fe ac be 5e 16 e4 3e
       -0.011517667 0.802912 -0.33788264 0.44548315
000170 2f e6 d3 3d a7 8d 38 3e 24 a9 fe 3d 2f 80 8d 3e
       0.103466384 0.18022786 0.12434605 0.2763686
000180 00 d8 08 3e 4e 2c 20 3a c3 c9 57 3d 9d 8d 06 3e
       0.13363647 0.00061101175 0.05268265 0.13139959

bias f4 [10]
000000 6a fc ae ba 22 b5 40 b9 5c 8f ec b9 ad 6b db b9
       -0.0013350372 -0.00018378024 -0.0004512024 -0.0004185116
000010 d7 30 42 ba ca 62 c9 b9 bd 62 01 bb d3 9c 00 39
       -0.00074077904 -0.0003841131 -0.001974269 0.00012265453
000020 3c 6f 07 3a a4 07 cb 38
       0.00051664165 9.6812175e-05

weight f4 [10]
000000 89 7d 68 3f ae 54 1d 3f cd a6 49 3f 98 8a a6 3f
       0.9081655 0.61457336 0.7877014 1.3011045
000010 96 be af 3f ad 50 34 3f 39 68 7e 3f 9e 0e 72 3f
       1.3730037 0.704356 0.9937778 0.94553554
000020 5f c8 5d 3f 1d 9e 18 3f
       0.8663387 0.5961626

bias f4 [10]
000000 75 e3 f6 3e 55 75 4a bd b8 40 c8 bd a4 fa a3 be
       0.4822041 -0.049428303 -0.09777969 -0.3202716
000010 ab d1 62 3e 6f e4 d2 3d 21 0d cb 3e e1 22 7d 3d
       0.22150294 0.102974765 0.39658454 0.06180084
000020 d0 9a 39 3e 7e 67 4a 3e
       0.18125463 0.19766042

running_mean f4 [10]
000000 0b f6 22 bc 10 32 1f 3c 47 85 e0 3b c2 a6 f7 bc
       -0.0099463565 0.009716526 0.0068518254 -0.030230884
000010 e8 50 37 bc bd 19 68 3c 50 83 21 bc 88 0a 4e 3c
       -0.011188723 0.014166293 -0.0098579675 0.012575753
000020 e5 bf d8 3b 04 4d 7b 3c
       0.0066146725 0.015338186

running_var f4 [10]
000000 b2 18 a5 3e 54 b5 d9 3e ef 26 f0 3e c1 92 9b 3f
       0.32245404 0.42521155 0.46904704 1.2154161
000010 d9 68 27 3f c2 bb 91 3f e6 9f d2 3e d8 73 99 3f
       0.6539436 1.1385424 0.41137618 1.1988478
000020 14 32 1e 3f f6 a7 2e 3f
       0.61795163 0.6822504

weight f4 [10, 10, 9]
000000 2c 34 1d 3e 9d 69 ba be 75 36 8b 3c b0 1f 7b be
       0.15351933 -0.36408702 0.01699374 -0.24523807
000010 4a b5 2f bd 3f ba f8 bd db b7 2d bb f5 c9 57 be
       -0.0428975 -0.121448986 -0.0026507291 -0.21073134
000020 63 8a c9 be 60 66 ef be 73 f7 9f 3e 9e 94 b9 3d
       -0.39363393 -0.46757793 0.31243476 0.090615496
000030 0f cb 63 3d 58 6f b4 3b db e6 ae 3d db da d3 be
       0.055613574 0.0055064373 0.08540126 -0.4137791
000040 c9 8b 8d bc 42 31 56 be 23 9e d1 be f7 fc 69 bc
       -0.017278569 -0.20917228 -0.4094096 -0.014281503
000050 31 15 5c 3e 5c 60 d5 3c 23 6f 12 3f 94 b9 95 be
       0.21492459 0.026046924 0.5720083 -0.29243147
000060 1b 56 2c be d8 11 e4 bd ce cd 28 be c0 64 1a 3e
       -0.16829722 -0.11136216 -0.16484758 0.15077496
000070 bf 6c 51 bd 8f 0e 18 be 4c ea ee be d1 40 95 be
       -0.0511291 -0.14849304 -0.4666313 -0.29151013
000080 8c 91 1f be ed 0d 31 be 0e 67 8e be ff 1a 55 be
       -0.15582865 -0.17290469 -0.27813 -0.2081108
000090 8b 13 8f be 35 e2 78 be 2c ef 96 be fc 5c 8b 3e
       -0.27944598 -0.24305041 -0.2947935 0.2721938
0000a0 1b 8c 25 be 14 e2 c0 3b e9 12 ed bc 72 b8 3b be
       -0.16166727 0.0058863256 -0.028939681 -0.18332079
0000b0 68 71 83 be ff de e9 3d ee f2 4d be 51 28 67 be
       -0.2567246 0.11419486 -0.20112202 -0.22573973
0000c0 86 6f 08 3d bc fc ca bb c8 85 be be 1c c9 77 3e
       0.033309482 -0.006194679 -0.37211442 0.24197811
0000d0 d0 79 12 be 7b 03 76 be 56 ed a9 ba 05 f6 ff 3e
       -0.1430428 -0.24024765 -0.0012964408 0.49992386
0000e0 df fa 97 be e6 e2 4c be d4 14 90 3c c1 f1 b0 3d
       -0.29683587 -0.2000843 0.017588057 0.08639861
0000f0 03 6a dd 3d 2a 1d 2b 3e 5b 10 49 bd 6c c4 d6 be
       0.10811236 0.16710344 -0.049087863 -0.41946733
000100 d5 56 7f 3e bb 6a 25 bd aa 32 05 3d 62 e0 8c bd
       0.24935468 -0.04038499 0.03251902 -0.06878735
000110 bd fd d8 3d 32 77 1b bc 4e 23 03 3e e3 a5 20 be
       0.10595272 -0.009488868 0.12806436 -0.15688281
000120 be ff 54 be a6 18 10 3e 64 00 24 bd 5d 67 ff 3c
       -0.20800683 0.14071903 -0.040039435 0.031177217
000130 b5 54 88 3b 8b 72 94 bc ce c0 2f be d6 33 88 be
       0.0041604885 -0.018121025 -0.17163393 -0.26602048
000140 fa 7a 5b bd e7 1e 9d be 5f 47 58 3e 71 88 05 bd
       -0.053584076 -0.3068764 0.21120976 -0.032600824
000150 86 a2 39 3e 3b 65 95 be 26 be 15 3d 22 e1 8f 3d
       0.18128404 -0.29178795 0.036558293 0.070253626
000160 71 26 6c bc c0 33 36 be d7 34 78 be e7 9d d2 3c
       -0.014413462 -0.17793179 -0.24238907 0.02571006
000170 55 1b 15 bd 52 83 3d be a3 c3 a9 3c 21 f9 a2 be
       -0.03640302 -0.18507126 0.02072317 -0.31830695
000180 df 08 a0 bd a6 38 49 be fc 40 c4 be 31 f0 96 3d
       -0.07814192 -0.19650516 -0.3833083 0.073700316
000190 41 65 22 3e 82 61 8a 3e 76 0b b5 3d 7f 86 14 3e
       0.15858938 0.27027518 0.088400766 0.14504431
0001a0 a9 6f 8f bd 7a 2a 13 bd 31 1a 4e bd ec 42 e4 be
       -0.07003719 -0.03592918 -0.050317947 -0.44582307
0001b0 74 81 ec 3b 77 fd 50 3e ad da fa 3d 83 e5 20 3e
       0.0072175805 0.20409189 0.1224874 0.15712552
0001c0 24 f3 40 bd 86 45 1c 3e 41 a4 d6 3d 24 d7 82 3d
       -0.047106877 0.15260896 0.10480548 0.06388691
0001d0 cb 20 3b 3e 0c a6 1e be d2 4e ce be df c5 f2 bd
       0.18274228 -0.1549303 -0.4029451 -0.11854147
0001e0 17 2c 04 3d cb 33 10 be 03 e2 8e be 9b b9 40 be
       0.03226861 -0.14082257 -0.27906808 -0.18820803
0001f0 37 8b 46 be 8d b5 e9 be 05 bc 6f be 84 a5 47 be
       -0.19389044 -0.45646325 -0.23411568 -0.19496733
000200 c2 ac a5 be 1b 8e 22 3e 37 3e 85 be 9d e8 9b be
       -0.32358366 0.15874521 -0.2602403 -0.30450907
000210 ec e3 d7 be 9e 89 f7 be 9e 4a 36 be 07 a3 1a be
       -0.42166078 -0.4834718 -0.17801902 -0.15101252
000220 82 f0 9e 3e 8f 39 c0 3d 35 cf ad 3c 26 e4 10 bd
       0.31042868 0.093859784 0.021216968 -0.03537383
000230 75 4d 96 3b c9 58 48 be fa 38 11 be f6 ba 6b 3e
       0.0045868703 -0.19565119 -0.14181891 0.23020539
000240 9f a6 af bd 0d 7f 67 be ba 6a 1f bc 44 be 92 be
       -0.08576702 -0.2260706 -0.009730035 -0.28660786
000250 91 99 83 be c9 cf be be 37 6e 84 be e5 ac 56 be
       -0.257031 -0.37267902 -0.25865337 -0.20964392
000260 92 16 d8 bd 7a 0c 0e bf ad 01 b7 bd b7 c9 8f 3e
       -0.1055118 -0.5548779 -0.089358665 0.28083584
000270 b8 ea 9e 3e 8f b0 7b 3d ed f0 a6 3d 17 d4 04 be
       0.3103845 0.061447676 0.08151422 -0.12971531
000280 cd 9b b5 bc 6a 47 9f 3c 71 e1 0a bd e6 fc 95 bc
       -0.022169018 0.019443233 -0.033906404 -0.018309068
000290 6a eb f8 bd 4c 00 eb 3c 23 fc 49 bd 79 4c 47 be
       -0.12154277 0.028686665 -0.049312722 -0.19462766
0002a0 28 35 d8 bc 7a 5a d2 3e b8 8e d8 3d c0 bb b7 be
       -0.026392534 0.41084653 0.105740964 -0.3588543
0002b0 a6 a9 00 3e b8 ae 58 3e e9 87 97 3e 81 02 64 3e
       0.12564716 0.211604 0.2959588 0.2226658
0002c0 ac ec 4f bc fc c7 eb 3d 63 e9 0d 3e 01 2b 09 3e
       -0.012690704 0.11512753 0.13858561 0.13395311
0002d0 64 b1 12 be 90 05 7f 3d 02 d2 f6 3c 0d 2b 1b be
       -0.14325482 0.062261164 0.030129436 -0.15153141
0002e0 1f 58 d9 3d aa a8 1d 3d ac 93 e3 be bb 81 d7 3c
       0.10612511 0.03849093 -0.44448602 0.026306977
0002f0 56 ed 36 be bd 94 19 be 9c 7d 89 bd 58 33 1f be
       -0.17863974 -0.14998145 -0.06713411 -0.1554693
000300 dd 74 00 3d 08 db 1b be e8 a7 4d be 8b 4a 14 be
       0.03136145 -0.15220273 -0.20083582 -0.14481561
000310 48 2a 98 be a2 55 ba 3b ec b2 b6 be 03 fa c1 bd
       -0.29719758 0.0056864778 -0.35683382 -0.09471514
000320 50 52 e8 bd 76 68 c1 3d ce 32 15 bc 9e 99 e8 bd
       -0.11343825 0.094437525 -0.009106351 -0.11357425
000330 56 35 e5 bd 01 f1 57 bd 50 a8 ac be 62 f3 a2 bd
       -0.11191814 -0.052720074 -0.33722162 -0.07956578
000340 d2 29 d7 be 59 76 4f be 4b 71 bc be 2d 41 8f be
       -0.42024094 -0.2025999 -0.36805186 -0.27979413
000350 26 e9 9c be f6 3e c0 be d9 48 a7 bc ea 08 31 be
       -0.30646628 -0.37548035 -0.020420479 -0.17288557
000360 3c 8e 9a bd eb 6d 0c bf cb ee a9 be 06 c7 1d be
       -0.0754666 -0.5485522 -0.33189997 -0.15407953
000370 44 35 ba be 08 9b ba bc ec cc 1e be 76 7b 9f be
       -0.36368763 -0.022779003 -0.15507859 -0.3114888
000380 9a 5a a6 be 36 4a 99 be 35 65 0b be aa 43 98 bd
       -0.32490999 -0.2993943 -0.13612826 -0.07434781
000390 e1 0b c1 bd 38 57 30 be 2e 84 d6 bd ba 6e 1d bd
       -0.09426094 -0.17220771 -0.1047443 -0.038435675
0003a0 0c b0 e6 3a 98 3d 3c be 53 e5 81 3d 1f 48 cc be
       0.0017600073 -0.18382871 0.06342568 -0.39898774
0003b0 34 cc ad bd e7 27 1a bf 21 dd 83 be bd 99 58 be
       -0.08486214 -0.60217136 -0.25754645 -0.21152397
0003c0 e2 6a 09 be c7 33 cb bb a1 48 11 3b 67 dd 8e be
       -0.13419679 -0.0062012407 0.0022168534 -0.27903292
0003d0 5f 82 a3 be 65 4b 44 3e cf 8a d4 bd 7a f2 8d be
       -0.31935403 0.19169386 -0.10378038 -0.27724057
0003e0 e0 66 ad bd 16 12 0d 3e 27 5d 5c be fa 50 92 bd
       -0.084668875 0.1377643 -0.2151991 -0.07144351
0003f0 9e f8 59 be 3a 68 57 be de c6 6a 3e 74 fe 91 be
       -0.21286246 -0.21035853 0.22927424 -0.28514445

bias f4 [10]
000000 80 08 18 b8 58 01 0c b8 89 29 4d 3a 9d f3 88 39
       -3.624754e-05 -3.3379853e-05 0.00078263186 0.00026121447
000010 70 65 c2 39 90 d8 0c ba 6f 5b a3 39 e2 b8 32 ba
       0.0003707814 -0.00053728465 0.00031157906 -0.0006817711
000020 4b c8 26 ba b8 da 8a 3a
       -0.00063622434 0.0010593748

weight f4 [10]
000000 10 59 1f 3f b6 87 57 3f ff 05 51 3f 4f b4 51 3f
       0.62245274 0.84191453 0.81649774 0.81915754
000010 4c 7f 0a 3f a0 ac 2b 3f 74 a4 ad 3f bf ec 53 3f
       0.5410049 0.6706028 1.3565812 0.8278312
000020 00 0a 54 3f f4 ff 9b 3f
       0.8282776 1.2187486

bias f4 [10]
000000 8a 85 16 3d cc 30 8c be 39 21 db 3d 60 df 19 3f
       0.036748447 -0.2738098 0.10699696 0.6010647
000010 99 5f c6 bd 35 bd d9 3e df 34 07 bf 5e 9c bb bd
       -0.096862026 0.42527166 -0.5281505 -0.09160684
000020 8a 16 b4 3e c7 86 d5 bd
       0.35173446 -0.10426097

running_mean f4 [10]
000000 f6 3a 30 c0 92 7c 62 c0 e0 4f a2 c0 33 2a 84 c0
       -2.7535987 -3.5388532 -5.0722504 -4.1301513
000010 1f f7 0b c0 c6 ca 89 bf 08 ff 37 3f 3b 97 9b 3f
       -2.186958 -1.0765007 0.7187352 1.2155527
000020 6f 5e 02 c0 88 7e 8e c0
       -2.0370138 -4.4529457

running_var f4 [10]
000000 3f 03 5e 40 5c 68 07 41 37 6e 94 40 a2 56 1b 40
       3.4689481 8.462978 4.638454 2.4271626
000010 7d a6 2e 40 50 6f 2f 40 a8 d4 60 40 fb 4d 1d 40
       2.7289116 2.741169 3.5129795 2.4578846
000020 d0 fa 5b 40 62 33 40 40
       3.4371834 3.0031362

weight f4 [200, 490]
000000 34 2b 38 80 04 46 45 00 c2 77 28 80 fb aa 44 81
       -5.158286e-39 6.361766e-39 -3.716381e-39 -3.6122187e-38
000010 b2 55 17 80 48 83 26 80 de ed 38 00 68 9a 0a 00
       -2.142958e-39 -3.536844e-39 5.228118e-39 9.73745e-40
000020 c0 24 0d 02 3c 22 08 00 94 63 39 00 ec 14 b6 01
       1.0369591e-37 7.46965e-40 5.270345e-39 6.688626e-38
000030 9c 7f 2a 81 41 c1 0a 80 54 6f 32 80 c2 04 6b 01
       -3.1315624e-38 -9.87681e-40 -4.631712e-39 4.3166097e-38
000040 34 55 38 00 f8 19 01 80 f0 a8 db 80 ab 3b 38 80
       5.173353e-39 -1.01151e-40 -2.0172577e-38 -5.164193e-39
000050 1b 7b 60 82 47 1f 2b 00 78 a8 60 01 15 1d 00 80
       -1.649225e-37 3.960147e-39 4.1263173e-38 -1.0433e-41
000060 54 89 0b 80 f4 64 07 80 4c 4f 38 80 ef ec 61 82
       -1.059455e-39 -6.79064e-40 -5.171234e-39 -1.6598386e-37
000070 7a 81 0d 00 74 38 49 00 a8 5f 1e 80 5a 6f 7e 01
       1.240309e-39 6.724243e-39 -2.78938e-39 4.6732323e-38
000080 6f 9d 4b 80 0c f7 45 00 b6 4c 1e 80 6e 47 50 01
       -6.944139e-39 6.425273e-39 -2.782584e-39 3.8254815e-38
000090 48 2f 00 00 d1 2b 20 00 d1 4f 48 00 90 f5 04 80
       1.6961e-41 2.954454e-39 6.640788e-39 -4.55433e-40
0000a0 f3 b9 3b 00 71 75 37 80 6e 57 1d 80 8d e5 00 80
       5.485e-39 -5.093082e-39 -2.694593e-39 -8.2347e-41
0000b0 2e da 19 80 3c 25 3f 00 18 ad 41 00 6f 12 03 00
       -2.374156e-39 5.798993e-39 6.031402e-39 2.82119e-40
0000c0 31 18 48 00 7d e2 25 80 09 16 3e 00 ce 5b 01 00
       6.620834e-39 -3.479162e-39 5.701705e-39 1.24769e-40
0000d0 8c a8 24 00 d2 94 35 80 d0 c2 12 80 0f 7c 1b 00
       3.366541e-39 -4.920668e-39 -1.722924e-39 2.524062e-39
0000e0 e3 82 3a 80 fa bc 4b 80 48 8c 1f 80 74 14 4c 00
       -5.373412e-39 -6.955454e-39 -2.897224e-39 6.986835e-39
0000f0 bd 34 3c 80 77 b7 04 00 a2 c0 2a 00 35 fa 0e 00
       -5.529049e-39 4.33157e-40 3.926194e-39 1.375454e-39
000100 45 46 07 80 32 86 2f 80 80 7f 14 80 2a 1c 41 00
       -6.68056e-40 -4.364409e-39 -1.882448e-39 5.97941e-39
000110 c6 45 4a 00 31 4c 46 80 e1 b1 17 80 5b 4f 08 00
       6.820857e-39 -6.455817e-39 -2.176027e-39 7.63151e-40
000120 3b 94 36 80 b3 29 3f 80 8f 42 44 80 97 7f 39 80
       -5.012292e-39 -5.800595e-39 -6.26869e-39 -5.280394e-39
000130 29 97 01 80 c2 b4 32 80 21 6b 03 00 68 d8 0a 00
       -1.46062e-40 -4.656618e-39 3.13937e-40 9.95987e-40
000140 44 8a 03 00 50 13 2a 81 47 5a 5c 02 bb 20 04 80
       3.25107e-40 -3.1237925e-38 1.6188956e-37 -3.79083e-40
000150 0c 69 47 80 02 91 c9 81 3c 58 10 00 b1 5c 2f 80
       -6.558004e-39 -7.4043815e-38 1.50102e-39 -4.34952e-39
000160 d3 c4 0e 80 9b cc 1a 00 38 db a9 01 84 5b 2a 81
       -1.356304e-39 2.461122e-39 6.239536e-38 -3.1289728e-38
000170 17 6b 27 80 ec 91 17 00 42 83 13 80 ba 3f 19 80
       -3.620001e-39 2.164563e-39 -1.791961e-39 -2.318748e-39
000180 ee 96 4c 80 fc e1 1f 80 01 47 25 00 87 af 01 02
       -7.033641e-39 -2.927968e-39 3.423385e-39 9.527797e-38
000190 e0 0b 16 80 a0 25 1e 80 0f ce 2c 00 d5 ce 31 80
       -2.024641e-39 -2.768562e-39 4.114682e-39 -4.574137e-39
0001a0 b7 67 35 80 80 9e 14 00 2c c1 30 80 65 e6 3f 00
       -4.904487e-39 1.893569e-39 -4.477401e-39 5.868286e-39
0001b0 ed e5 16 00 36 13 09 02 7f 26 39 82 ac 23 39 00
       2.102863e-39 1.0070684e-37 -1.3602701e-37 5.24742e-39
0001c0 50 87 17 80 c9 37 0a 00 08 a6 1e 00 fe 46 30 80
       -2.160757e-39 9.38367e-40 2.814626e-39 -4.433571e-39
0001d0 b0 4d 00 00 2e b5 23 80 9c d6 33 81 b4 bc 06 80
       2.7869e-41 -3.279237e-39 -3.3031082e-38 -6.18707e-40
0001e0 21 79 34 00 f5 8c 2f 80 e4 ef 39 81 3d bf 3c 00
       4.818899e-39 -4.366834e-39 -3.4151247e-38 5.578733e-39
0001f0 75 1f 3a 80 bd 29 06 80 47 a4 3f 00 c6 5f 1c 00
       -5.337743e-39 -5.65986e-40 5.844568e-39 2.605751e-39
000200 e3 fd 2f 00 46 8e 24 82 41 2f 11 00 ec e5 20 00
       4.407346e-39 -1.2089648e-37 1.578155e-39 3.021216e-39
000210 69 bd 0b 00 48 89 04 00 ce 69 24 00 5d 4b 06 00
       1.078138e-39 4.16589e-40 3.344033e-39 5.78048e-40
000220 f9 28 40 80 e8 67 36 80 b9 1b 0b 80 ec 57 48 80
       -5.89217e-39 -4.996391e-39 -1.020135e-39 -6.643696e-39
000230 40 a4 44 00 aa c1 3f 80 f6 c1 0f 00 71 2d 17 00
       6.303736e-39 -5.85511e-39 1.447113e-39 2.128518e-39
000240 13 36 06 00 88 3b 12 80 40 51 18 80 a8 9d 40 00
       5.70411e-40 -1.674395e-39 -2.233199e-39 5.934028e-39
000250 06 ee 3c 00 ba 62 26 00 8e dc 05 00 14 1d 38 80
       5.595516e-39 3.525165e-39 5.38298e-40 -5.153219e-39
000260 7e bf 0a 00 f1 fa 0b 80 e8 11 28 80 14 d9 1d 01
       9.8705e-40 -1.100211e-39 -3.679843e-39 2.8992092e-38
000270 c8 a6 36 80 de 61 9f 81 c8 2e 46 00 b3 64 1a 80
       -5.018947e-39 -5.854781e-38 6.445267e-39 -2.423847e-39
000280 3a 1c aa 01 1e 4b 05 81 43 ea 20 00 0c e9 0a 80
       6.248864e-38 -2.4482136e-38 3.022773e-39 -1.001956e-39
000290 83 99 12 80 b1 e2 2d 80 c2 88 22 80 df 33 00 00
       -1.708109e-39 -4.213919e-39 -3.171466e-39 1.8608e-41
0002a0 f4 91 1f 80 dc 1c 05 80 3e e0 00 00 90 33 43 00
       -2.899258e-39 -4.6953e-40 8.0443e-41 6.171475e-39
0002b0 23 f8 12 80 04 a4 48 00 9e 5b 21 80 43 0d 1a 00
       -1.742054e-39 6.670993e-39 -3.063437e-39 2.39248e-39
0002c0 b5 90 08 00 06 92 a9 01 a7 39 04 00 f8 dd 2b 00
       7.86595e-40 6.229033e-38 3.88024e-40 4.028554e-39
0002d0 66 11 0e 00 a6 2e 0a 00 cf e0 44 00 63 2a 17 80
       1.291938e-39 9.35089e-40 6.32546e-39 -2.127422e-39
0002e0 64 42 30 80 65 73 1f 00 46 51 1f 00 58 ca 49 00
       -4.43192e-39 2.888296e-39 2.876056e-39 6.776578e-39
0002f0 24 de 2b 80 23 53 20 80 1a f0 0e 00 43 51 3f 00
       -4.028615e-39 -2.96856e-39 1.371829e-39 5.814787e-39
000300 b5 ea 01 00 3b fa 18 00 34 2b 17 00 ac 23 00 81
       1.76033e-40 2.293818e-39 2.127715e-39 -2.353548e-38
000310 95 6a 31 80 5b 4a 0f 00 a5 19 2b 80 6d 10 97 81
       -4.538174e-39 1.404206e-39 -3.958126e-39 -5.549221e-38
000320 4a aa 47 00 8e e2 33 00 cc d0 05 00 2e 6b 19 80
       6.581408e-39 4.764883e-39 5.3408e-40 -2.334336e-39
000330 3c c9 0a 00 de 9d 49 80 56 88 15 00 f5 18 07 80
       9.90544e-40 -6.760623e-39 1.977454e-39 -6.51801e-40
000340 a2 5f 20 00 6d 74 26 00 cc 40 22 82 3c 37 b6 01
       2.973042e-39 3.531515e-39 -1.1920476e-37 6.69355e-38
000350 70 63 0b 00 f1 e3 33 80 05 c1 3e 80 88 5d 17 80
       1.045862e-39 -4.76538e-39 -5.763043e-39 -2.145769e-39
000360 bc 64 1a 80 c8 ae 43 01 79 ce 26 80 26 06 23 80
       -2.42386e-39 3.5941243e-38 -3.563817e-39 -3.216448e-39
000370 b9 c3 34 02 38 d4 17 80 cf f8 1c 80 2b 96 04 00
       1.3280481e-37 -2.188346e-39 -2.66065e-39 4.21212e-40
000380 fa 4a 25 80 01 77 0c 00 1c 24 37 00 28 6c 07 80
       -3.42481e-39 1.144717e-39 5.063906e-39 -6.81648e-40
000390 40 73 1d 00 62 59 26 00 4e 73 21 80 46 a4 42 00
       2.704573e-39 3.521813e-39 -3.071935e-39 6.120073e-39
0003a0 bf a2 14 80 48 d2 3d 80 c2 16 1c 80 e1 e7 22 80
       -1.895092e-39 -5.6774e-39 -2.579558e-39 -3.20559e-39
0003b0 06 39 2f 80 1d 5d 27 80 58 64 02 00 7b 42 71 81
       -4.336724e-39 -3.614987e-39 2.19668e-40 -4.4312407e-38
0003c0 84 e5 8c 81 84 c4 44 80 1c 74 1c 80 f9 95 15 00
       -5.1757217e-38 -6.31531e-39 -2.613046e-39 1.982345e-39
0003d0 cc 36 08 00 86 03 17 80 c0 ec 34 00 48 29 0f 00
       7.54341e-40 -2.11348e-39 4.860376e-39 1.392341e-39
0003e0 48 f2 2c 80 a0 bc 48 00 6f 68 13 00 c7 3d 26 00
       -4.127676e-39 6.679822e-39 1.782338e-39 3.51191e-39
0003f0 a4 79 48 80 d4 0c 03 80 b5 05 18 80 1b d1 3f 00
       -6.655792e-39 -2.80108e-40 -2.206099e-39 5.860649e-39

bias f4 [200]
000000 fc 88 af 82 12 38 ae 36 73 3c 88 b6 54 24 0e 36
       -2.5792564e-37 5.1921315e-06 -4.060153e-06 2.1180795e-06
000010 f4 ef 28 b8 58 71 24 38 70 23 07 39 98 0b ab 37
       -4.0277795e-05 3.9206207e-05 0.00012887805 2.0390187e-05
000020 74 f9 05 b7 18 aa 3b 38 a9 6c ce 02 3c 3e a1 36
       -7.985498e-06 4.4742686e-05 3.0331347e-37 4.805419e-06
000030 29 cb 5b 82 54 c2 97 81 4c 83 3a 37 38 6b f0 b8
       -1.6147883e-37 -5.5747487e-38 1.1117034e-05 -0.00011464063
000040 10 df f3 b1 88 a9 e9 b5 1e 0e 6e 37 68 11 9a 00
       -7.09759e-09 -1.7409193e-06 1.4189192e-05 1.414891e-38
000050 50 25 45 36 06 8b 12 37 e5 fd 47 b9 c8 57 cb 34
       2.9377006e-06 8.734647e-06 -0.00019072702 3.7875566e-07
000060 7e 6e 0a 39 f8 ce 45 36 92 54 e3 38 8a d5 2e b8
       0.00013201867 2.947576e-06 0.00010839956 -4.1683707e-05
000070 18 87 8c 0e 6d 0a da b8 24 89 16 01 97 2b 62 38
       3.4642755e-30 -0.00010396992 2.7649042e-38 5.3923195e-05
000080 10 e2 06 37 6a 8d 86 37 a6 f0 6a 37 c8 0f 07 37
       8.039657e-06 1.6039896e-05 1.4003517e-05 8.050301e-06
000090 e8 ab 20 b8 6a a0 0f 39 30 80 f1 37 e0 87 1c 36
       -3.8307073e-05 0.00013697302 2.878913e-05 2.33249e-06
0000a0 02 16 39 37 b0 1e 9c 34 54 83 b7 81 a8 e2 7e b7
       1.1031983e-05 2.9079592e-07 -6.741203e-38 -1.5192352e-05
0000b0 c0 90 dc b3 a0 a4 85 b8 68 c2 a6 b6 2d 96 af b7
       -1.0270878e-07 -6.372598e-05 -4.9698174e-06 -2.0931557e-05
0000c0 f4 22 fc b8 d4 70 b8 b6 e7 fd 91 b8 ac 68 04 38
       -0.00012022807 -5.4967622e-06 -6.961432e-05 3.1568736e-05
0000d0 53 26 05 38 3c 26 f5 81 cd c6 96 02 08 8b 70 80
       3.1745363e-05 -9.005365e-38 2.2154625e-37 -1.033545e-38
0000e0 08 00 ed 01 bf 0f d0 b8 93 63 1e 38 5f 9d ac 38
       8.7060095e-38 -9.921146e-05 3.776287e-05 8.230912e-05
0000f0 0a 08 0c 39 a9 8d 91 b7 cb 1f b7 b7 dd c2 f4 38
       0.00013354435 -1.7351313e-05 -2.1830105e-05 0.00011671123
000100 74 a0 d4 b7 80 54 c7 81 1e 87 7a 37 50 02 70 33
       -2.5347086e-05 -7.3222306e-38 1.4932621e-05 5.5881458e-08
000110 e2 22 b3 38 c0 50 18 b9 05 e4 4d 37 4b ce a6 b7
       8.5418826e-05 -0.00014525931 1.2272042e-05 -1.9884805e-05
000120 da a1 81 37 f4 92 da 36 50 e4 f8 35 15 dd 97 37
       1.5453366e-05 6.514014e-06 1.8543888e-06 1.8103552e-05
000130 65 6e 2c 38 b8 68 1e b8 5c 7e 0f b6 ef 1f 80 b8
       4.111081e-05 -3.7767662e-05 -2.1382211e-06 -6.109464e-05
000140 c0 7e ec 01 a4 05 65 01 ca bb 85 34 13 b9 87 38
       8.6874586e-38 4.2064704e-38 2.4909815e-07 6.4717744e-05
000150 f0 6c e7 b8 1d f5 55 37 70 d6 98 37 b4 5d 09 b6
       -0.000110352295 1.2752859e-05 1.8219667e-05 -2.0469133e-06
000160 c6 3a 63 b7 b8 6d 14 b9 d2 93 5a 37 70 32 26 b8
       -1.3543939e-05 -0.00014155253 1.302823e-05 -3.9624458e-05
000170 f8 73 33 b9 f0 13 58 82 5c b8 30 b7 24 26 47 ab
       -0.00017113972 -1.5874896e-37 -1.0533342e-05 -7.0751933e-13
000180 8e e6 e3 b5 00 09 18 39 fb ed 0d 39 08 bf 30 38
       -1.6979918e-06 0.00014499202 0.00013535462 4.213958e-05
000190 b3 3f 7b 38 e0 50 11 b9 79 99 88 b9 4c be 94 37
       5.9902388e-05 -0.00013858406 -0.00026054287 1.7731589e-05
0001a0 4b 8a 80 38 55 08 1c b8 92 73 ad 34 aa fa 23 b8
       6.129275e-05 -3.7201058e-05 3.230785e-07 -3.9095677e-05
0001b0 e8 0f 83 b7 a5 8a 45 82 45 7e 81 b8 10 d9 f3 36
       -1.5623824e-05 -1.4513063e-37 -6.174719e-05 7.2672337e-06
0001c0 88 20 e7 b7 b0 ea d7 b4 bc 33 0b 08 00 26 d7 81
       -2.7552494e-05 -4.0217628e-07 4.1889604e-34 -7.9033054e-38
0001d0 e9 8b 4f b7 2a 3b 8b b7 29 5e de 38 0c 64 09 b8
       -1.2370737e-05 -1.6597642e-05 0.000106033236 -3.275652e-05
0001e0 94 c1 e1 b7 31 9c df 37 02 af cb b5 d1 29 10 b8
       -2.6912232e-05 2.6656404e-05 -1.5175613e-06 -3.437122e-05
0001f0 e0 e5 48 82 c8 50 dd 36 85 45 06 39 00 59 92 80
       -1.475965e-37 6.5957174e-06 0.00012805134 -1.343991e-38
000200 6e 3c 88 b7 14 ff 60 01 01 a9 fd 07 9c 44 83 b8
       -1.6240603e-05 4.1325312e-38 3.816654e-34 -6.259346e-05
000210 f2 68 c4 b7 d7 5d 5a 36 31 74 29 38 a0 b6 c8 b6
       -2.341389e-05 3.2539153e-06 4.040095e-05 -5.981725e-06
000220 e6 3b 30 36 d4 59 a5 36 76 20 28 37 8f c0 08 b7
       2.626091e-06 4.9278406e-06 1.0021138e-05 -8.151065e-06
000230 5e d4 04 b7 ca c8 05 b7 07 b4 9b b8 c4 d6 7d b8
       -7.917259e-06 -7.974168e-06 -7.424509e-05 -6.0519917e-05
000240 4c 45 bd 38 e0 c7 a2 b5 8a 7f d2 b8 10 fa c7 37
       9.02513e-05 -1.2128112e-06 -0.00010037336 2.3839093e-05
000250 44 7e b6 38 e0 f3 df b6 30 15 c0 b2 bc d4 e4 36
       8.701955e-05 -6.6743087e-06 -2.2361377e-08 6.819695e-06
000260 72 21 ed 37 9e 15 61 37 f0 ab 97 b6 7d 2c bf b8
       2.8268176e-05 1.3416078e-05 -4.520167e-06 -9.115876e-05
000270 a0 6e 0a 00 d8 67 6c 34 cc 5f 77 b3 3b 3f c4 b8
       9.5804e-40 2.2016991e-07 -5.7596296e-08 -9.357786e-05
000280 fa 43 3e 02 74 bf 10 38 5d 82 cd 38 0d 7e 86 36
       1.3978504e-37 3.451058e-05 9.799444e-05 4.0081854e-06
000290 e5 a2 33 37 c0 73 34 00 24 e6 15 38 97 b9 0e 83
       1.0707158e-05 4.816969e-39 3.5738703e-05 -4.1943096e-37
0002a0 30 78 56 81 40 9b 46 b8 52 ec 91 01 7e 66 b6 37
       -3.9391823e-38 -4.7351466e-05 5.360369e-38 2.1743817e-05
0002b0 ec 76 28 01 97 ec 84 38 14 d8 38 01 d4 69 39 81
       3.094205e-38 6.338319e-05 3.395049e-38 -3.4055062e-38
0002c0 94 31 f7 b8 d0 30 4f 37 62 58 43 38 2d b4 1d b6
       -0.000117871125 1.23495265e-05 4.6573936e-05 -2.34997e-06
0002d0 00 bc 7e 00 28 f0 e8 b6 9c 91 94 b6 00 f5 f8 01
       1.1638714e-38 -6.9420967e-06 -4.427695e-06 9.145237e-38
0002e0 6c 3c b6 b6 66 0c d9 37 e2 6d 22 b8 a8 6d 19 37
       -5.4310567e-06 2.587419e-05 -3.8726146e-05 9.145042e-06
0002f0 8a 04 e8 b8 98 2b fc 36 a8 12 80 38 ce 0e 1d b8
       -0.000110634675 7.51526e-06 6.1069906e-05 -3.7445505e-05
000300 dc 31 be 01 36 42 17 b9 b5 b9 4a b7 76 3a 23 0a
       6.986652e-38 -0.00014425148 -1.20833765e-05 7.85916e-33
000310 48 b2 97 01 2c c5 32 b8 be 4c 9b 37 40 1f 22 82
       5.572446e-38 -4.2622138e-05 1.8513176e-05 -1.1910849e-37

weight f4 [200]
000000 c6 dd 2c 80 08 f2 e1 3e e4 9d dc 3e b1 a6 01 3f
       -4.120319e-39 0.44129968 0.4308921 0.50644976
000010 33 1a 19 3f 40 8a 27 3f 05 6c 12 3f f5 63 f8 3e
       0.598056 0.6544533 0.57196075 0.4851376
000020 45 49 37 3e ca 4a e8 3e a8 17 11 3b e0 2f 17 3f
       0.17899044 0.4536956 0.0022139344 0.59057426
000030 51 d7 8b 39 8a 54 6e 3a a8 3b f1 3e fa d6 1c 3f
       0.0002667257 0.0009091577 0.47115827 0.6126553
000040 50 f8 b8 3e 71 b4 9a 3e 23 a9 21 3f b6 47 81 b8
       0.36126947 0.3021579 0.6314871 -6.1645565e-05
000050 70 d4 93 3e 3b 61 8e 3e e0 01 0a 3f 82 21 90 3e
       0.28873014 0.27808556 0.5390911 0.28150564
000060 c0 c0 5b 3f be 10 03 3f 54 28 f7 3e 49 e8 18 3f
       0.8584099 0.5119742 0.48272955 0.5972944
000070 dc b5 57 3e 15 8a f5 3e d8 12 da 00 c1 43 0c 3f
       0.21065468 0.4795691 2.0026898e-38 0.54790884
000080 39 01 ef 3e 42 43 26 3f d4 e9 f3 3e 84 c1 2f 3f
       0.4668062 0.6494638 0.47639334 0.68654656
000090 0c 81 bc 3e 8d a3 79 3f 86 b7 32 3f 82 b2 82 3f
       0.36817205 0.97515184 0.69811285 1.0210726
0000a0 db 01 d4 3d b2 77 d9 3e 08 9e ef 3a c4 cd 8d 3f
       0.103519164 0.42474133 0.001828135 1.107842
0000b0 d9 eb a4 3e 0e 0d c4 3e 0f a6 c0 3e d2 e7 01 3f
       0.32211187 0.3829121 0.37626693 0.50744355
0000c0 08 31 d5 3e cf d4 f2 3e ec 6e f3 3e 90 e2 26 3f
       0.4163897 0.47427985 0.47545564 0.65189457
0000d0 4b 59 2b 3f 11 b2 ad b9 aa e4 7b 3b 7d ee 74 34
       0.66933125 -0.000331298 0.0038435855 2.2811032e-07
0000e0 b2 68 39 80 91 c8 29 3f 6b 56 a9 3e 0b 2f 41 3f
       -5.272181e-39 0.66321665 0.33073744 0.75462407
0000f0 07 69 80 3f 36 68 d4 3e 02 7b 6b 3f 5b 2d 31 3f
       1.0032052 0.41485757 0.9198457 0.6920983
000100 5e 66 18 3f d0 68 9d 82 3d 53 0c 3f 33 e0 a1 3e
       0.595312 -2.3129236e-37 0.5481451 0.31616363
000110 9f a4 0f 3f 04 d1 67 3f 52 59 08 3f bc a2 f1 3e
       0.56110567 0.9055331 0.5326129 0.4719447
000120 6e 2e 32 3f f9 99 b4 3e ef 66 cf 3e b9 9e 3e 3f
       0.69602096 0.35273722 0.4050822 0.7446094
000130 59 4e 22 3f 58 c5 46 3f 7b 88 d6 3e 21 72 4a 3f
       0.634008 0.7764487 0.41901 0.79080397
000140 c1 a9 12 00 78 f6 82 ba 10 94 21 3e a0 64 20 3f
       1.713935e-39 -0.0009991666 0.15779138 0.6265354
000150 72 79 5f 3f c8 54 a4 3e e2 7b da 3e 2a 57 79 3b
       0.87294686 0.32095933 0.4267264 0.0038046339
000160 9b e8 0a 3f 93 b9 53 3f 17 26 2d 3f f0 21 2a 3f
       0.5426118 0.8270504 0.67636245 0.66458035
000170 a6 72 5b 3f 00 f5 47 80 72 ac 26 3f 54 39 96 3e
       0.85721815 -6.60821e-39 0.6510688 0.29340613
000180 98 39 ce 3e c4 da 70 3f 6f de 64 3f e7 77 01 3f
       0.40278316 0.9408381 0.89401907 0.5057358
000190 43 32 2a 3f bb c3 fe 3e 04 f7 3b 3f 9e 41 09 3f
       0.66482943 0.49758705 0.7342379 0.5361575
0001a0 8d 7a 28 3f af 33 af 3e 02 03 ae 3e 26 2c 43 3f
       0.65812 0.3421912 0.3398667 0.7623924
0001b0 b4 78 30 3f 1d d5 2e 00 33 39 02 3f f8 d9 d0 3e
       0.6893418 4.300883e-39 0.5086853 0.40791297
0001c0 11 98 e0 3e 23 d8 4d 3e de ca 02 bc 00 2b 7a 80
       0.43866017 0.20101981 -0.007982938 -1.1219356e-38
0001d0 42 7f 93 3e 07 12 19 3f 39 5f 22 3f 5f b9 43 3f
       0.28808028 0.5979313 0.6342655 0.7645473
0001e0 a1 3d e2 3e dd 25 04 3f d3 85 8a 3e 26 75 18 3f
       0.44187644 0.51620275 0.27055225 0.59553754
0001f0 ec 05 24 00 34 6d f3 3e 2e a6 27 3f 40 35 e5 01
       3.308202e-39 0.47544253 0.65487945 8.4197724e-38
000200 06 24 04 3f c6 25 6e 3a a3 9c b4 3d 3e 16 26 3f
       0.5161747 0.0009084608 0.088189386 0.6487769
000210 89 cf 2d 3f e3 6c 90 3e c6 65 35 3f a4 44 db 3e
       0.678948 0.28208074 0.7085842 0.42825806
000220 81 b5 1e 3f f3 35 a9 3e 32 27 89 3f c1 4a 0e 3f
       0.61995703 0.33048972 1.0715086 0.55582815
000230 31 ad 16 3f 2e b6 a5 3e 63 7d 29 3f 68 7f 8a 3f
       0.5885802 0.32365555 0.6620695 1.0820131
000240 cf 25 43 3f 24 81 f7 3e 77 84 0f 3f 53 75 0f 3f
       0.76229566 0.48340714 0.560615 0.560384
000250 ca a5 0e 3f ae 8b ad 3e 3d e4 c3 3e cf 8f 02 3f
       0.55721724 0.3389563 0.3826007 0.51000684
000260 7d 7d 4b 3f 06 ba d0 3e 43 e9 0a 3f 2f 10 3b 3f
       0.79488355 0.40766925 0.5426218 0.7307157
000270 c2 54 50 3e 61 7f d9 3e 42 66 0d 3e 21 0b 17 3f
       0.20344833 0.42479995 0.1380854 0.59001356
000280 16 a9 af 3d bd 52 0a 3f 6c b6 56 3f 37 b5 ed 3e
       0.085771725 0.540325 0.83872104 0.46427318
000290 b8 05 f7 3e fb a8 94 bb 5b e0 12 3f 85 d3 40 3b
       0.4824655 -0.0045367456 0.5737359 0.002942295
0002a0 6c 66 0e 00 d0 1f 40 3f 36 84 68 3e 39 c9 1a 3f
       1.322439e-39 0.7504854 0.22706684 0.6046329
0002b0 af c0 67 3a 55 67 da 3e 9e a6 13 3d 78 ee ef 39
       0.0008840663 0.4265696 0.03604757 0.00045763305
0002c0 e0 d5 71 3f 03 92 00 3f 8d 05 9f 3e 83 ca 7e 3e
       0.9446697 0.50222796 0.31058922 0.2488194
0002d0 de e6 08 80 4e 7e 2a 3f ee 60 91 3e b1 1b 29 80
       -8.17504e-40 0.66598976 0.28394264 -3.775189e-39
0002e0 06 20 16 3f a6 7e a1 3e cf fc 2d 3f d7 2c 44 3f
       0.58642614 0.31541938 0.6796388 0.7663092
0002f0 16 c8 1d 3f 2a a1 cb 3e f9 5a ef 3e 36 f6 38 3f
       0.6163343 0.39771396 0.46749094 0.7225069
000300 10 2d 96 39 6b 7b 2b 3f c7 c5 08 3f 88 80 62 3e
       0.00028643804 0.66985196 0.53426784 0.22119343
000310 33 1a 3b 80 3d c8 12 3f 69 c2 08 3f 40 63 0e 82
       -5.427693e-39 0.5733679 0.53421646 -1.0460996e-37

bias f4 [200]
000000 a0 6c 8b bb e3 c8 2f bf ed 95 ea be ae 8d b1 be
       -0.0042548925 -0.68665904 -0.4581751 -0.34678406
000010 bd 71 83 3e 91 44 59 be 12 ec c5 be d8 1b 83 3d
       0.25672713 -0.21217562 -0.3865667 0.06401795
000020 55 94 1c 3f 1c 2f af be 10 96 b3 bb 81 ad e7 be
       0.61163837 -0.3421563 -0.0054805353 -0.4524956
000030 0d 47 07 bb 2a 86 de bc 63 2d 3b bf ae 2f 18 be
       -0.0020641715 -0.027163584 -0.7311613 -0.14861938
000040 2c ba ef be 23 fb 17 bf 97 90 03 bd d9 41 4a bb
       -0.46821725 -0.5936758 -0.032120313 -0.0030862002
000050 67 9f 13 bf 60 e0 eb be 54 fd 17 bf e7 2e da be
       -0.57665104 -0.46069622 -0.59370923 -0.4261391
000060 64 4a 29 3e 88 d2 a0 be f3 07 07 bf 9b ed ff be
       0.16532284 -0.31410623 -0.52746505 -0.49985966
000070 48 19 df be b9 be 1c bf 46 34 fc b9 67 67 11 bf
       -0.43573976 -0.6122852 -0.00048104132 -0.56798404
000080 01 b2 7b be ae f7 91 be 27 20 b9 be 21 a6 e6 be
       -0.24579622 -0.28509277 -0.36157343 -0.4504862
000090 e8 38 56 be 84 ab 47 bd e5 89 8c 3d a8 66 90 be
       -0.20920146 -0.048747554 0.06862239 -0.2820332
0000a0 72 1b 84 3e e7 79 a4 be 30 35 f3 bb 95 14 e1 3d
       0.2580219 -0.32124254 -0.007422112 0.10990254
0000b0 2b 5c db be b1 cf 13 bf b5 35 e9 be 37 3c de be
       -0.42843756 -0.57738787 -0.45548788 -0.43405315
0000c0 43 64 cc be 36 e1 28 3d 61 44 18 bf f7 21 ed be
       -0.39920244 0.041230403 -0.5947934 -0.46314976
0000d0 37 71 8a bd b7 84 56 ba 46 b8 db b8 0f 51 e3 b9
       -0.06759875 -0.0008183228 -0.000104770574 -0.00043357207
0000e0 01 c2 03 bc d6 a8 52 bc f5 fa ed 3d cf 74 bf bc
       -0.00804186 -0.012857636 0.11620132 -0.023371128
0000f0 4c 64 0f be 8f 4b fd be bc 0f 3d bb f8 da 0e 3d
       -0.14003104 -0.4947171 -0.002884849 0.034876794
000100 95 d2 b4 be 2b 13 94 91 09 33 25 bf 84 ec f3 be
       -0.3531691 -2.3362096e-28 -0.64531 -0.47641385
000110 2b d2 17 bf 48 88 35 3e de 31 dc be 26 f0 af be
       -0.59305066 0.17727768 -0.43006796 -0.34362906
000120 03 c5 d0 be 23 a3 15 bf fd e2 90 be 73 b1 22 bd
       -0.40775308 -0.5845205 -0.28298178 -0.03972001
000130 e4 9b e8 be ec ca e6 be 45 22 eb be e1 8a 46 bc
       -0.45431435 -0.45076692 -0.45924583 -0.012118072
000140 0f 63 48 bc 0b a9 32 bc fc 6a 42 be fd 89 5b be
       -0.012230649 -0.010904561 -0.18986124 -0.21439357
000150 cc b7 28 3e 02 45 fa be a8 62 f0 be 7c ee 63 3e
       0.16476363 -0.48880774 -0.4695027 0.22258943
000160 f2 4b 02 bf 98 d2 9d be f4 54 c5 bd ec 4c e9 bd
       -0.50897133 -0.30824733 -0.09635344 -0.11391625
000170 72 2d ab 3e 22 1f a8 a9 95 49 2e bd 9f d7 09 bf
       0.3343311 -7.4660994e-14 -0.042550642 -0.53844637
000180 5e a9 0d bf b8 aa 87 3e f9 cb ac be ce 17 25 3e
       -0.5533656 0.26497436 -0.3374937 0.16122362
000190 17 20 13 be d2 13 14 bf 33 cd 37 bf 71 58 cb be
       -0.1436771 -0.57842743 -0.71797484 -0.39715913
0001a0 99 a1 83 be 47 f5 fb be c3 06 e5 be e9 95 e5 be
       -0.25709227 -0.4921057 -0.4473172 -0.44840935
0001b0 ee 48 c6 be 8a bd 6b bc e5 34 e9 be 23 86 59 3e
       -0.38727516 -0.014388451 -0.45548168 0.21242575
0001c0 cd bb 30 bf ed c0 db be 5d f6 19 bd ed 60 97 ad
       -0.6903656 -0.42920628 -0.037588466 -1.7209756e-11
0001d0 d2 6b 04 bf ad 21 f9 bd de 31 e5 be 74 a1 da 3d
       -0.5172702 -0.12164626 -0.44764608 0.10675326
0001e0 3d 74 0d bf f9 e7 cf be 6c f4 fa be 8f 78 bf be
       -0.5525549 -0.4060667 -0.49014604 -0.37396666
0001f0 7b c5 00 bc 4d 92 88 be 8d 3b 59 be 15 82 05 b9
       -0.007859583 -0.2667412 -0.21214123 -0.00012732328
000200 b2 19 eb be 74 44 ee bb 2e b1 9f be 3b d8 5a 3e
       -0.4591804 -0.007271344 -0.31189865 0.21371548
000210 eb c5 db be 73 99 d7 be 22 51 e2 bd d1 17 d0 be
       -0.42924437 -0.4210926 -0.11050631 -0.4064317
000220 12 70 19 bf ff 92 02 bf ec 7f db 3e 39 3a 42 bd
       -0.5993663 -0.5100555 0.42871034 -0.047418807
000230 ef 11 b9 be e4 9c 13 bf e2 07 e8 be 47 af 24 3d
       -0.36146495 -0.5766127 -0.45318514 0.04020622
000240 1f 7e 9f bd 39 6f 24 bf 6a b4 10 bf 3c d8 ba be
       -0.077877276 -0.6423221 -0.5652529 -0.364931
000250 9d 3d 65 3d b4 74 ed be e3 3a fb be 20 62 ee be
       0.055966962 -0.463781 -0.49068365 -0.46559238
000260 62 0d 80 bd 39 20 9a be 04 55 a8 be ad 77 a7 be
       -0.062525526 -0.3010271 -0.32877362 -0.32708493
000270 ab 57 c9 be 67 84 00 bf 36 8a 10 bf b0 4b 2d bf
       -0.39324698 -0.5020203 -0.56460893 -0.67693615
000280 d1 8b 44 be ad 01 d9 be fa a4 d6 bb 63 d6 c5 be
       -0.1919396 -0.4238409 -0.0065504285 -0.38640127
000290 0f a0 f6 be d2 82 04 bd 65 26 fe be 13 ce a0 bb
       -0.4816899 -0.032351322 -0.49638668 -0.0049073785
0002a0 9e 4a a4 bc 52 70 01 bf 93 58 ae be 38 36 0d be
       -0.020055111 -0.5056201 -0.34051952 -0.13790214
0002b0 1e ad 1f bb ec 32 10 bf ca 73 e6 bd 1a a0 42 bb
       -0.002436466 -0.563277 -0.11252554 -0.0029697479
0002c0 9d c9 25 3c 8c 6c d6 be 4b 31 0f 3e 9a ea f2 be
       0.010118869 -0.4187969 0.13983648 -0.47444612
0002d0 62 30 72 bb 36 82 d6 bc cc 18 93 3e 5a d6 21 ba
       -0.0036955108 -0.026185136 0.28729856 -0.00061736035
0002e0 01 e1 a6 be 94 4b 07 bf bd 3a 08 bd b7 27 29 3d
       -0.3259354 -0.528497 -0.033259142 0.04129764
0002f0 9f ed 22 bf 44 4d 07 bf 9d 2e 8c bd bd ff 7f 3d
       -0.6364383 -0.52852273 -0.06844828 0.06249975
000300 ec ed 03 bb fc c2 e6 be 55 b1 04 bf 08 61 17 bf
       -0.0020130826 -0.45070636 -0.5183309 -0.5913243
000310 f8 46 31 ad 6b 39 bd be b5 25 08 bf 99 f2 ce bc
       -1.0077043e-11 -0.3695787 -0.53182536 -0.025262164

running_mean f4 [200]
000000 e3 1c 23 01 a2 50 de c0 01 e8 b5 c0 86 6a 8b bf
       2.9959097e-38 -6.947343 -5.684571 -1.0891883
000010 d9 af 13 41 8b 5d 1e c1 0d 0f 30 c0 75 b4 32 c1
       9.230432 -9.897838 -2.7509186 -11.169057
000020 01 31 15 c1 a4 7b b6 bf 51 fa 29 a5 cd d3 ba bf
       -9.324464 -1.4256482 -1.4743224e-16 -1.4595886
000030 9c 59 74 2f 55 46 8f 3d 54 2e 20 40 ce 96 52 c0
       2.2223506e-10 0.06995837 2.5028276 -3.2904544
000040 28 a4 f9 bd 28 03 d4 be 30 00 bb c0 b3 59 47 ae
       -0.121895134 -0.41408658 -5.843773 -4.532703e-11
000050 e7 b6 00 c0 f0 17 27 3f 96 ab ec c0 96 75 12 c0
       -2.0111635 0.652709 -7.3959455 -2.2884269
000060 cd 67 8d 40 f0 17 fa bf 39 90 cb c0 4f 23 d3 c0
       4.418921 -1.9538555 -6.3613553 -6.59806
000070 7c 5d e7 be 2e 41 b5 c0 fd 65 69 11 89 04 4b 40
       -0.4518851 -5.6642065 1.8411887e-28 3.1721518
000080 62 28 01 c1 f6 77 1d c1 91 47 b7 c0 dc 66 ab c0
       -8.072359 -9.841787 -5.727486 -5.356306
000090 5c 20 d4 3f 23 43 6f 40 df 86 c2 bf 2c 15 58 40
       1.6572375 3.7384727 -1.5197409 3.3762922
0000a0 6c 09 2a c1 43 4e 7f c0 d2 9f ab 37 49 1b a1 40
       -10.6273 -3.9891517 2.045921e-05 5.0345807
0000b0 60 63 0c bf 3e b7 c7 c0 4d d4 87 c0 a8 b5 ab c0
       -0.54839134 -6.2411184 -4.2446656 -5.365925
0000c0 11 04 3a bf 57 77 5e c0 ed 0f 1e c0 4f 14 7a c0
       -0.72662455 -3.476034 -2.469722 -3.9074895
0000d0 7f d7 03 c0 49 37 7c 01 6e 74 2e af 7e 48 53 81
       -2.0600278 4.6324755e-38 -1.5866572e-10 -3.880659e-38
0000e0 e6 ba 9b 01 c4 b8 f4 be 0d 38 88 c1 34 54 1e c1
       5.7206194e-38 -0.47797215 -17.027369 -9.895557
0000f0 85 27 fb bf ec f0 fd c0 17 36 be 3f 45 67 91 41
       -1.9621435 -7.9356594 1.4860257 18.175425
000100 08 89 9f c0 d8 cf 23 00 fb 5b 32 40 b2 28 2c bf
       -4.9854774 3.288803e-39 2.786864 -0.67249596
000110 87 58 29 c1 a6 bc ac 3f fc c2 3b 3f 92 1c 7f c0
       -10.584113 1.3495071 0.733444 -3.9861188
000120 90 da c2 3f 18 90 b2 3d 49 7d 2d c0 82 c2 13 c0
       1.522295 0.0871889 -2.7107718 -2.3087468
000130 12 4d d9 bf ca 99 14 c0 23 b4 a5 3d 84 1b 84 c0
       -1.6976645 -2.3218865 0.08090999 -4.128359
000140 b8 f5 43 81 52 ca d3 33 07 62 83 3e 52 12 03 c1
       -3.5992138e-38 9.862255e-08 0.25660726 -8.191973
000150 1a 3f ef c0 c7 a5 0a c0 0d 86 11 c0 af 34 cd c0
       -7.476453 -2.1663682 -2.2738068 -6.412681
000160 bb b0 d8 40 86 f6 78 40 16 1c 4e c0 e6 eb 44 3e
       6.7715735 3.8900466 -3.2204642 0.19230613
000170 f8 f2 95 40 4d b8 14 81 76 49 a3 c0 70 ef d1 3f
       4.6859093 -2.7315536e-38 -5.1027174 1.6401196
000180 48 7c e3 40 b1 df d7 40 8f f1 73 bf e2 eb b5 c1
       7.108921 6.746056 -0.95290464 -22.740177
000190 fe 0e 88 3f 21 27 a3 c0 b8 97 9f bf a8 42 91 3f
       1.0629575 -5.0985265 -1.2468176 1.1348467
0001a0 6a 1f 99 c0 bf 34 20 40 17 30 86 3d 3f 44 80 40
       -4.7850847 2.5032194 0.06552141 4.008331
0001b0 4b 07 be bf 44 b1 2d 81 a0 08 7d 3f 5d f4 bf c0
       -1.4845976 -3.1902264e-38 0.98841286 -5.9985795
0001c0 3c 1c b0 3f 53 31 14 40 79 28 94 bf 41 2f 3c 81
       1.3758616 2.3155105 -1.1574851 -3.456405e-38
0001d0 b5 51 d3 c0 a0 bd ac 40 4d cf 11 c1 0e 6a 66 bf
       -6.603724 5.3981476 -9.113111 -0.90005577
0001e0 cf 48 fe 3e 51 5d 9d 3f f2 2f 79 bf 83 df d4 c0
       0.49664924 1.2294103 -0.97338784 -6.652284
0001f0 6c ab 50 00 6a 17 80 bf 20 ee 00 41 9b 16 98 02
       7.408334e-39 -1.0007145 8.058136 2.2347368e-37
000200 2c 74 3c 40 f8 a7 a4 3b 3e 09 25 3d 56 3f 24 c1
       2.9445906 0.0050249062 0.040292017 -10.265463
000210 aa fa bb c0 4e d8 e0 bf 16 b6 9d c0 75 25 99 c0
       -5.8743486 -1.7566011 -4.9284773 -4.7858224
000220 4b 52 13 c1 c8 cb c9 3f f3 26 2f 40 9b cd 99 be
       -9.207591 1.5765314 2.7367523 -0.30039677
000230 85 db 50 c0 d5 78 7f bf ed f5 9f c0 e9 4f b2 40
       -3.2633984 -0.9979375 -4.99877 5.5722547
000240 aa 22 d4 40 f5 3c cd bf d0 b0 18 41 bb 52 d2 c0
       6.6292315 -1.6034228 9.543167 -6.572599
000250 b0 ed 06 41 9b f5 87 3e 3d 19 2e 3f b6 47 f8 c0
       8.433029 0.2655457 0.6800726 -7.758754
000260 9e a2 d0 c0 1c 21 93 bf 81 17 01 c0 4a af a2 c0
       -6.5198507 -1.1494479 -2.0170596 -5.0838976
000270 f6 79 50 bd 97 e5 04 c1 1d b3 f2 bd 5c b4 c0 bd
       -0.05089756 -8.306052 -0.118505694 -0.09409401
000280 8c ed d4 3b 43 f0 15 40 e4 94 af 40 33 f2 cd bf
       0.0064980444 2.3427894 5.486925 -1.6089538
000290 42 e0 d8 bf 94 67 e7 37 f5 7b 6a 41 eb 60 52 81
       -1.6943438 2.7585578e-05 14.655263 -3.8640444e-38
0002a0 a5 40 8e 01 0f 44 73 40 84 cd f6 bd 52 1f 27 be
       5.225532e-38 3.801029 -0.12050918 -0.16320542
0002b0 f4 98 e2 b4 2e 43 99 c0 bc c7 04 be 8f 4e 2a 0a
       -4.2207068e-07 -4.7894506 -0.12966818 8.1999775e-33
0002c0 8d 36 dc 40 54 c2 e8 bf 72 6d bb c0 d0 fd 8c bd
       6.881659 -1.8184304 -5.85711 -0.068843484
0002d0 99 38 72 01 6c 66 5e 3f c4 5b 4e c1 b7 b6 d9 00
       4.4488987e-38 0.86875033 -12.897404 1.9993848e-38
0002e0 bf e1 4c c0 de 9b 6e c0 f3 f1 ce c0 04 f5 02 be
       -3.2012784 -3.7282634 -6.467035 -0.12788779
0002f0 bb db 4d 40 57 bb 05 bf f7 2a 81 c0 23 6e a6 40
       3.2165363 -0.5223898 -4.0364947 5.2009444
000300 f5 4a f0 80 5b f8 5b c0 35 d6 50 bf e2 c0 c3 3e
       -2.2067409e-38 -3.4370334 -0.81576854 0.38233095
000310 66 eb 4e 82 db e4 ad 3c 19 18 0f c0 83 24 1b 80
       -1.5202046e-37 0.02122729 -2.2358458 -2.492656e-39

running_var f4 [200]
000000 04 00 00 00 61 e3 ec 41 da 64 03 42 b5 75 14 42
       6e-45 29.611025 32.848488 37.11495
000010 3f 2b 47 42 ed 8f 07 43 db 07 fb 41 87 0b 90 42
       49.792233 135.56221 31.378836 72.022514
000020 dc 33 5a 43 17 37 ed 41 79 d8 0d 0c 43 d7 a9 42
       218.20258 29.6519 1.0927387e-31 84.92043
000030 f5 df 5b 20 93 24 e2 3a 9b b5 73 42 7b e4 81 42
       1.8624123e-19 0.0017253332 60.92735 64.94625
000040 e9 37 20 41 dc e7 ce 40 41 36 68 43 74 48 67 1e
       10.01365 6.465803 232.21193 1.2244021e-20
000050 8b 0d d5 40 cc 87 af 40 9c e2 d7 42 8f 74 67 41
       6.657903 5.485327 107.9426 14.465957
000060 34 5a 32 43 11 93 00 42 b9 ac 24 42 50 61 7b 42
       178.35236 32.14362 41.168674 62.84503
000070 86 c9 89 3f 1a 7e 6b 41 04 00 00 00 1f 15 80 42
       1.0764625 14.7182865 6e-45 64.04125
000080 1b 4d a8 41 c7 07 a6 42 d3 4f 79 42 1e 9a 3d 42
       21.03765 83.01519 62.327953 47.400505
000090 d1 53 c5 41 20 00 a9 42 40 65 1c 43 e6 2e 27 43
       24.665926 84.500244 156.39551 167.1832
0000a0 fc 35 78 42 29 7d e9 41 aa 40 ca 2f 1c a3 db 42
       62.05272 29.186113 3.6789533e-10 109.81857
0000b0 34 4a 20 41 17 0d 61 41 51 c8 a0 41 cf 87 4e 42
       10.018116 14.065696 20.09781 51.632626
0000c0 24 3f f8 41 d8 b3 df 42 3c c6 30 42 ee 68 24 43
       31.03083 111.85126 44.19359 164.40988
0000d0 4a 07 8d 42 04 00 00 00 4e 87 e3 1f 04 00 00 00
       70.51424 6e-45 9.636208e-20 6e-45
0000e0 04 00 00 00 f1 9c cc 42 2d a7 d8 42 b7 1c 88 42
       6e-45 102.306526 108.326515 68.05608
0000f0 63 bf 04 43 e1 38 f3 41 13 6a 9c 42 73 b6 ff 41
       132.7476 30.402773 78.20718 31.964087
000100 35 34 1f 43 04 00 00 00 78 11 b4 41 d0 29 26 41
       159.20393 6e-45 22.50853 10.385208
000110 0e 0b f7 41 f6 cb 21 43 db e6 bd 42 49 35 40 42
       30.880398 161.79672 94.95089 48.052036
000120 96 e4 ed 42 eb 08 eb 41 8a cf e8 42 2e eb 6f 42
       118.94646 29.379354 116.40535 59.979668
000130 7f c3 96 42 73 a3 3d 43 0b f3 35 42 c1 cb 1c 43
       75.38183 189.63847 45.487347 156.79591
000140 04 00 00 00 d4 aa 55 28 79 02 09 41 12 a1 08 43
       6e-45 1.1860918e-14 8.563104 136.62918
000150 56 75 18 43 db e8 9d 41 b4 93 b9 41 ee da e5 41
       152.45834 19.738699 23.19712 28.7319
000160 21 49 10 43 8d 38 7d 42 24 c1 41 43 2c ef e1 42
       144.28566 63.305225 193.75446 112.96713
000170 48 df 1a 43 04 00 00 00 67 59 5e 42 66 70 38 41
       154.8722 6e-45 55.587307 11.527441
000180 b6 15 0c 42 f9 d5 01 43 0e 66 5a 43 a9 17 37 42
       35.021202 129.83583 218.39865 45.773106
000190 79 ca 69 42 88 be 74 42 88 69 10 43 45 af 6e 42
       58.447727 61.186066 144.41223 59.67116
0001a0 1f 0d 1b 43 b7 48 af 41 e2 b0 5a 41 26 7b 00 43
       155.05125 21.910505 13.668184 128.48105
0001b0 bf ec 02 43 04 00 00 00 d8 88 3f 42 ee fd e8 42
       130.92479 6e-45 47.883636 116.49596
0001c0 e1 3f c2 41 58 ac d7 40 29 02 d7 3f 04 00 00 00
       24.28119 6.739788 1.6797534 6e-45
0001d0 17 73 a4 41 88 a7 3a 42 7f a0 52 42 67 b3 d5 42
       20.556196 46.663605 52.656734 106.850395
0001e0 25 ab 15 42 69 2b f3 41 8a 05 b0 40 27 18 33 42
       37.417133 30.396196 5.500676 44.773586
0001f0 04 00 00 00 9c 95 98 42 ff 03 eb 41 04 00 00 00
       6e-45 76.292206 29.376951 6e-45
000200 6c 22 50 42 93 f5 32 39 c3 40 21 3d 74 1a 16 42
       52.033615 0.00017066886 0.039368402 37.525833
000210 f5 4c ba 42 4f 1f 21 41 10 9c a0 42 b8 de b3 41
       93.15031 10.070144 80.30481 22.48375
000220 f8 98 d3 41 20 2d 8a 40 64 13 23 43 0e 04 35 42
       26.449692 4.3180084 163.07574 45.25396
000230 74 09 ec 42 be 20 bc 41 ac cb 11 42 f5 60 56 43
       118.01846 23.515987 36.4489 214.37874
000240 27 a0 13 42 77 de 30 42 a4 e6 44 42 11 01 74 42
       36.9064 44.21725 49.225235 61.00104
000250 22 2a 27 42 d5 29 54 41 4b f9 04 42 4c 08 8c 41
       41.791145 13.260213 33.24345 17.504051
000260 36 da 4a 43 0a 52 0a 42 73 97 f9 42 6f 68 4d 43
       202.85239 34.580116 124.7958 205.40794
000270 53 46 72 3e be e7 ce 41 f1 a1 85 40 f5 cb 74 42
       0.23659639 25.863155 4.176018 61.199177
000280 98 bc 96 39 60 ec 98 42 b3 66 dc 42 55 9f 24 42
       0.00028750743 76.46167 110.200584 41.155598
000290 e3 06 64 42 69 1a da 31 50 16 d9 41 04 00 00 00
       57.006725 6.3476375e-09 27.135895 6e-45
0002a0 04 00 00 00 06 13 b0 42 0b b1 d4 3f 1b a3 eb 42
       6e-45 88.037155 1.6616529 117.818565
0002b0 e5 5d ec 2c 9d 78 70 42 e6 53 3f 3e 04 00 00 00
       6.717948e-12 60.117786 0.18684348 6e-45
0002c0 a0 fe 11 43 4a 0d f0 41 83 ca 22 42 5c 26 17 41
       145.99463 30.006489 40.697765 9.446865
0002d0 04 00 00 00 24 7b 4c 42 76 1b 97 42 04 00 00 00
       6e-45 51.120255 75.553635 6e-45
0002e0 30 ff 05 43 21 5b 95 41 78 43 72 43 28 76 d6 42
       133.99683 18.669497 242.26355 107.230774
0002f0 3c 54 c4 42 de a1 75 41 94 c9 97 42 0f 3e bc 42
       98.16452 15.352018 75.89371 94.12121
000300 04 00 00 00 4e 7a c3 42 3f e7 87 42 e6 87 07 40
       6e-45 97.73888 67.95165 2.1176696
000310 04 00 00 00 46 e9 0b 42 e8 5f 2d 42 04 00 00 00
       6e-45 34.977806 43.34366 6e-45
