experiments/kidney_data/model_kidney.pth (torch, 817005 bytes, 27 tensors)

weight f4 [10, 1, 10]
0	0xbbcc7cb2	-0.006240451
1	0xbd2a9417	-0.041645136
2	0xbead5040	-0.33850288
3	0xbda5e12e	-0.0809959
4	0x3de79e73	0.11309519
5	0xbb712e56	-0.00368013
6	0x3d4eba00	0.050470352
7	0xbd2ec39d	-0.04266702
8	0x3c27053d	0.01019412
9	0x3d0c80ad	0.034302402
10	0xbd37ccf8	-0.044873208
11	0x3ea2a1b9	0.3176401
12	0x3c91e6e9	0.017810302
13	0x3d96f2d1	0.07370532
14	0x3d782391	0.060580794
15	0xbe08c73f	-0.13357256
16	0x3d1dfa0b	0.038568538
17	0x3d861b22	0.06548144
18	0x3c948e96	0.018134397
19	0xbd84d613	-0.06486144
20	0x3cea53de	0.028604444
21	0xbdef2a97	-0.11678045
22	0xbd217967	-0.03942242
23	0xbe6aef40	-0.22942829
24	0x3d066832	0.032814212
25	0xbdfbc942	-0.12294246
26	0xbe2335c3	-0.15938477
27	0x3cf6e9c4	0.030140765
28	0xbd2f59e3	-0.042810332
29	0xbd91ffd7	-0.07128876
30	0xbd950f97	-0.07278364
31	0xbd86f332	-0.065893546
32	0xbdd62a88	-0.10457331
33	0x3dd6cbac	0.10488066
34	0x3d951b2f	0.072805755
35	0xbce13dfb	-0.027495375
36	0xbdec101f	-0.11526512
37	0xbe17fe6c	-0.14843148
38	0xbdd6f08e	-0.10495101
39	0xbdcda547	-0.1004129
40	0xbd02baa1	-0.031916264
41	0x3d414ca1	0.04719222
42	0x3e540c8c	0.20707911
43	0x3e480d2e	0.19536278
44	0xbc021b3b	-0.007941063
45	0xbb89d006	-0.0042057065
46	0xbde4b1b1	-0.111667044
47	0x3d2bb1d4	0.041917637
48	0x3df7a856	0.120926544
49	0xbdde2a76	-0.108479425
50	0x3e916e33	0.28404388
51	0xbd64a80b	-0.05582432
52	0xbdabd286	-0.083897635
53	0x3d16a9d2	0.036783047
54	0xbd3e8d9f	-0.04652178
55	0xbd81974b	-0.06327685
56	0xbdfa2140	-0.12213373
57	0x3d3f8e2c	0.046766445
58	0x3d318175	0.04333635
59	0xbd26add7	-0.04069313
60	0x3c3b9f00	0.011451483
61	0xbdde4be9	-0.108543225
62	0xbd090967	-0.033456232
63	0x3b22224e	0.0024739685
64	0x3e33ed53	0.17571001
65	0x3d1be084	0.03805591
66	0x3e2b667a	0.1673831
67	0x3d2da1c2	0.042390592
68	0x3d7f2cc4	0.06229855
69	0xbe3106f4	-0.17287809
70	0xbdbcf84a	-0.09227045
71	0xbdb4f07d	-0.08834932
72	0xbd85686e	-0.06514059
73	0x3d39111f	0.045182344
74	0xbd99b925	-0.07506017
75	0x3e812d0e	0.25229686
76	0x3cee1ad1	0.029065521
77	0xbd788555	-0.06067403
78	0xbd575790	-0.05257374
79	0x3c50bdb8	0.012740545
80	0x3d8a67b9	0.06758065
81	0xbe05bb4c	-0.1305973
82	0xbdb265b4	-0.087108046
83	0xbd96e9b1	-0.07368792
84	0xbdf456ff	-0.11930656
85	0xbe75f044	-0.24017435
86	0xbdcebdee	-0.1009482
87	0x3d56376d	0.052298952
88	0x3d4a328a	0.049364604
89	0x3c8f3640	0.017481923
90	0x3d95d7ee	0.07316576
91	0x3e841bdd	0.25802508
92	0xbcd631c9	-0.026146786
93	0x3d1ae9b6	0.03782054
94	0x3d65e4cd	0.056126405
95	0x3e4d5676	0.20052513
96	0xbd165582	-0.03670264
97	0x3dd2c4d8	0.10291451
98	0x3d415b52	0.04720623
99	0x3da0a6f9	0.078443475

bias f4 [10]
0	0x3a371291	0.00069836626
1	0xb95d9d28	-0.00021134748
2	0x3a19d060	0.0005867537
3	0x39b1ba3e	0.00033898832
4	0x39d72de2	0.0004104218
5	0x3aeb3c80	0.0017947108
6	0x3ae6a309	0.0017596196
7	0xbaaf263c	-0.0013362835
8	0xb946762e	-0.00018926777
9	0xba2b79c7	-0.00065412786

weight f4 [10]
0	0x3f57a21f	0.8423175
1	0x3f610033	0.8789093
2	0x3f94fa5c	1.1638904
3	0x3f86512f	1.0493525
4	0x3f526ae9	0.8219438
5	0x3f84f3b2	1.038687
6	0x3f696e7e	0.9118422
7	0x3f8030a5	1.0014845
8	0x3f983b2a	1.1893055
9	0x3f6731e4	0.903105

bias f4 [10]
0	0x3d968207	0.073490195
1	0x3e88c2a6	0.26711005
2	0xbd9a77f3	-0.0754241
3	0xbe29c574	-0.16579229
4	0x3eabbd96	0.3354308
5	0x3e617aff	0.22019576
6	0x3e69d9d8	0.22837007
7	0x3df36dfc	0.11886212
8	0x3dd89672	0.1057557
9	0x3dd320b4	0.10308972

running_mean f4 [10]
0	0xbb97f8e6	-0.0046378253
1	0x3b92d96f	0.0044814865
2	0xbc16cbb0	-0.009203836
3	0xbc183808	-0.009290703
4	0x3bb237c0	0.005438775
5	0x3a44de14	0.0007509899
6	0x3ba86341	0.005138785
7	0xbb11a8a1	-0.0022225755
8	0xbc0f8bda	-0.008761371
9	0x3c32d500	0.010915041

running_var f4 [10]
0	0x3e042608	0.12905133
1	0x3e0525c8	0.13002694
2	0x3e5431ed	0.2072217
3	0x3e15e1f9	0.14636983
4	0x3dfab61b	0.12241765
5	0x3dbbd25d	0.09170983
6	0x3db95000	0.09048462
7	0x3d9c7b32	0.07640685
8	0x3e36355c	0.17793792
9	0x3e80f5a1	0.251874

weight f4 [10, 10, 9]
0	0x3c15e26a	0.00914822
1	0x3d80fcbc	0.06298205
2	0xbd4a17a0	-0.049338937
3	0x3d6b7f29	0.057494316
4	0xbde5ab11	-0.11214269
5	0x3de1a140	0.11017084
6	0x3d9832a7	0.07431536
7	0x3d8600f2	0.06543149
8	0xbda8c8dc	-0.08241436
9	0xbdf25421	-0.118324526
10	0xbd9c4a54	-0.076313645
11	0xbca8ff78	-0.02062963
12	0x3df06745	0.11738447
13	0xbd7c5bf6	-0.06161114
14	0x3d519570	0.051167905
15	0xbd9c85f2	-0.076427355
16	0xbc95f288	-0.018304124
17	0xbd3a3215	-0.04545792
18	0xbe1f3a5e	-0.15549609
19	0xbe8b6aa2	-0.27229792
20	0xbe126981	-0.14298059
21	0x3ad7b778	0.0016457876
22	0xbe0f35f5	-0.13985427
23	0xbdb490cd	-0.08816681
24	0xbe1aa738	-0.15102851
25	0xbdc26962	-0.094927564
26	0xbd2ee8af	-0.042702373
27	0xbe11824e	-0.14209864
28	0xbd91f9f8	-0.07127756
29	0xbd39cc99	-0.045361135
30	0x3bc587d9	0.006028157
31	0xbe511096	-0.20416483
32	0xbe587779	-0.21139325
33	0xbe12623c	-0.14295286
34	0xbe05446e	-0.13014385
35	0xbe56ea9d	-0.20987935
36	0x3cc78431	0.024355026
37	0x3d607985	0.05480339
38	0x3bcbdf62	0.0062216977
39	0x3a862c3b	0.001023657
40	0x3c21e120	0.009880334
41	0xbde76de8	-0.1130026
42	0xbc27612a	-0.010216037
43	0xbe2cbbb5	-0.1686848
44	0xbde97dc6	-0.114009425
45	0x3e17ddab	0.14830653
46	0x3d62525a	0.055254318
47	0x3e7ea593	0.24867849
48	0xbde78311	-0.11304296
49	0xbd8ef727	-0.06980734
50	0x3dcd2214	0.100162655
51	0xbdc9e73a	-0.09858556
52	0x3d7200a9	0.05908266
53	0xbc6eb07f	-0.014568447
54	0x3c83c760	0.01608628
55	0xbc6934c4	-0.014233772
56	0x3d6b9c9b	0.057522397
57	0xbccbbb6b	-0.024869641
58	0xbd5713e7	-0.052509215
59	0x3d968055	0.07348696
60	0x3df5e4f1	0.12006558
61	0x3dfaadee	0.12240206
62	0x3d3e80b9	0.04650948
63	0xbdaf6158	-0.08563489
64	0x3d263a12	0.040582724
65	0xbd9f24c4	-0.07770684
66	0xbdbbd92b	-0.09172281
67	0xbd9a0ca9	-0.07521946
68	0xbd8ace3b	-0.067776166
69	0x3d3bcace	0.045847706
70	0xbe1eb865	-0.15500028
71	0xbe13b499	-0.14424361
72	0xbdb29d29	-0.08721382
73	0xbe7eeea9	-0.24895729
74	0xbdc31fad	-0.09527526
75	0xbd542581	-0.05179358
76	0xbc59e794	-0.013299841
77	0x3d83338e	0.06406318
78	0xbe39f09b	-0.1815819
79	0xbdc98714	-0.09840217
80	0xbc3180cf	-0.010833933
81	0x3d894778	0.06703085
82	0x3e07b17a	0.13251296
83	0x3bb4484b	0.005501782
84	0x3dfc96f8	0.123334825
85	0xbcb8e08e	-0.022568014
86	0xbc91e9f4	-0.017811753
87	0xbd121621	-0.035665635
88	0xbdb8c2f5	-0.0902156
89	0x3d16069f	0.036627408
90	0xbe1fba70	-0.15598464
91	0xbc2b2946	-0.010446852
92	0xbd3c2f58	-0.045943588
93	0x3d85032a	0.06494744
94	0x3d30c49b	0.043156248
95	0xbbee0a78	-0.0072644316
96	0x3ca1c00a	0.019744892
97	0xbcba452e	-0.022738066
98	0xbe32400d	-0.17407246
99	0xbd076044	-0.03305079
100	0x3b5d660a	0.0033782744
101	0x3e3d7fb9	0.18505754
102	0xbd8807cb	-0.066421114
103	0xbd9859b4	-0.074389845
104	0x3cbf29b9	0.023335325
105	0xbd2b6f5d	-0.04185425
106	0xbe1da491	-0.15394808
107	0x3db21dfc	0.08697125
108	0xbd335ba1	-0.043788556
109	0x3ca36ba1	0.019948782
110	0xbd17930d	-0.037005473
111	0xbdc93678	-0.09824842
112	0x3c3b4810	0.011430755
113	0xbdb6472f	-0.08900296
114	0xbd92961b	-0.071575366
115	0xbc97f83c	-0.018550985
116	0x3bb344fc	0.00547087
117	0xbe4e07b0	-0.2012012
118	0x3d923ae0	0.07140136
119	0xbd73bf64	-0.059508696
120	0xbd28c89d	-0.041206945
121	0xbe3408a3	-0.1758142
122	0xbdc8f640	-0.098125935
123	0xbe0a5d3f	-0.13512133
124	0x3d93892a	0.07203896
125	0x3e0e324a	0.13886371
126	0x3db4c47f	0.08826541
127	0xbe0d4e03	-0.1379929
128	0x3cfc9941	0.030834796
129	0x3d96100a	0.07327278
130	0xbc60c57b	-0.013718958
131	0xbd249f71	-0.040191118
132	0x3c342000	0.0109939575
133	0xbdf8e1af	-0.12152421
134	0x3e82d3f3	0.2555233
135	0x3d068038	0.032837123
136	0xbbfa09d0	-0.0076305643
137	0xbd8e8fd8	-0.0696103
138	0xbd43b149	-0.047776494
139	0x3e82e377	0.25564167
140	0xbd2c5672	-0.04207463
141	0x3c668151	0.014068917
142	0x3db67473	0.0890893
143	0x3dadda86	0.08488946
144	0x3d96a4ae	0.07355629
145	0x3d753013	0.0598603
146	0x3dc78bdc	0.09743473
147	0x3e02461d	0.12722059
148	0x3d0bd968	0.03414288
149	0xbe709d45	-0.23497494
150	0xbd5e2637	-0.054235663
151	0x3dda5974	0.10661593
152	0xbc77ae09	-0.015117177
153	0x3cd92e50	0.026511341
154	0xbbb5c974	-0.0055476967
155	0xbda010c3	-0.07815697
156	0xbbefd935	-0.0073195943
157	0xbde0c083	-0.10974219
158	0xbdd69207	-0.10477071
159	0x3d3e2d8d	0.04643016
160	0x3e824ec2	0.25450712
161	0xbd90a8b0	-0.070634246
162	0xbdf294f8	-0.1184482
163	0x3d1e71e1	0.038682822
164	0xbe4665d6	-0.19374785
165	0xbb97ce2b	-0.0046327314
166	0x3c22e78f	0.009942903
167	0xbd69586d	-0.056969095
168	0xbdddf44f	-0.10837614
169	0xbe5457f2	-0.20736673
170	0x3d3cda4d	0.046106625
171	0xbe12b77e	-0.14327809
172	0x3d5daf17	0.054122057
173	0x3cca761d	0.024714524
174	0x3d8e7eea	0.06957801
175	0x3cb71a84	0.02235151
176	0x3e16328c	0.1466772
177	0x3d99c09c	0.075074404
178	0x3e0779b3	0.13230018
179	0xbcb3adeb	-0.021933516
180	0x3b4dd1cf	0.0031405573
181	0xbc9fae0f	-0.019492177
182	0x3c788e9e	0.015170721
183	0xbe1a388f	-0.15060638
184	0xbe4d3837	-0.20040976
185	0xbd1c62ea	-0.03818027
186	0xbd33bdb1	-0.043882076
187	0x3c5723e1	0.013131113
188	0x3cc7f9fd	0.024411196
189	0xbd9f5fbb	-0.07781931
190	0xbc69f4a7	-0.014279521
191	0x3cc95d9d	0.024580771
192	0xbe25ed4e	-0.16203806
193	0xbd917ab1	-0.0710348
194	0x3dc30692	0.095227376
195	0xbd941d47	-0.07232147
196	0xbd3c154a	-0.04591874
197	0x3d9c995c	0.076464385
198	0x3bb59e25	0.005542534
199	0xbe6260d3	-0.22107248
200	0xbcc095fe	-0.023509022
201	0xbbd093e2	-0.0063652853
202	0xbd8b00eb	-0.067872845
203	0xbe38b717	-0.18038593
204	0xbc464eab	-0.012103717
205	0xbd5e9640	-0.05434251
206	0x3d9a594b	0.075365625
207	0xbd8ce3d8	-0.06879395
208	0x3d01219d	0.031526197
209	0xbe3ef4f0	-0.18648124
210	0xbd8b6016	-0.06805436
211	0x3d9ddbd6	0.07707946
212	0x3ca31d0e	0.019911315
213	0x3d8f3d40	0.069941044
214	0xbd041a3e	-0.03225159
215	0xbe2eade4	-0.17058522
216	0xbdc438d5	-0.09581152
217	0xbc85e9bc	-0.016346805
218	0xbdbd5f24	-0.09246662
219	0x3d1c054a	0.03809098
220	0x3d3dceee	0.04633992
221	0xbd49cf27	-0.04926982
222	0xbc187ab6	-0.0093066
223	0xbd19eb50	-0.037577927
224	0xbdbd5f48	-0.09246689
225	0xbe8c5175	-0.27405897
226	0xbe1a4009	-0.1506349
227	0xbd5bae87	-0.05363324
228	0xbe03d75f	-0.12875126
229	0xbc8d0be6	-0.017217588
230	0x3b5c558f	0.0033620333
231	0xbd9facf4	-0.0779666
232	0xbe12f987	-0.14353
233	0xbe3b558b	-0.18294351
234	0xbde0b7d7	-0.10972565
235	0xbe1aafc3	-0.1510611
236	0xbcade500	-0.02122736
237	0xbc68c677	-0.014207474
238	0xbe3642c2	-0.17798904
239	0xbe4ef3e6	-0.20210227
240	0xbdcaf009	-0.09909064
241	0xbdb817dd	-0.089889266
242	0xbd46d289	-0.048540626
243	0xbcf3b59c	-0.029749684
244	0xbe8481e9	-0.25880364
245	0xbde950e0	-0.11392379
246	0xbcc41edb	-0.023940494
247	0xbc8e7750	-0.017390877
248	0xbe05ce76	-0.1306704
249	0x3dc6c407	0.09705358
250	0xbdd02e7a	-0.10165115
251	0xbdc7f278	-0.09763044
252	0xbd98b900	-0.07457161
253	0xbdf6cddf	-0.120509855
254	0xbd588151	-0.0528577
255	0xbe0de5f1	-0.13857247

bias f4 [10]
0	0x399f65f2	0.00030402798
1	0x3973b03e	0.00023239941
2	0xb893c5ee	-7.0463735e-05
3	0xb9d95328	-0.00041451422
4	0xb9d5afc6	-0.00040757487
5	0xb94e2044	-0.00019657711
6	0xb8073de0	-3.2244134e-05
7	0x3a0e4ec6	0.0005428608
8	0x3936455c	0.00017382711
9	0xba8d9356	-0.0010801356

weight f4 [10]
0	0x3f34340a	0.70391905
1	0x3f58d69a	0.84702456
2	0x3f56cf06	0.8390964
3	0x3f61e7fc	0.88244605
4	0x3f6aa7b7	0.9166216
5	0x3f808262	1.003979
6	0x3f826233	1.0186218
7	0x3fa78b5b	1.3089403
8	0x3f36fa05	0.7147525
9	0x3f5e24dc	0.8677499

bias f4 [10]
0	0x3e358141	0.17725088
1	0x3dd37f2d	0.10326991
2	0x3d3d7d91	0.046262328
3	0x3e6d984b	0.23202626
4	0x3e904cd4	0.28183615
5	0xbd99436a	-0.07483561
6	0x3d4d6409	0.05014423
7	0xbbeef898	-0.0072928183
8	0x3e853077	0.26013538
9	0x3eb9b4cc	0.3627075

running_mean f4 [10]
0	0xbfa0a64b	-1.2550749
1	0xbe8b383c	-0.2719134
2	0xc00814c4	-2.1262674
3	0x3ec796e3	0.38982305
4	0x3f0c714c	0.5486038
5	0x3f8342d7	1.0254773
6	0xc00139aa	-2.0191445
7	0x3f09b487	0.5379109
8	0xbf8b62e8	-1.0889559
9	0xbf9e1732	-1.2350829

running_var f4 [10]
0	0x3fc9b6f6	1.575896
1	0x3f8aa53a	1.0831673
2	0x3f2d0a5d	0.6759394
3	0x3fb7f557	1.4371747
4	0x3f91062d	1.133001
5	0x3f9ae613	1.2101463
6	0x3fccb8e9	1.599393
7	0x3f9bc4dc	1.2169452
8	0x3f7fe083	0.9995195
9	0x3f93609a	1.1513855

weight f4 [200, 490]
0	0x3d51cc7b	0.0512204
1	0xbcc3e7a9	-0.023914175
2	0xbdcfbf86	-0.10143952
3	0xbd8db072	-0.0691842
4	0xbca427ef	-0.020038573
5	0x3c87ad45	0.016562114
6	0xbda06384	-0.07831481
7	0x3d4c499d	0.04987489
8	0xbe1f0969	-0.15530933
9	0xbdc8564a	-0.09782083
10	0x3a1f4210	0.0006075213
11	0xbdf0e461	-0.1176231
12	0xbdac2e49	-0.08407266
13	0xbc315deb	-0.010825614
14	0x3d1d771c	0.03844367
15	0xbd4e06d0	-0.050299466
16	0xbd4499bf	-0.047998186
17	0xbd8e1454	-0.06937471
18	0xbdf44b85	-0.11928467
19	0xbdaf0eb1	-0.08547724
20	0x3c9dfa5f	0.019284425
21	0xbd9fbb1b	-0.077993594
22	0xbda15fd9	-0.078796096
23	0xbe2f334d	-0.17109413
24	0xbd80b4b1	-0.06284464
25	0xbe06d239	-0.13166131
26	0xbd4b70e1	-0.049668197
27	0xbd449c92	-0.04800088
28	0xbd8171e3	-0.0632055
29	0xbdf48a1a	-0.11940403
30	0xbd9e639f	-0.07733845
31	0x3d4e3a56	0.050348602
32	0xbd1cba5e	-0.03826367
33	0xbc827672	-0.01592562
34	0x3c754c83	0.014971855
35	0xbdb5d6af	-0.08878838
36	0xbd5cc8ef	-0.053902563
37	0xbd84c41e	-0.06482719
38	0xbdcdfd89	-0.100581236
39	0xbda29ed8	-0.07940453
40	0xba1f6464	-0.0006080328
41	0xbddad204	-0.106845886
42	0x3b9db4d7	0.0048128176
43	0x3bbefb7e	0.00582832
44	0x3cc0f881	0.023555996
45	0x3c8a4ea5	0.016883204
46	0xbd1ba065	-0.03799476
47	0xbd668067	-0.056274798
48	0xbdee6760	-0.11640811
49	0x3c5bbd5f	0.013411849
50	0x3d1eec7b	0.038799744
51	0xbdb2aa5f	-0.08723902
52	0xbd3a5029	-0.045486603
53	0xbcc216bc	-0.023692481
54	0xbdfbd19d	-0.1229584
55	0xbcd37c96	-0.025816243
56	0xbdbae704	-0.09126094
57	0xbc0fa9ae	-0.008768482
58	0xbe296363	-0.1654182
59	0xbd770aea	-0.060313143
60	0xbdcb22c9	-0.09918744
61	0xbde25346	-0.110510394
62	0xbe0dd1f8	-0.13849628
63	0x3d9c5e79	0.07635207
64	0xbe014df4	-0.12627393
65	0xbe484349	-0.19556917
66	0xbcb6506c	-0.022255145
67	0xbe39a941	-0.18130971
68	0xbdb050f8	-0.086091936
69	0xbd9796ba	-0.07401796
70	0xbe0a317f	-0.13495444
71	0x3e060a34	0.1308983
72	0xbd885948	-0.06657654
73	0xbcd36bfa	-0.025808323
74	0xbc6f696a	-0.014612535
75	0xbe03f603	-0.12886815
76	0xbd5342ff	-0.051577564
77	0xbe172e0d	-0.1476366
78	0x3c34182d	0.010992092
79	0xbe0d5a30	-0.13803935
80	0xbd5e356a	-0.05425016
81	0xbcaed54f	-0.021341948
82	0xbdec9969	-0.11552698
83	0xbd8ee592	-0.06977381
84	0xbe261816	-0.16220126
85	0xbbf9cd07	-0.007623318
86	0xbdc1f0ad	-0.094697334
87	0xbd53a2c8	-0.051668912
88	0xbde1b3bf	-0.11020612
89	0xbd7d0cf4	-0.06177993
90	0xbda4326e	-0.08017431
91	0xbc817489	-0.015802639
92	0xbcdae530	-0.026720613
93	0xbe07378c	-0.13204783
94	0x3c2735e6	0.0102057215
95	0xbdc8b4cf	-0.098001115
96	0xbddde121	-0.108339556
97	0xbdc1e302	-0.094671264
98	0xbd3f0b50	-0.046641648
99	0xbda1439d	-0.07874224
100	0xbdf195f4	-0.117961794
101	0xbd672e45	-0.05644061
102	0xbdc11eb5	-0.09429685
103	0xbd6b8713	-0.057501864
104	0xbc034882	-0.008012893
105	0xbc8623a2	-0.016374413
106	0xbd90a35c	-0.07062408
107	0x3a431bc3	0.00074427965
108	0x3cc20021	0.023681702
109	0xbc95d9f4	-0.018292405
110	0x3d85b6f5	0.06529037
111	0x3a1f1e00	0.0006069839
112	0xbc403435	-0.011731197
113	0xbdf85e5f	-0.12127375
114	0xbd0ebf20	-0.03485024
115	0xbd991dbd	-0.07476375
116	0x3dacb482	0.08432867
117	0xbd710cbb	-0.05885003
118	0xbd41a6d9	-0.04727826
119	0x3bc66fc1	0.0060558026
120	0x3ca8417a	0.020539034
121	0x3caf2522	0.021380011
122	0xbbec98a8	-0.0072203465
123	0xbc938716	-0.01800875
124	0xbdcc41b2	-0.09973468
125	0xbd0da644	-0.03458239
126	0xbd1db0e8	-0.03849879
127	0xbd0cede8	-0.034406573
128	0xbe03dfd0	-0.12878346
129	0xbc76ee6c	-0.015071493
130	0xbd871274	-0.065953165
131	0xbbd9db11	-0.006648429
132	0x3d072c19	0.03300104
133	0xbde72cff	-0.11287879
134	0x3da28afb	0.07936665
135	0xbd3d26a3	-0.046179425
136	0xbaae90a0	-0.0013318248
137	0xbd411562	-0.047139533
138	0x3d095125	0.03352465
139	0xbd4b7c7d	-0.04967927
140	0xbd3678d5	-0.04454883
141	0xbdfd7112	-0.12375082
142	0xbd4108dd	-0.047127593
143	0xbc44afa2	-0.012004765
144	0xbd3a50b1	-0.04548711
145	0x3dac41fc	0.08411023
146	0x3baef246	0.00533894
147	0xbdfac61d	-0.12244818
148	0xbe5fc6ac	-0.21853131
149	0xbccad100	-0.024757862
150	0xbdcabb34	-0.098989874
151	0xbd6362ce	-0.05551415
152	0xbd0994c8	-0.033589154
153	0xbdef08fa	-0.11671634
154	0xbe059683	-0.13045697
155	0xbe2054ea	-0.15657392
156	0xbd81785c	-0.06321785
157	0xbe6f0dbc	-0.23345083
158	0xbd114780	-0.03546858
159	0xbd013ecb	-0.031554025
160	0xbe4966d1	-0.19668128
161	0xbd9c622e	-0.07635914
162	0xbbe4bdf7	-0.0069806534
163	0xbdfc1af1	-0.12309826
164	0xbddfbc29	-0.109245606
165	0xbd1fdaa0	-0.039026856
166	0xbe83e334	-0.2575928
167	0xbdbf3088	-0.093354285
168	0xbc5d7559	-0.013516747
169	0xbe185f6d	-0.14880152
170	0xbd983feb	-0.074340664
171	0xbdb7b701	-0.08970452
172	0xbe604033	-0.2189949
173	0xbe64ca83	-0.22342877
174	0xbe5ea6c8	-0.2174331
175	0xbd6eaaf4	-0.058268502
176	0xbe7c64a3	-0.24647765
177	0xbdad97af	-0.08476197
178	0xbdf39713	-0.118940495
179	0xbe0304f0	-0.12794852
180	0xbdddce84	-0.10830405
181	0xbe1664ae	-0.14686844
182	0xbdd65367	-0.104651265
183	0xbdea0594	-0.11426845
184	0xbe2bf361	-0.1679206
185	0xbdace49c	-0.08442041
186	0xbe03a906	-0.12857446
187	0xbe061e52	-0.13097504
188	0xbcdb6e32	-0.026785944
189	0xbd3648d1	-0.044503037
190	0xbe31c3cd	-0.17359848
191	0xbd69b0d4	-0.057053402
192	0xbe41311b	-0.18866388
193	0xbd72b911	-0.059258524
194	0xbe209a73	-0.15683918
195	0xbd930571	-0.07178772
196	0xbd960999	-0.07326049
197	0xbd8ee784	-0.06977752
198	0xbdf5aea7	-0.11996203
199	0xbd94f6e8	-0.07273656
200	0xbd4b29ca	-0.0496004
201	0xbddef628	-0.10886794
202	0xbe22adab	-0.15886562
203	0xbda5b317	-0.08090799
204	0xbdf07e49	-0.11742837
205	0xbd78e348	-0.060763627
206	0xbdb0629a	-0.08612557
207	0xbe7bee0b	-0.24602525
208	0xbd964e9d	-0.07339213
209	0xbd99e762	-0.07514836
210	0xbda282b4	-0.07935086
211	0xbe5f0c2d	-0.21781988
212	0xbcc1d3be	-0.023660537
213	0xbe08f761	-0.13375618
214	0xbdbe8e38	-0.0930447
215	0xbe447080	-0.1918354
216	0xbe09d2da	-0.1345934
217	0xbe146fbf	-0.14495753
218	0xbe00f387	-0.12592898
219	0xbe38dac6	-0.18052205
220	0xbdc0735c	-0.09397003
221	0xbe09a942	-0.13443473
222	0xbe362a60	-0.17789602
223	0xbe4371e9	-0.19086422
224	0xbe42ff25	-0.19042642
225	0xbe097c56	-0.13426337
226	0xbe1c784d	-0.15280266
227	0xbe53812d	-0.20654745
228	0x3ccc490f	0.02493718
229	0xbd4c7b28	-0.04992214
230	0xbd1fc5b5	-0.039006907
231	0xbe1e24d1	-0.15443732
232	0xbd252e55	-0.04032739
233	0xbdde0786	-0.10841279
234	0xbd1a040e	-0.037601523
235	0xbe0cc260	-0.13746023
236	0xbdeeb6fe	-0.11655997
237	0xbdc5ff40	-0.09667826
238	0xbd13eefe	-0.036116593
239	0xbe6874a5	-0.22700746
240	0x3d55991c	0.05214797
241	0xbe1a3e1e	-0.15062758
242	0xbe45a723	-0.19302039
243	0xbd3cfd42	-0.046139963
244	0xbdd02917	-0.10164087
245	0x3de0e93f	0.10981988
246	0x3df78206	0.12085347
247	0x3d9d3de9	0.07677824
248	0x3d2563f4	0.040378526
249	0x3db74f61	0.08950687
250	0x3c3de626	0.011590516
251	0x3db922c5	0.09039835
252	0x3d81813b	0.06323477
253	0x3da2fabe	0.079579815
254	0x3dc31c7c	0.09526917
255	0xbdd7e0cf	-0.10540926

bias f4 [200]
0	0xb6d47eba	-6.3328453e-06
1	0xb6f58980	-7.317576e-06
2	0xb859e78a	-5.195247e-05
3	0xb72f464c	-1.044718e-05
4	0xb802f86c	-3.1225776e-05
5	0xb8a07a99	-7.65223e-05
6	0xb91ec1aa	-0.000151402
7	0xb61142a2	-2.164547e-06
8	0x383086dc	4.2087268e-05
9	0xb663bcca	-3.3935526e-06
10	0xb9022f24	-0.00012415327
11	0x374477b6	1.1710383e-05
12	0x3742133a	1.1567778e-05
13	0x37c122bf	2.3023573e-05
14	0x383ab9b8	4.451882e-05
15	0x37fc724d	3.0093966e-05
16	0xb7987432	-1.817392e-05
17	0xb7b1f4b4	-2.1213993e-05
18	0x37c28e0a	2.3192744e-05
19	0xb5072c60	-5.0355993e-07
20	0xb743f9f8	-1.1681106e-05
21	0x35791bdc	9.280027e-07
22	0x3779b09c	1.4882677e-05
23	0xb71c69f6	-9.3229955e-06
24	0x371c78b8	9.326432e-06
25	0x3727b1b8	9.995354e-06
26	0xb79c4368	-1.8628038e-05
27	0xb7510613	-1.2458785e-05
28	0x381f055e	3.7913553e-05
29	0x36102a8a	2.1482433e-06
30	0xb89a6ea3	-7.3639e-05
31	0xb7d8bd7e	-2.5837446e-05
32	0xb700dd5c	-7.680934e-06
33	0xb7dfb7fb	-2.6669344e-05
34	0x37a9ab0f	2.0226025e-05
35	0x36072532	2.0138218e-06
36	0xb8088620	-3.254984e-05
37	0x3724765a	9.802718e-06
38	0x36a54af4	4.926109e-06
39	0x378de70e	1.6916103e-05
40	0x3781796c	1.543454e-05
41	0xb7f3a7e2	-2.9046034e-05
42	0xb7873aef	-1.6120697e-05
43	0x3939a0ea	0.0001770292
44	0xb6dd9fdf	-6.6049247e-06
45	0xb75a5ace	-1.3014955e-05
46	0x38a7382b	7.973643e-05
47	0xb8a35ed7	-7.790111e-05
48	0x37607195	1.3377886e-05
49	0x373d5ebe	1.1287337e-05
50	0x36f3aa4f	7.261791e-06
51	0xb6d1b97e	-6.2502795e-06
52	0x37b08bac	2.1045875e-05
53	0xb7a63bdd	-1.9816618e-05
54	0xb7e4f6a6	-2.7294573e-05
55	0x37a87293	2.0080513e-05
56	0x362bb183	2.558431e-06
57	0xb6cd25d4	-6.11388e-06
58	0xb7d11656	-2.4925142e-05
59	0xb73e3370	-1.1336859e-05
60	0x38a3e59c	7.815214e-05
61	0x36f2a598	7.2314397e-06
62	0xb7e482f8	-2.7240705e-05
63	0x37d90ae8	2.5873494e-05
64	0xb608e3e4	-2.039823e-06
65	0xb8612f48	-5.3688214e-05
66	0xb6a75e77	-4.987985e-06
67	0x37464e16	1.18199005e-05
68	0x37dc873c	2.6289017e-05
69	0x3712cb36	8.749592e-06
70	0xb7847930	-1.5792059e-05
71	0x384324ac	4.6525776e-05
72	0x36d851b0	6.4468113e-06
73	0x3915d5c6	0.00014289384
74	0x37b6aeff	2.177758e-05
75	0x3613da9a	2.203195e-06
76	0xb890f162	-6.911416e-05
77	0x3602e538	1.9504932e-06
78	0x37dda6da	2.642295e-05
79	0x349ee541	2.9596598e-07
80	0xb6f0a4b9	-7.1717336e-06
81	0xb781e220	-1.5483296e-05
82	0xb7e834d2	-2.7681152e-05
83	0x37d603f8	2.5512636e-05
84	0xb8ad4a9a	-8.2631785e-05
85	0x378cce33	1.678532e-05
86	0x37c22de4	2.3147972e-05
87	0x333fe3c0	4.467779e-08
88	0x3714bf2a	8.865996e-06
89	0xb55acf05	-8.151258e-07
90	0xb79f3148	-1.8977225e-05
91	0xb5da7f30	-1.6279282e-06
92	0x37a361d9	1.9476678e-05
93	0x3786a53c	1.6050988e-05
94	0x38ceef1b	9.867382e-05
95	0xb8890700	-6.533973e-05
96	0xb56a86c0	-8.736788e-07
97	0x3803d2e2	3.1429234e-05
98	0xb7922b76	-1.7424794e-05
99	0xb640622e	-2.8667378e-06
100	0xb68c51b1	-4.1818353e-06
101	0x37d59e3f	2.5465268e-05
102	0xb88c479c	-6.6890585e-05
103	0x37b266dd	2.1267153e-05
104	0xb76cb87a	-1.4109648e-05
105	0xb8ea5388	-0.000111735484
106	0xb8e9fac8	-0.000111570174
107	0x370d62a0	8.427218e-06
108	0xb778c7f7	-1.482851e-05
109	0x386a12a9	5.5807326e-05
110	0xb79d06d1	-1.8719033e-05
111	0xb7c8788e	-2.3897996e-05
112	0xb69d2221	-4.6829377e-06
113	0x382519a4	3.9362945e-05
114	0xb819dfe4	-3.6686557e-05
115	0x390e6026	0.00013577993
116	0x38b46758	8.602318e-05
117	0x3890bc23	6.901498e-05
118	0xb6020990	-1.9377076e-06
119	0xb7bbf646	-2.2406817e-05
120	0xb78262c1	-1.5543194e-05
121	0xb79b1de4	-1.8491359e-05
122	0x36dde15c	6.6125485e-06
123	0x358ed72c	1.0642448e-06
124	0xb8045f24	-3.155986e-05
125	0x376fb0f5	1.4286711e-05
126	0x3852a0e8	5.0217757e-05
127	0x364af9a2	3.024565e-06
128	0xb87e7fb0	-6.0677237e-05
129	0xb7b14e2e	-2.113645e-05
130	0xb729d5be	-1.0122951e-05
131	0xb8e63f38	-0.0001097903
132	0x3645580f	2.9406544e-06
133	0x373aff49	1.1145902e-05
134	0xb6d408ce	-6.3191173e-06
135	0x36e268b0	6.747512e-06
136	0xb8304e1b	-4.203441e-05
137	0x38488498	4.7807203e-05
138	0x368ecb8d	4.255626e-06
139	0x3769e66c	1.39415315e-05
140	0xb7d75958	-2.5671601e-05
141	0x367e1a68	3.786432e-06
142	0xb943d032	-0.00018674208
143	0x372a7f2e	1.0162401e-05
144	0x37f4c69a	2.9179548e-05
145	0xb6870ea4	-4.025018e-06
146	0xb8d26c70	-0.000100337784
147	0x3658dae0	3.231391e-06
148	0xb88c3113	-6.684861e-05
149	0xb90f94b8	-0.00013692945
150	0x37859ee9	1.5928834e-05
151	0x378dd39e	1.6907052e-05
152	0x35f315ce	1.8111257e-06
153	0xb6bbec10	-5.6005156e-06
154	0xb79fa862	-1.9032686e-05
155	0xb838ac3b	-4.402942e-05
156	0x36c66862	5.9130116e-06
157	0x3749d209	1.2029436e-05
158	0xb6e5d9a7	-6.85007e-06
159	0x35fd7e70	1.8886767e-06
160	0x36dfd841	6.671093e-06
161	0xb882604f	-6.216822e-05
162	0x35765380	9.176365e-07
163	0x360c0df4	2.0869747e-06
164	0x37d710b7	2.563778e-05
165	0xb6ce18ca	-6.1421642e-06
166	0xb881cc1b	-6.189217e-05
167	0x36847a88	3.948171e-06
168	0xb7bfa6aa	-2.2846583e-05
169	0x373fb100	1.1425698e-05
170	0xb8793b47	-5.9421433e-05
171	0x36bde974	5.6598165e-06
172	0xb7a0fe75	-1.9191977e-05
173	0xb7224a18	-9.673204e-06
174	0x38bcff4b	9.0120906e-05
175	0x360fe480	2.1441665e-06
176	0xb6b6acbf	-5.444133e-06
177	0xb73a8488	-1.1117321e-05
178	0xb4db37c0	-4.0832492e-07
179	0x37ef9d70	2.8564333e-05
180	0x358f7dc0	1.0690928e-06
181	0xb84b329a	-4.8446098e-05
182	0xb821f059	-3.8609232e-05
183	0xb7585c44	-1.28960855e-05
184	0x3735ae84	1.0829073e-05
185	0x36f86e88	7.4038435e-06
186	0xb790741c	-1.7220205e-05
187	0x37d99cef	2.5941494e-05
188	0xb799001d	-1.8239074e-05
189	0x38af9e5a	8.3741455e-05
190	0x377058de	1.4325806e-05
191	0xb89d456d	-7.499275e-05
192	0xb58c7540	-1.0464937e-06
193	0x38091bae	3.2689124e-05
194	0xb804b844	-3.1642863e-05
195	0x37dea1f9	2.6539887e-05
196	0xb7a6f40c	-1.9902385e-05
197	0xb67245f4	-3.6101528e-06
198	0x380f000e	3.4093908e-05
199	0x37a9728a	2.0199706e-05

weight f4 [200]
0	0x3f48d8e5	0.78455955
1	0x3efe7897	0.49701378
2	0x3f5c1ab3	0.8597824
3	0x3f4e9e50	0.80710316
4	0x3f519ae6	0.8187698
5	0x3f4fa866	0.8111633
6	0x3f5e0177	0.86720985
7	0x3f50db6b	0.81584805
8	0x3f5d294a	0.8639113
9	0x3f1e48db	0.6182992
10	0x3f5c2b7f	0.8600387
11	0x3f538f04	0.826401
12	0x3f33ae2b	0.70187634
13	0x3f58f3af	0.8474683
14	0x3f53ba65	0.8270629
15	0x3f5f21dc	0.8716104
16	0x3f50bd48	0.8153882
17	0x3f5269fe	0.8219298
18	0x3f61c9a8	0.8819833
19	0x3ea38925	0.3194057
20	0x3f6585b8	0.89657164
21	0x3f46fb3b	0.777271
22	0x3f22ff1d	0.6367052
23	0x3f5ba624	0.85800385
24	0x3f401702	0.7503511
25	0x3f3918e9	0.72303635
26	0x3f5d44fe	0.864334
27	0x3f3a4368	0.72759104
28	0x3f52d2c8	0.82352877
29	0x3f068e13	0.5256054
30	0x3f74da75	0.9564584
31	0x3f42352c	0.75862384
32	0x3f3d8cf9	0.7404323
33	0x3f0f3092	0.5593349
34	0x3f24c7d2	0.643674
35	0x3f13f98b	0.5780265
36	0x3f4fc81a	0.81164706
37	0x3f57e196	0.8432859
38	0x3f2185c3	0.6309473
39	0x3f15e9f3	0.58560103
40	0x3f579f74	0.8422768
41	0x3f4e459f	0.80574983
42	0x3f5a437b	0.8525922
43	0x3f6de6d7	0.9293036
44	0x3f5f5b0c	0.872483
45	0x3f3f9c73	0.748481
46	0x3f69112d	0.91041833
47	0x3f345096	0.70435464
48	0x3edf3d65	0.43601528
49	0x3f48022e	0.78128326
50	0x3f4ea168	0.80715036
51	0x3f46e14c	0.77687526
52	0x3f382a5f	0.71939653
53	0x3f2f49e2	0.6847211
54	0x3f447b3b	0.76750535
55	0x3f55ad32	0.834674
56	0x3f40bc7d	0.7528761
57	0x3f240713	0.64073294
58	0x3f2e7bab	0.6815745
59	0x3f636441	0.8882485
60	0x3f29c437	0.66315025
61	0x3f32def8	0.69871473
62	0x3f2912ad	0.6604412
63	0x3f495d1e	0.7865771
64	0x3f2a3917	0.6649336
65	0x3f802e98	1.0014219
66	0x3f4225e6	0.7583908
67	0x3f0987b2	0.5372268
68	0x3f6051ea	0.8762499
69	0x3f466105	0.7749179
70	0x3f545b25	0.82951576
71	0x3f4565ee	0.7710866
72	0x3f525765	0.82164603
73	0x3f4f5df5	0.8100274
74	0x3f371c49	0.71527535
75	0x3f37a2e1	0.7173291
76	0x3f52b5ce	0.8230866
77	0x3f564d14	0.8371136
78	0x3f59887b	0.8497388
79	0x3f02b324	0.51054597
80	0x3f402154	0.75050855
81	0x3f348511	0.70515543
82	0x3f61c248	0.88187075
83	0x3f5dbc4e	0.86615455
84	0x3f6838c0	0.90711594
85	0x3f580304	0.843796
86	0x3f606652	0.8765613
87	0x3eda728b	0.42665514
88	0x3efe23c8	0.49636674
89	0x3f34c0b4	0.7060654
90	0x3f59537e	0.84893024
91	0x3f21237b	0.62944764
92	0x3f416ca0	0.75556374
93	0x3f458796	0.7716001
94	0x3f57d5c6	0.8431057
95	0x3f4f8d03	0.8107454
96	0x3f458466	0.7715515
97	0x3f516bfb	0.8180539
98	0x3f59dd6e	0.851035
99	0x3f232094	0.63721585
100	0x3ef262e8	0.47341084
101	0x3f68ecb1	0.9098616
102	0x3f5411be	0.8283957
103	0x3f592a9b	0.84830636
104	0x3f24f787	0.64440197
105	0x3f653aea	0.8954302
106	0x3f5ec844	0.8702433
107	0x3f6471f9	0.8923641
108	0x3f378cb2	0.7169906
109	0x3f51a4a7	0.81891865
110	0x3f533024	0.8249533
111	0x3f58c179	0.84670216
112	0x3f440edf	0.7658519
113	0x3f5fea0e	0.87466514
114	0x3f4ae43b	0.792545
115	0x3f89caf9	1.0765067
116	0x3f1964e8	0.59919596
117	0x3f3e1958	0.7425742
118	0x3f55d8c6	0.83533895
119	0x3f4f75fd	0.8103941
120	0x3f506c77	0.81415504
121	0x3f575a39	0.84122044
122	0x3f17e9f8	0.59341383
123	0x3f128a84	0.5724261
124	0x3f77868a	0.96689665
125	0x3f586b05	0.845383
126	0x3f31d921	0.6947194
127	0x3f30720c	0.6892402
128	0x3f841af8	1.032073
129	0x3f5f51e0	0.87234306
130	0x3f070480	0.5274124
131	0x3f5fb0eb	0.8737933
132	0x3f2e7e59	0.6816154
133	0x3f1fc6af	0.6241254
134	0x3f2b0296	0.6680082
135	0x3f58d186	0.8469471
136	0x3f3f168d	0.74643785
137	0x3f572c5d	0.8405207
138	0x3f01a1c5	0.50637466
139	0x3f309142	0.68971646
140	0x3f2a735c	0.66582274
141	0x3f560dc8	0.8361478
142	0x3f3a268f	0.72715086
143	0x3f46d050	0.7766161
144	0x3f3fef0b	0.74974126
145	0x3f547ac5	0.8299983
146	0x3f4ad41f	0.7922992
147	0x3f4fb146	0.8112987
148	0x3f764e3e	0.9621314
149	0x3f66b1e4	0.9011519
150	0x3f2321e1	0.6372357
151	0x3f4cdce1	0.80024534
152	0x3f1d19af	0.61367315
153	0x3eefdb4e	0.46847004
154	0x3f19dc8c	0.6010215
155	0x3f37c0c1	0.71778494
156	0x3f008a33	0.50210875
157	0x3f5a6932	0.85316765
158	0x3f3154d9	0.6927009
159	0x3f1aaf7b	0.6042401
160	0x3f298a38	0.6622653
161	0x3f877176	1.05815
162	0x3f5dc2b1	0.866252
163	0x3f40c918	0.75306845
164	0x3f62a03f	0.88525766
165	0x3f231abf	0.63712686
166	0x3f1cd37b	0.61260194
167	0x3f1ecbde	0.62029827
168	0x3f43c962	0.7647916
169	0x3f1748d2	0.5909549
170	0x3f5fc865	0.8741515
171	0x3f11806c	0.5683658
172	0x3f23178f	0.6370782
173	0x3f5a149c	0.851877
174	0x3f5671c5	0.8376735
175	0x3f1f5cd3	0.62251014
176	0x3f1d978d	0.61559373
177	0x3f51ee9a	0.820047
178	0x3f3dfcf0	0.74214077
179	0x3f3bf341	0.7341805
180	0x3f59b8dd	0.85047704
181	0x3f5553da	0.8333107
182	0x3f53bdb6	0.8271135
183	0x3f3b7430	0.73224163
184	0x3f6171e4	0.8806441
185	0x3f3eb42d	0.74493676
186	0x3f2cba1e	0.6747149
187	0x3f200183	0.62502307
188	0x3f4304be	0.7617911
189	0x3f4b68b8	0.79456663
190	0x3f5ab0f6	0.8542627
191	0x3f4dbc7e	0.8036574
192	0x3f5d4b52	0.86443055
193	0x3f6062a6	0.87650526
194	0x3f5fa42d	0.8735989
195	0x3f4ca879	0.7994457
196	0x3f44c63e	0.76864994
197	0x3f3985be	0.724697
198	0x3f454427	0.7705712
199	0x3f5c57d3	0.8607151

bias f4 [200]
0	0xbe6ab0b3	-0.22918968
1	0xbf06aadd	-0.52604467
2	0xbdd0b1b9	-0.10190148
3	0x3d5d0b49	0.05396584
4	0xbc77123a	-0.015080029
5	0x3e6fe7ec	0.23428315
6	0x3ed3c40a	0.41360503
7	0xbde6f074	-0.112763315
8	0xbde995b8	-0.1140551
9	0xbe924c67	-0.28573915
10	0xbd8f3650	-0.06992781
11	0xbe170397	-0.14747463
12	0x3d9977f3	0.074935816
13	0xbdec5561	-0.11539722
14	0xbe3978ff	-0.18112563
15	0x3da1fef3	0.07909956
16	0x3dc4cb37	0.09609073
17	0xbde8c247	-0.113651805
18	0x3d0c50ce	0.03425675
19	0xbedd28d7	-0.4319522
20	0xbd015120	-0.031571507
21	0xbe136bdd	-0.14396615
22	0xbed636e2	-0.41838747
23	0xbcc00978	-0.023442015
24	0xbbf75af8	-0.007548686
25	0xbe86c303	-0.26320657
26	0xbe1c1017	-0.15240513
27	0xbe8ed21d	-0.2789468
28	0xbdb1f21f	-0.08688759
29	0xbeb81945	-0.3595678
30	0xbdca61de	-0.09881948
31	0x3ce3109d	0.027717883
32	0xbdb37fb6	-0.08764593
33	0xbed470e3	-0.41492376
34	0xbed10f9e	-0.40832227
35	0xbeb6afbb	-0.35680947
36	0x3d788421	0.060672883
37	0xbdd15c4b	-0.102226816
38	0x3e5db368	0.2165047
39	0xbea25df9	-0.3171232
40	0xbe201c9a	-0.1563591
41	0xbe1b8636	-0.15187916
42	0xbd56479a	-0.05231438
43	0x3c9572fd	0.018243307
44	0x3ccf7160	0.025322616
45	0xbdd60744	-0.104506046
46	0xbcd3e8ae	-0.025867786
47	0xbe69f62b	-0.22847812
48	0xbeb160a9	-0.34644058
49	0xbdf9819d	-0.12182925
50	0xbdedd4c5	-0.11612848
51	0xbe0a7c64	-0.13524014
52	0xbe4c9909	-0.19980253
53	0xbe7c101f	-0.24615525
54	0x3cec286a	0.028827865
55	0x3ca9c13b	0.020722022
56	0xbe582998	-0.21109617
57	0xbeb4617a	-0.3523062
58	0xbed699bd	-0.41914168
59	0x3d7c983d	0.061668623
60	0xbf0bca70	-0.5460577
61	0xbeb21567	-0.34781954
62	0xbee83c38	-0.45358443
63	0xbe294afb	-0.16532509
64	0xbea3228a	-0.3186229
65	0x3dcdbe75	0.100460924
66	0xbde09d6c	-0.10967526
67	0xbdfb1728	-0.12260276
68	0xbd82258a	-0.06354816
69	0xbf34d724	-0.7064078
70	0x3e26dadc	0.16294426
71	0xbe991255	-0.298968
72	0xbe25953e	-0.16170213
73	0xbef7551f	-0.4830713
74	0xbe6324e1	-0.22182037
75	0xbeb2ccfa	-0.3492201
76	0xbe84166a	-0.2579835
77	0xbd9fa7eb	-0.077957
78	0xbde8f620	-0.113750696
79	0xbe8652cf	-0.26235053
80	0xbea46c23	-0.32113752
81	0xbd2c3fd3	-0.042053055
82	0xbd8632e2	-0.06552674
83	0xbd9383e1	-0.07202888
84	0xbd546657	-0.05185541
85	0xbde9ef48	-0.114225924
86	0xbce69da4	-0.02815134
87	0xbe84a822	-0.25909525
88	0xbeb2f211	-0.34950307
89	0xbe3b50f5	-0.18292601
90	0x3e95b1d0	0.29237223
91	0xbeb5c325	-0.35500446
92	0xbe7e4097	-0.24829327
93	0xbe43244a	-0.19056812
94	0xbe9dfce4	-0.30857003
95	0xbebb9cdc	-0.36643112
96	0xbe0ce981	-0.1376095
97	0xbd9739a5	-0.07384042
98	0x3c06a20a	0.008217344
99	0xbeb472e9	-0.3524392
100	0xbea085cb	-0.31352076
101	0xbb9c1044	-0.004762681
102	0xbde613bf	-0.11234235
103	0x3ce12d7d	0.02748751
104	0xbec9b3f3	-0.39395103
105	0x3ec6b883	0.38812646
106	0x3d41674c	0.047217652
107	0xbbbf0c8c	-0.005830353
108	0xbe79298f	-0.2433226
109	0xbddb6bf5	-0.107139505
110	0xbd031bc1	-0.03200889
111	0xba035f3d	-0.0005011445
112	0xbe211b51	-0.15733077
113	0xbdb3820f	-0.08765041
114	0xbdeaec33	-0.11470833
115	0x3e216050	0.15759397
116	0xbedccd62	-0.43125445
117	0xbe91be4f	-0.28465506
118	0xbce9dabe	-0.028546687
119	0xbe0173e5	-0.12641867
120	0xbe336208	-0.17517865
121	0xbe03a0ce	-0.12854311
122	0xbed91551	-0.42399076
123	0xbe96f7b5	-0.2948586
124	0x3d038e6f	0.032118257
125	0xbd3f80d3	-0.046753716
126	0xbec634bc	-0.38712108
127	0xbea86dbe	-0.32896227
128	0x3e952184	0.29127133
129	0x3c0ebcce	0.008712007
130	0xbeb7bd59	-0.35886648
131	0xbdca9b3b	-0.09892889
132	0xbe5e6185	-0.21716888
133	0xbecced49	-0.40024784
134	0xbe2bfbee	-0.16795322
135	0xbdfdde0f	-0.1239587
136	0x3e21bf6e	0.15795681
137	0xbe273f1c	-0.16332668
138	0xbe9faed4	-0.3118807
139	0xbd149909	-0.03627876
140	0xbddf29c0	-0.10896635
141	0x3ba373a0	0.004988149
142	0xbec568b1	-0.38556436
143	0xbe99f73b	-0.30071434
144	0xbe9a059e	-0.3008241
145	0xbd82d783	-0.06388762
146	0xbdf42fd9	-0.11923189
147	0xbe2c4192	-0.16821888
148	0x3ee6d012	0.4508062
149	0x3da38f83	0.07986357
150	0xbc98bed2	-0.018645678
151	0xbe1218c7	-0.14267264
152	0xbeb112c9	-0.34584644
153	0xbe070400	-0.1318512
154	0xbe93b772	-0.28850895
155	0xbddfec63	-0.10933759
156	0xbe9b4e6d	-0.30333272
157	0xbdb400e4	-0.087892324
158	0xbe915e8d	-0.2839245
159	0xbea20e20	-0.31651402
160	0xbe6f3a07	-0.2336198
161	0x3e8e31be	0.27772325
162	0x3e81edc4	0.25376713
163	0xbe654baf	-0.22392152
164	0xbd1308cb	-0.035897058
165	0xbe845563	-0.25846395
166	0x3e5a947c	0.21345705
167	0xbe9b2e1f	-0.30308625
168	0xbe6ada79	-0.22934903
169	0x3e35ce19	0.17754401
170	0xbdfc957f	-0.123332016
171	0xbea25bd2	-0.31710678
172	0xbee4efed	-0.447143
173	0xbdf7fe49	-0.12109048
174	0xbdd099f5	-0.10185615
175	0xbef12fc2	-0.4710675
176	0xbec1cc45	-0.37851158
177	0xbd9c2624	-0.07624462
178	0xbd44377a	-0.04790447
179	0xbe520639	-0.20510186
180	0xbd89385d	-0.067002036
181	0x3bfdf04d	0.0077495934
182	0xbe1543fd	-0.14576717
183	0xbcfc4976	-0.030796748
184	0x3ded1a04	0.11577228
185	0xb8c5bbe1	-9.428687e-05
186	0xbec576e5	-0.38567272
187	0xbeeab549	-0.45841435
188	0xbe99adb1	-0.3001533
189	0xbe3a43f0	-0.18189979
190	0xbcca3b30	-0.024686426
191	0x3e2a8cd9	0.16655292
192	0x3c149d14	0.0090706535
193	0xbdd69c9d	-0.1047909
194	0xbd88d474	-0.06681147
195	0xbe4e217b	-0.2012996
196	0x3bc2b9dd	0.005942567
197	0x3c538781	0.012910725
198	0x3b9c6fd0	0.0047740713
199	0xbe2e0101	-0.1699257

running_mean f4 [200]
0	0xc0e98114	-7.2970066
1	0xc04e350f	-3.2219884
2	0xbec2cd64	-0.38047326
3	0xc12ea40e	-10.915052
4	0x404984ec	3.148738
5	0xbe31f488	-0.17378438
6	0xc0686904	-3.6314096
7	0xc02bb27f	-2.6827695
8	0xc0ed676c	-7.4188747
9	0xc0e975a3	-7.29561
10	0x4083a6f7	4.1141315
11	0xc0087320	-2.1320267
12	0xc10fdd9c	-8.991604
13	0xbed6bf5e	-0.41942877
14	0x409802dd	4.7503495
15	0x403aa6e2	2.9164357
16	0xc0d2fd8a	-6.5934496
17	0xc139dc37	-11.616263
18	0xc14006ab	-12.001628
19	0xc08972e9	-4.295277
20	0xc1040b1b	-8.252711
21	0xc06b4de2	-3.6766286
22	0xc12d9f2b	-10.851359
23	0xc0b17192	-5.5451136
24	0xc1569595	-13.411519
25	0xc032047b	-2.7815235
26	0x3ff7981e	1.9343297
27	0xc0a4a21b	-5.1447883
28	0xc0dcd512	-6.9010096
29	0xc095635d	-4.6683793
30	0xbfd5049f	-1.6642035
31	0xc1562a95	-13.385396
32	0xc0cf4bcf	-6.478004
33	0xc12956ef	-10.583724
34	0xc0f25b8c	-7.573675
35	0xc026680c	-2.6001005
36	0xc123fa38	-10.248589
37	0xc0b7a6ae	-5.7390966
38	0xc16d93c3	-14.848575
39	0xc023a0b6	-2.556684
40	0x3fe35283	1.7759556
41	0xc0e7907f	-7.2363887
42	0xc005c763	-2.0902946
43	0x3f03d8fe	0.5150298
44	0xc016a7e2	-2.3539968
45	0xc03d116e	-2.9541888
46	0x402bffd4	2.6874895
47	0x40d3b259	6.615521
48	0xc09f6113	-4.9806
49	0xc0dd9a75	-6.9251046
50	0xc1160956	-9.377279
51	0xc018e988	-2.3892536
52	0xbeb3046a	-0.34964305
53	0xc095d969	-4.6827893
54	0xc0e9e9c3	-7.3097854
55	0xc016f624	-2.3587732
56	0xc09a48f5	-4.821406
57	0xc0dd992a	-6.924947
58	0xc0054c21	-2.0827715
59	0xbfe77a0e	-1.8084123
60	0x3edf6192	0.43629128
61	0xc0b3ef7e	-5.622985
62	0x40a8b39e	5.271926
63	0xc0c6d2fe	-6.213256
64	0xbfe64a50	-1.7991428
65	0x3f0eee9c	0.5583284
66	0xc0ccf310	-6.4046707
67	0xc1181b70	-9.506699
68	0x3f147cc7	0.58002895
69	0xbf96c490	-1.1778736
70	0xc0696659	-3.6468718
71	0xbcc53b1c	-0.024076037
72	0xbf8d40a0	-1.1035347
73	0x3dc69635	0.096966185
74	0xc0901e0e	-4.503669
75	0xbf8a4175	-1.0801226
76	0x3e4c140a	0.1992952
77	0xc075489f	-3.8325574
78	0xc0ff627b	-7.9807715
79	0xc0d74a06	-6.727786
80	0x3c93180d	0.017955804
81	0xc107ba2d	-8.482953
82	0xc0f45ec3	-7.6365676
83	0x406557b9	3.5834792
84	0xc11de13b	-9.867488
85	0xc08c4664	-4.3835926
86	0xc128dcab	-10.553874
87	0xc0b9fbf8	-5.812008
88	0xc09c0f17	-4.876842
89	0xc05f712e	-3.491283
90	0xc0f320eb	-7.5977683
91	0xc0a8df8b	-5.277288
92	0xc124df0a	-10.304453
93	0x3ea9b406	0.3314516
94	0x3f818e6d	1.012159
95	0xbe65ec1a	-0.22453347
96	0x3dc25103	0.09488108
97	0x3fa1ee06	1.2650764
98	0x400274d5	2.0383809
99	0xc0cd4cbc	-6.415617
100	0xc0dfbcd7	-6.9918017
101	0x3f24e220	0.6440754
102	0xc0cc9ad3	-6.3938994
103	0xbfce77fd	-1.6130368
104	0xc0df4453	-6.9770904
105	0xbfd0ac8d	-1.6302658
106	0xc03a6493	-2.9123886
107	0xbf3bc952	-0.73354065
108	0xc11d4b4b	-9.830882
109	0x40c766c0	6.2312927
110	0xc0c0fe54	-6.031046
111	0xc0213b86	-2.519258
112	0xc10f9b48	-8.97541
113	0x3f950fff	1.1645507
114	0xc01f038d	-2.4845917
115	0x3fdb4299	1.7129699
116	0xc0360c9d	-2.8445199
117	0xc01fe7b0	-2.498516
118	0xbfa86352	-1.315531
119	0xbfd4e9a0	-1.6633797
120	0x3f13b642	0.5769998
121	0xc0514bb6	-3.270246
122	0xc1127558	-9.153648
123	0xc0e566c8	-7.1687965
124	0x402789a0	2.617775
125	0x4054f47b	3.327422
126	0x4123dcb9	10.241387
127	0xc0f95bfd	-7.792479
128	0x408013dd	4.0024247
129	0xc10312b2	-8.192064
130	0xc061e7d5	-3.529775
131	0xc023aaee	-2.5573077
132	0xc0ccb08e	-6.396552
133	0xc10194a4	-8.098789
134	0xc099e155	-4.8087564
135	0x3f8fe2d9	1.1241103
136	0xc152ed67	-13.18296
137	0xc0aa4a43	-5.321565
138	0xc0afc284	-5.4924946
139	0xc1051807	-8.318366
140	0xc0a57f24	-5.17177
141	0xc016e340	-2.3576202
142	0xc07f561d	-3.989631
143	0xc0f5c0d1	-7.679787
144	0xc02ae702	-2.6703496
145	0xbfcd867e	-1.6056669
146	0x4086da4e	4.2141485
147	0xc07f571f	-3.9896924
148	0xc018ef7c	-2.389617
149	0xc0a81ab9	-5.253262
150	0xc1162ffb	-9.386714
151	0xc09a6aa2	-4.8255167
152	0xc0b0bd49	-5.523106
153	0xc1369ca8	-11.413246
154	0xbff9f88e	-1.9528978
155	0xc0a47958	-5.1398125
156	0xc090b907	-4.5225863
157	0xc11feb4d	-9.9949465
158	0xc0ba93bc	-5.830534
159	0xc095ea32	-4.6848383
160	0xc0c7e6fe	-6.2469473
161	0x3f48a7ee	0.7838124
162	0x3fda5431	1.7056943
163	0xbf8c9bad	-1.0985008
164	0xc0f058a6	-7.5108213
165	0xc0f5bcee	-7.6793127
166	0xc17bff38	-15.749809
167	0xc0bdb4a2	-5.9283
168	0xc08aa116	-4.332164
169	0xc175d560	-15.3645935
170	0x40422eda	3.0341096
171	0xbf03f9ae	-0.51552856
172	0xc1077b2d	-8.467572
173	0xc10008a6	-8.002111
174	0xbd6a5396	-0.05720862
175	0xc11d0a06	-9.814947
176	0xc0befd82	-5.968446
177	0xc0b64bbc	-5.696745
178	0xc12516b2	-10.318041
179	0xbea13f3a	-0.3149355
180	0xc0f148dd	-7.5401444
181	0x3f0d3a02	0.5516664
182	0xc07685c1	-3.8519137
183	0xc108ded2	-8.5543995
184	0xc0fd1784	-7.9091206
185	0xc13cff32	-11.812304
186	0xc0679925	-3.6187222
187	0xc03e07c8	-2.969225
188	0xc05b1af7	-3.4235208
189	0x3fb0693c	1.3782115
190	0x3e4cbd5e	0.19994113
191	0xc10739b9	-8.451592
192	0x3fb968f9	1.448516
193	0xc0813db8	-4.038784
194	0xc13a4d87	-11.643928
195	0xbf3533fe	-0.7078246
196	0xbfa2e072	-1.2724745
197	0xc04e12a4	-3.2198877
198	0xc109915e	-8.59799
199	0xc036e66a	-2.8578134

running_var f4 [200]
0	0x430983e1	137.51515
1	0x42064739	33.569553
2	0x43177e2f	151.4929
3	0x42b5d71a	90.92012
4	0x42673187	57.798367
5	0x4202033e	32.503166
6	0x425cdf90	55.218323
7	0x42df3664	111.60623
8	0x4338cb9a	184.79532
9	0x417c22f2	15.758532
10	0x41c0b5de	24.088802
11	0x43274dee	167.30441
12	0x43047453	132.45439
13	0x4307debe	135.87009
14	0x426dd04b	59.45341
15	0x42378c0c	45.886765
16	0x420648fd	33.571278
17	0x43149992	148.59988
18	0x42d3dfa9	105.93684
19	0x418f5d3e	17.920528
20	0x430d2b3e	141.16891
21	0x4350302b	208.18816
22	0x422f21a9	43.78287
23	0x4331b8cb	177.72185
24	0x424f2e94	51.795486
25	0x41ef4aaf	29.911467
26	0x4363279f	227.15477
27	0x421c23da	39.03501
28	0x42e8ade7	116.33965
29	0x42497382	50.3628
30	0x425b9007	54.89065
31	0x42a303d3	81.50747
32	0x41ca8338	25.314072
33	0x41cadce6	25.35786
34	0x424113be	48.26928
35	0x429ca897	78.32928
36	0x42ca1ab6	101.05217
37	0x42cb3127	101.596
38	0x41d7ff95	26.999796
39	0x4223f856	40.992516
40	0x43967644	300.92395
41	0x430e1481	142.0801
42	0x43858def	267.10886
43	0x42278a19	41.88486
44	0x43275d5d	167.3647
45	0x41b9c27f	23.219969
46	0x434752cf	199.32347
47	0x41b07f0b	22.062033
48	0x41a9e1e3	21.235296
49	0x42ba3bdf	93.116936
50	0x4311e68b	145.90056
51	0x4386348e	268.41058
52	0x424faa5b	51.916363
53	0x4171379c	15.0760765
54	0x42b1513a	88.658646
55	0x439fe89a	319.8172
56	0x42f025dd	120.07395
57	0x428d9cf1	70.806526
58	0x42caa24d	101.31699
59	0x4276a7bf	61.663815
60	0x42741c35	61.027546
61	0x41e17743	28.183233
62	0x42ca3a2c	101.11362
63	0x431ed285	158.82234
64	0x42f8b601	124.35548
65	0x4210226a	36.033607
66	0x42a74773	83.63955
67	0x41e6a9a4	28.832832
68	0x4377d389	247.82631
69	0x424b805e	50.87536
70	0x432953ae	169.32687
71	0x41cabe1e	25.34283
72	0x4322cddf	162.80418
73	0x425ac9ec	54.69719
74	0x4250a55c	52.161484
75	0x430906c7	137.02647
76	0x4250b0d1	52.172672
77	0x434cdadd	204.85493
78	0x430e6b5a	142.41934
79	0x42234e06	40.826195
80	0x437fa62c	255.64911
81	0x41e7c300	28.970215
82	0x42d35e1c	105.68381
83	0x41e6d97b	28.856192
84	0x4317c263	151.75932
85	0x4333b1ee	179.69504
86	0x42f6c578	123.38568
87	0x420376b4	32.86592
88	0x4163a1a9	14.226968
89	0x4311a87a	145.65811
90	0x4204996e	33.149834
91	0x42569688	53.647003
92	0x42b59593	90.79214
93	0x42a8af91	84.3429
94	0x4195a137	18.703718
95	0x41dba6b9	27.456408
96	0x436a8a85	234.54109
97	0x41faa384	31.329842
98	0x42037a5e	32.8695
99	0x41a0bbf9	20.091784
100	0x41a7d377	20.978254
101	0x4330862d	176.52412
102	0x427e25d7	63.536953
103	0x435ec800	222.78125
104	0x41aea6c7	21.831434
105	0x42533b22	52.807747
106	0x41be7d5c	23.81121
107	0x42c24842	97.14113
108	0x42a9054e	84.51036
109	0x41c985e2	25.190372
110	0x4347bdb0	199.74097
111	0x433d734a	189.45035
112	0x42a49c31	82.30506
113	0x438e2d0e	284.352
114	0x417fd8c9	15.990426
115	0x41d83c05	27.029306
116	0x42a64bab	83.14779
117	0x42a45d71	82.1825
118	0x41e18111	28.18802
119	0x42ecc47e	118.38377
120	0x4302b3cb	130.70232
121	0x436dc495	237.7679
122	0x41fe0720	31.753479
123	0x41a645bb	20.784048
124	0x42097071	34.359806
125	0x438c33af	280.40378
126	0x41e881e0	29.063416
127	0x42a8846c	84.25864
128	0x4275ced3	61.451977
129	0x42e5d1f5	114.91007
130	0x422c4e74	43.076614
131	0x4204e73e	33.225822
132	0x4288c793	68.38979
133	0x41ce86bc	25.815788
134	0x425fd81d	55.96105
135	0x4386af11	269.3677
136	0x427e8ce2	63.63758
137	0x42b59225	90.78544
138	0x421be4d5	38.97347
139	0x4245e4be	49.47338
140	0x42214554	40.317703
141	0x43216ed0	161.43286
142	0x428909ad	68.5189
143	0x42d81fb9	108.06196
144	0x42a63748	83.10797
145	0x42b770b8	91.72015
146	0x420f8132	35.876167
147	0x430bd35c	139.82562
148	0x42582004	54.031265
149	0x41fd5c9d	31.670221
150	0x422458cc	41.086716
151	0x42ba8084	93.25101
152	0x421867b0	38.101257
153	0x423730e7	45.797756
154	0x41497747	12.59162
155	0x41577a9f	13.467437
156	0x42505792	52.085518
157	0x42e97b69	116.741035
158	0x42669fb6	57.655968
159	0x419ef73a	19.870716
160	0x41fb4cff	31.412596
161	0x4200222a	32.033363
162	0x42045fa0	33.093384
163	0x429fe283	79.942406
164	0x43505311	208.32448
165	0x424a082f	50.50799
166	0x4291c419	72.883
167	0x41357c48	11.342842
168	0x421d0a47	39.260036
169	0x4298912e	76.283554
170	0x419c17bb	19.511587
171	0x41728e66	15.159765
172	0x4280da1d	64.426
173	0x43055513	133.33232
174	0x42935599	73.66718
175	0x42418eec	48.389572
176	0x429a678e	77.202255
177	0x42753037	61.297085
178	0x420ed60b	35.709026
179	0x41fdc217	31.71977
180	0x430b0259	139.00917
181	0x43a23b53	324.46347
182	0x437eaeae	254.68234
183	0x42747591	61.11481
184	0x418012bd	16.00915
185	0x42e3b252	113.84828
186	0x43025533	130.33281
187	0x424d04c1	51.254642
188	0x421c273c	39.038315
189	0x4211c813	36.445385
190	0x427dc747	63.444607
191	0x42041dcc	33.0291
192	0x43423df4	194.242
193	0x433a35fc	186.21088
194	0x4327e9ff	167.91405
195	0x42b72385	91.569374
196	0x435b83ff	219.51561
197	0x4205042b	33.25407
198	0x42d2a5ce	105.32384
199	0x4208e57c	34.224106
