experiments/kidney_data/model_kidney1.pth (torch, 818856 bytes, 27 tensors)

weight f4 [10, 1, 10]
0.05737135 0.0028421788 -0.04071796 0.13071765 -0.009723913 -0.044731814 -0.03753669 0.19709292
0.90693766 -0.18333806 0.28569642 0.56015146 0.28952456 -0.09155942 0.07197568 0.06609535
-0.04315298 0.018357215 -0.04518549 -0.062455785 -0.098452955 -0.27982345 0.04585919 0.013989078
-0.06473498 0.6701831 0.029167516 0.040859386 -0.107922375 0.014368848 -0.14069188 -0.5951006
-0.03597546 -0.033436928 -0.07289557 0.1285671 0.043127358 -0.31561664 0.007586785 0.21515
0.121955395 -0.27276313 0.06506307 -0.17760053 0.03329348 -0.077788144 -0.3288339 -0.04568722
-0.13112108 0.32294032 -0.29431883 -0.06536581 -0.117800795 -0.035349555 -0.03184494 -0.30681267
-0.13063234 -0.18295617 -0.3348013 -0.19170561 0.14245935 -0.142002 -0.13743699 0.28949973
-0.023240346 0.12153728 0.08498587 -0.11529315 -0.29720986 -0.3585457 0.08135279 -0.010143045
0.028043069 -0.014756008 0.050145317 0.13492423 0.13036028 0.6168985 -0.3373479 0.13807295
-0.1592882 -0.2172892 -0.16735293 -0.21093363 -0.1407503 -0.20376621 -0.10456114 -0.18729681
-0.21834834 -0.20459957 0.22614816 0.0036940959 -0.1519423 0.11097894 -0.16135332 -0.33132273
-0.49629283 -0.012024022 0.13908328 -0.026832817
00000000: 38fe 6a3d d943 3a3b e0c7 26bd d9da 053e
00000010: 0c51 1fbc b538 37bd 12c0 19bd bad2 493e
00000020: 112d 683f f9bc 3bbe cd46 923e 1666 0f3f
00000030: 903c 943e 8183 bbbd fc67 933d 005d 873d
00000040: 2ec1 30bd df61 963c 6c14 39bd a3d1 7fbd
00000050: b4a1 c9bd 0545 8fbe d9d6 3b3d 7232 653c
00000060: c693 84bd 1f91 2b3f b7f0 ee3c 2c5c 273d
00000070: 6806 ddbd 516b 6b3c 8811 10be 8358 18bf
00000080: 015b 13bd 29f5 08bd 464a 95bd 18a7 033e
00000090: 50a6 303d 8198 a1be 919a f83b 4850 5c3e
000000a0: c0c3 f93d 9ca7 8bbe c93f 853d eadc 35be
000000b0: be5e 083d 644f 9fbd eb5c a8be 8622 3bbd
000000c0: 9b44 06be 6f58 a53e f5b0 96be 83de 85bd
000000d0: 8b41 f1bd b2ca 10bd d76f 02bd 8d16 9dbe
000000e0: 7cc4 05be dd58 3bbe 136b abbe 7a4e 44be
000000f0: dde0 113e f968 11be 48bc 0cbe 4f39 943e
00000100: 8a62 bebc 8ae8 f83d 120d ae3d d11e ecbd
00000110: e42b 98be 4d93 b7be 4b9c a63d 042f 26bc
00000120: 94ba e53c 2fc3 71bc 2d65 4d3d 9429 0a3e
00000130: 2a7d 053e 0fed 1d3f ddb8 acbe ff62 0d3e
00000140: 721c 23be 0f81 5ebe 915e 2bbe fcfe 57be
00000150: d920 10be 17a8 50be 2724 d6bd bcca 3fbe
00000160: b596 5fbe 8d82 51be 6293 673e a518 723b
00000170: c396 1bbe ed48 e33d ce39 25be 22a3 a9be
00000180: 181a febe 6700 45bc d96b 0e3e 7fd0 dbbc

bias f4 [10]
-0.0009448633 0.00016730599 -0.0002529295 0.0022642498 0.00025730554 -7.707042e-05 -0.0024557807 -0.0010861808
0.0004859877 -0.0020907575
00000000: b4b0 77ba dc6e 2f39 9f9b 84b9 cf63 143b
00000010: f7e6 8639 dea0 a1b8 2af1 20bb 2e5e 8eba
00000020: 2acc fe39 1705 09bb

weight f4 [10]
0.9665219 1.0173137 1.0375739 0.8786996 0.71084267 0.9918124 0.905716 0.821896
1.0631542 1.1459675
00000000: fb6d 773f 5637 823f 39cf 843f 75f2 603f
00000010: c9f9 353f 6be7 7d3f 01dd 673f c767 523f
00000020: 7015 883f 10af 923f

bias f4 [10]
0.19779462 0.3943735 0.14102705 0.039676107 0.29715234 -0.11491096 0.21350765 0.23248422
-0.6697109 0.011432359
00000000: ac8a 4a3e 53eb c93e 6569 103e 6a83 223d
00000010: 5a24 983e 7056 ebbd c0a1 5a3e 5810 6e3e
00000020: 2c72 2bbf ca4e 3b3c

running_mean f4 [10]
0.016284324 0.017305424 0.0028789672 -0.011237264 -0.007459794 -0.027100705 -0.0071152356 0.010909189
-0.027891643 -0.011601491
00000000: b466 853c 1bc4 8d3c 0ead 3c3b 801c 38bc
00000010: 4a71 f4bb 4c02 debc ec26 e9bb 74bc 323c
00000020: 047d e4bc 2e14 3ebc

running_var f4 [10]
0.9248585 0.66760695 0.4341509 0.56243044 0.33257076 0.9752473 0.34698597 0.5685179
1.0496854 0.51553154
00000000: 87c3 6c3f 4ae8 2a3f 0749 de3e 71fb 0f3f
00000010: b746 aa3e cfa9 793f 25a8 b13e 648a 113f
00000020: 175c 863f e0f9 033f

weight f4 [10, 10, 9]
-0.3014027 -0.07827376 -0.12433092 0.104798995 -0.2177876 -0.053100478 0.17427391 -0.025961291
-0.21246809 -0.11161539 -0.08625777 0.5513026 0.28515738 0.01475818 -0.21646191 -0.26387385
-0.11737128 0.0139260115 -0.0571352 0.07300666 -0.061001133 -0.20885839 -0.2584214 -0.12540159
0.03134067 0.043977857 0.035071414 0.1662861 -0.06541071 -0.11245436 0.13130236 0.07589647
0.09737506 0.3759727 0.43668586 0.12200594 0.1292918 -0.1515617 -0.1844026 0.05412003
0.16715428 0.3773913 0.24782014 0.010072194 -0.099982806 -0.20354497 -0.048463292 -0.034909558
0.09030079 0.304402 0.039092135 -0.115935795 -0.16367671 0.011436442 0.31972888 0.31357685
-0.010181684 0.36641404 0.27387208 -0.1979898 0.08039868 0.06141421 -0.03038668 -0.25246593
0.27056608 0.06688413 -0.24373847 -0.2971168 -0.06595224 0.05581232 -0.056976616 0.10424209
0.0055389307 -0.03892637 -0.0017623587 0.032285165 0.18640919 0.041240435 0.02067395 -0.14399606
-0.09250603 -0.16356789 0.30225882 -0.19422248 0.17297116 0.6601277 0.29450494 0.34112555
-0.020920208 -0.09244033 -0.07366459 -0.15163085 -0.09503507 -0.21180408 -0.1383741 -0.18685448
-0.1368058 -0.29785946 -0.18051831 -0.052484848 -0.057122055 0.098758385 0.049251784 -0.16425161
-0.25055283 -0.022507837 -0.12859814 -0.120266534 0.18484056 -0.1184521 0.03942923 0.0396688
0.0008893192 0.14780514 0.16115475 0.008474841 0.065679915 -0.0112822205 0.10866751 -0.055976767
-0.013572032 -0.31495586 -0.17468584 -0.15938815 -0.27475402 -0.14800465 0.09306579 -0.0064946176
-0.066511154 -0.27950805 -0.38335302 -0.26841417 -0.24896574 -0.20957488 -0.17069899 0.21248932
0.1334262 0.07799134 0.09337305 0.08235495 0.09656153 0.1351082 0.14292662 0.21564144
-0.46656144 -0.4645198 -0.13981491 -0.14692539 -0.009705306 -0.03075281 -0.10050065 -0.19110154
0.011328022 -0.15838414 -0.22123139 -0.3367915 -0.31308407 -0.30980548 -0.009235858 -0.043163046
-0.16564772 -0.24164493 0.36899218 0.29717836 0.28551877 0.1440167 0.12965892 0.16452146
0.2627434 0.20505816 0.49939203 -0.02939646 -0.16631797 -0.3029831 -0.27029848 -0.31295496
-0.08655005 -0.22276942 -0.16894126 -0.28981093 -0.16514044 -0.15428844 0.06470034 -0.19118425
0.025182106 0.09248214 -0.19649243 0.012240765 0.014588432 -0.018005688 -0.13209084 0.038091924
-0.21290892 -0.005821746 0.028621007 0.1715453 -0.04177904 -0.103669256 0.17113551 -0.38955104
0.0215936 -0.05244629 0.013021068 -1.0774814 0.04303414 -0.021890864 -0.16339096 -0.075117104
-0.16812481 -0.17942686 -0.2126408 0.10298059 -0.28232193 -0.32622558 -0.18826291 0.2955555
-0.079498306 -0.14142977 0.036338728 -0.59871775 -0.08154356 -0.118949816 -0.082402445 -0.12648953
-0.121470116 0.20924085 0.25906187 -0.26539898 -0.053902548 0.1657508 0.032533552 -0.11197663
0.03713775 -0.20867385 0.08028227 -0.13182326 -0.3595209 -0.0063436083 -0.23263341 -0.22574304
-0.2000295 -0.19069895 -0.21780777 -0.062299583 -0.112920925 -0.15930085 0.27570322 -0.3574701
-0.17512137 0.1321928 -0.22559056 -0.071800925 0.13499965 0.10808551 -0.10307898 0.09655729
00000000: 7451 9abe fe4d a0bd 36a1 febd dba0 d63d
00000010: b603 5fbe e37f 59bd dc74 323e c6ac d4bc
00000020: 3c91 59be 9c96 e4bd eaa7 b0bd 2b22 0d3f
00000030: 2600 923e 4bcc 713c 31a8 5dbe 791a 87be
00000040: 5b60 f0bd ed29 643c 9906 6abd 8484 953d
00000050: 53dc 79bd f9de 55be cf4f 84be 4669 00be
00000060: 135f 003d 2022 343d 0ba7 0f3d e746 2a3e
00000070: 0df6 85bd 794e e6bd 2074 063e 9c6f 9b3d
00000080: 936c c73d 7e7f c03e 4a95 df3e 40de f93d
00000090: 1265 043e fe32 1bbe 09d4 3cbe f7ac 5d3d
000000a0: 7e2a 2b3e 6f39 c13e 90c4 7d3e d805 253c
000000b0: c9c3 ccbd 186e 50be 7281 46bd 53fd 0ebd
000000c0: 9fef b83d 94da 9b3e 131f 203d bf6f edbd
000000d0: de9a 27be ea5f 3b3c 81b3 a33e 258d a03e
000000e0: 14d1 26bc 9f9a bb3e f638 8c3e d7bd 4abe
000000f0: 10a8 a43d 778d 7b3d 7ded f8bc 3743 81be
00000100: a387 8a3e 8cfa 883d 9496 79be b11f 98be
00000110: f811 87bd 769b 643d 5060 69bd e07c d53d
00000120: eb7f b53b 4271 1fbd f2fe e6ba 733d 043d
00000130: 0de2 3e3e bbeb 283d 6a5c a93c b473 13be
00000140: cd73 bdbd 577e 27be abc1 9a3e 42e2 46be
00000150: 5a1f 313e 21fe 283f 5ac9 963e 02a8 ae3e
00000160: db60 abbc 5b51 bdbd 76dd 96bd 1e45 1bbe
00000170: bfa1 c2bd 2be3 58be f1b1 0dbe c856 3fbe
00000180: d216 0cbe 0981 98be cbd9 38be 5afa 56bd
00000190: d1f8 69bd d641 ca3d 3dbc 493d 9331 28be
000001a0: 7648 80be 5b62 b8bc 3baf 03be 4d4e f6bd
000001b0: d846 3d3e 0497 f2bd 8b80 213d c07b 223d
000001c0: 3421 693a 3b5a 173e c005 253e 0fda 0a3c
000001d0: 3183 863d 10d9 38bc 128d de3d e547 65bd
000001e0: 3a5d 5ebc e541 a1be d8e0 32be a636 23be
000001f0: 8fac 8cbe 888e 17be 4799 be3d cdd0 d4bb
00000200: 0037 88bd ae1b 8fbe d946 c4be 956d 89be
00000210: e0f0 7ebe cc9a 56be b7cb 2ebe cd96 593e
00000220: e1a0 083e ecb9 9f3d 5f3a bf3d b6a9 a83d
00000230: 0dc2 c53d ce59 0a3e 5b5b 123e 1cd1 5c3e
00000240: 24e1 eebe 8ad5 edbe a42b 0fbe 9c73 16be
00000250: 0103 1fbc 51ed fbbc 49d3 cdbd 1fb0 43be
00000260: 2b99 393c 742f 22be 7b8a 62be ef6f acbe
00000270: 8e4c a0be d39e 9ebe ff51 17bc bccb 30bd
00000280: 8e9f 29be c571 77be 8bec bc3e c327 983e
00000290: 842f 923e 1d79 133e 4fc5 043e 5078 283e
000002a0: 4e86 863e c4fa 513e 50b0 ff3e d8d0 f0bc
000002b0: 424f 2abe 9a20 9bbe 9064 8abe a23b a0be
000002c0: 2741 b1bd ab1d 64be f0fe 2cbe 1962 94be
000002d0: 931a 29be cafd 1dbe 9d81 843d cec5 43be
000002e0: b44a ce3c 4767 bd3d 5035 49be 7d8d 483c
000002f0: 5204 6f3c aa80 93bc d242 07be 4706 1c3d
00000300: cc04 5abe 58c4 bebb 9a76 ea3c 92a9 2f3e
00000310: 8020 2bbd 8c50 d4bd 263e 2f3e 3c73 c7be
00000320: 10e5 b03c ecd1 56bd 5156 553c e9ea 89bf
00000330: 9144 303d 7854 b3bc f64f 27be ffd6 99bd
00000340: e928 2cbe adbb 37be 83be 59be 7de7 d23d
00000350: 808c 90be 0a07 a7be fec7 40be 0d53 973e
00000360: 02d0 a2bd f7d2 10be ebd7 143d 9145 19bf
00000370: 4f00 a7bd f69b f3bd 9dc2 a8bd 7986 01be
00000380: 53c5 f8bd 3c43 563e c2a3 843e 60e2 87be
00000390: ebc8 5cbd 94ba 293e e741 053d 0154 e5bd
000003a0: c11d 183d 99ae 55be 086b a43d adfc 06be
000003b0: 2013 b8be 0bde cfbb 7437 6ebe 2f29 67be
000003c0: 89d4 4cbe 9646 43be 0009 5fbe d92d 7fbd
000003d0: 1643 e7bd c31f 23be f928 8d3e 5206 b7be
000003e0: 0453 33be 8d5d 073e 3601 67be 5d0c 93bd
000003f0: 593d 0a3e f05b dd3d 131b d3bd d4bf c53d

bias f4 [10]
-0.0003066055 0.0006953278 0.00021111677 7.422326e-05 0.0004888235 0.00014885374 0.00026984516 -0.00023948216
0.00039642636 5.47132e-06
00000000: e5bf a0b9 a946 363a 3a5f 5d39 4fa8 9b38
00000010: 6424 003a 9f15 1c39 017a 8d39 811d 7bb9
00000020: 72d7 cf39 4896 b736

weight f4 [10]
0.805914 1.0660484 1.1093807 0.8206116 1.0336308 0.9427341 0.94226557 0.7884741
1.075527 0.835439
00000000: 6150 4e3f 4674 883f 3000 8e3f 9a13 523f
00000010: 044e 843f 0657 713f 5138 713f 70d9 493f
00000020: deaa 893f 55df 553f

bias f4 [10]
0.19207996 -0.62107575 0.3565911 0.40024412 0.2680782 -0.57390505 -0.7143369 0.40879038
-0.046407714 0.15777396
00000000: 9cb0 443e d2fe 1ebf 1c93 b63e ccec cc3e
00000010: 8c41 893e 71eb 12bf c8de 36bf f94c d13e
00000020: 0416 3ebd 7f8f 213e

running_mean f4 [10]
1.0625029 -3.5409062 -3.7656794 -1.1784472 0.69732946 0.14054088 1.1338484 -0.03619661
-3.8047366 -3.593408
00000000: 1800 883f 359e 62c0 e400 71c0 5cd7 96bf
00000010: 2f84 323f f3e9 0f3e f221 913f e642 14bd
00000020: ce80 73c0 66fa 65c0

running_var f4 [10]
4.026568 1.6546279 2.4194288 1.7581304 3.0922585 2.249449 2.4281278 2.558068
4.0849624 2.7236974
00000000: a5d9 8040 d9ca d33f ecd7 1a40 6b0a e13f
00000010: 90e7 4540 f9f6 0f40 7266 1b40 63b7 2340
00000020: 03b8 8240 0f51 2e40

weight f4 [200, 490]
0.14979158 0.040301777 0.29938397 -0.11833762 -0.236898 -0.107134074 -0.034399655 0.06422906
-0.07666114 0.012166512 -0.11632401 0.014724019 0.056006357 0.09002118 0.26734364 -0.012906591
0.38187724 0.3795343 0.1290602 0.20006491 0.31658408 0.45312217 0.26716268 0.22829027
-0.078163154 0.050806865 -0.072608694 -0.3177718 0.056537393 -0.20817219 -0.1816726 0.0799132
-0.21423775 0.12929623 -0.0467401 0.24539 0.37528938 0.24803229 0.25352752 0.16484867
-0.023086986 0.32126048 0.35261956 0.18703344 0.00585059 0.0047133546 -0.49142897 -0.3203831
0.27985677 -0.1680823 0.15266478 0.0022848104 -0.07174037 -0.18164177 -0.121013574 -0.10283634
-0.17971392 -0.13606018 -0.062386386 -0.11503125 -0.20130831 0.049736395 0.17176643 0.09308687
0.14403044 -0.024372876 0.026231479 0.23117281 0.33404136 0.11570385 0.121468365 0.14572044
0.13986604 0.060936775 0.047991455 -0.14786763 -0.024124721 0.08941306 -0.2767242 -0.13845992
0.109378 0.109975666 0.08315394 0.06403991 0.061435644 0.20227289 0.1681438 0.2909831
0.16200493 0.12380345 0.03313934 0.10434457 -0.029196348 -0.053007104 0.013540292 -0.06875904
0.097332925 -0.04922814 -0.4839045 0.12655677 -0.087108836 -0.014879225 -0.088534 0.025250785
0.04842038 0.08150943 -0.21881807 -0.12557639 0.22330578 -0.09494977 -0.21901427 -0.02796138
0.013066941 -0.45507565 -0.05317515 -0.27137217 0.028317071 -0.18163577 -0.07080656 -0.013638656
-0.15816717 0.0878086 -0.06743638 -0.13061754 0.31570745 0.17317456 -0.06059526 0.09743088
0.19485907 0.04909053 0.08830712 0.00340077 0.20772386 0.032868482 -0.12898916 -0.1080587
0.317759 -0.23711982 -0.22478151 -0.25620893 0.08921255 -0.029997647 0.025485128 -0.26332235
0.17658742 0.12606841 -0.28081718 0.036362983 0.28016284 -0.24719816 0.0038331694 -0.022129195
0.14384161 0.394355 -0.24686454 0.22769825 0.0131883025 -0.16197298 -0.2985954 -0.11410325
0.32277682 0.020276247 0.19295336 -0.07817255 0.2682533 -0.0046345014 0.33156717 -0.19550583
0.044428393 -0.27223524 0.4029023 0.034786362 0.03608098 0.21058309 0.096244685 -0.23383057
-0.16636017 0.16898863 0.3020276 0.23302642 -0.04909344 0.17472135 0.0700693 0.09014012
0.25521013 0.3087555 -0.099362195 -0.022563394 0.08668814 -0.20865376 0.13570412 -0.3906355
-0.45475483 0.11639999 0.13907695 0.09671332 -0.88526136 0.2651514 0.21108063 -0.17783903
0.243801 0.08384206 0.12990832 0.0145055475 -0.13400178 0.14021552 0.22216797 0.039792094
0.02672954 -0.16647339 0.09514482 -0.041484304 0.15962495 0.15717323 -0.052715987 0.23618379
-0.028185442 -0.100403935 -0.009701003 -0.053712346 0.099863656 -0.17705958 0.00035122718 0.42490104
0.21825601 0.11584722 0.100882724 -0.2121268 0.105187245 0.10918939 -0.18016876 -0.018665168
0.032824233 -0.39384657 0.0064673875 -0.3038528 0.16981553 0.17678791 -0.19070673 -0.3086056
-0.5147531 -0.009204481 0.10720236 0.19288136 0.26167583 -0.17371951 -0.04122658 -0.002861544
-0.1282913 -0.113149054 -0.15185978 -0.124446124 -0.089976706 -0.1065547 0.075968266 -0.03565974
00000000: f762 193e 7a13 253d db48 993e fe5a f2bd
00000010: 6495 72be 1c69 dbbd a7e6 0cbd 878a 833d
00000020: 8400 9dbd 0d56 473c 483b eebd 033d 713c
00000030: ec66 653d 065d b83d 44e1 883e 2b76 53bc
00000040: 6a85 c33e 5252 c23e 5b28 043e d1dd 4c3e
00000050: 4f17 a23e a1ff e73e 8cc9 883e edc4 693e
00000060: 0114 a0bd dc1a 503d deb3 94bd fcb2 a2be
00000070: c193 673d 172b 55be 6208 3abe 88a9 a33d
00000080: 2461 5bbe 3b66 043e 8c72 3fbd 8447 7b3e
00000090: ee25 c03e 2dfc 7d3e 5cce 813e 17ce 283e
000000a0: eb20 bdbc 417c a43e 8d8a b43e b285 3f3e
000000b0: 4eb6 bf3b 7c72 9a3b 949c fbbe 4109 a4be
000000c0: 6349 8f3e c41d 2cbe 2854 1c3e c2bc 153b
000000d0: 9dec 92bd 4d00 3abe f7d5 f7bd dc9b d2bd
000000e0: ed06 38be 5c53 0bbe de88 7fbd 8195 ebbd
000000f0: c423 4ebe 64b8 4b3d 8ae3 2f3e 54a4 be3d
00000100: b77c 133e a0a9 c7bc 66e3 d63c 91b8 6c3e
00000110: 7807 ab3e 24f6 ec3d 68c4 f83d bd37 153e
00000120: 0b39 0f3e d798 793d b092 443d 9d6a 17be
00000130: 35a1 c5bc 321e b73d cbae 8dbe 70c8 0dbe
00000140: 9301 e03d ec3a e13d 9d4c aa3d 5b27 833d
00000150: f1a3 7b3d a020 4f3e e32d 2c3e bdfb 943e
00000160: 9fe4 253e aa8c fd3d 1ebd 073d 9bb2 d53d
00000170: 2e2d efbc fa1d 59bd 1ad8 5d3c 8ad1 8cbd
00000180: 7c56 c73d 72a3 49bd 55c2 f7be 1998 013e
00000190: 1e66 b2bd fec7 73bc 5051 b5bd bcda ce3c
000001a0: 7354 463d 6bee a63d d811 60be 1997 00be
000001b0: 45aa 643e 0675 c2bd 4745 60be 440f e5bc
000001c0: b916 563c adff e8be 30ce 59bd 4bf1 8abe
000001d0: 34f9 e73c bafe 39be 0803 91bd ab74 5fbc
000001e0: 93f6 21be ffd4 b33d 161c 8abd 9bc0 05be
000001f0: 68a4 a13e ac54 313e bc32 78bd d789 c73d
00000200: 2389 473e 2713 493d 5dda b43d 74df 5e3b
00000210: 90b5 543e 1aa1 063d bc15 04be e14d ddbd
00000220: 4fb1 a23e 8acf 72be 202d 66be d12d 83be
00000230: 12b5 b63d a0bd f5bc 30c6 d03c 30d2 86be
00000240: 55d3 343e 1418 013e 45c7 8fbe 5af1 143d
00000250: 8171 8f3e 8421 7dbe e935 7b3b 4948 b5bc
00000260: 374b 133e e6e8 c93e 0fca 7cbe bb29 693e
00000270: c013 583c 3fdc 25be 7fe1 98be f7ae e9bd
00000280: 0143 a53e 5f1a a63c 9195 453e ee18 a0bd
00000290: 7f58 893e 04dd 97bb 2cc3 a93e ae32 48be
000002a0: 8cfa 353d 6b62 8bbe 3649 ce3e 257c 0e3d
000002b0: a6c9 133d 18a3 573e ef1b c53d 4871 6fbe
000002c0: 525a 2abe 5b0b 2d3e 5da3 9a3e 7a9e 6e3e
000002d0: 3416 49bd 27ea 323e 7e80 8f3d 629b b83d
000002e0: e7aa 823e 3315 9e3e 687e cbbd ded6 b8bc
000002f0: 8d89 b13d 55a9 55be 05f6 0a3e 6001 c8be
00000300: a0d5 e8be 1e63 ee3d 306a 0e3e a211 c63d
00000310: 7da0 62bf edc1 873e 8525 583e 6f1b 36be
00000320: f8a6 793e 63b5 ab3d b006 053e ada8 6d3c
00000330: c337 09be a894 0f3e 0080 633e 09fd 223d
00000340: e9f7 da3c 0078 2abe 4adb c23d 72eb 29bd
00000350: b974 233e 05f2 203e b8ec 57bd 2ada 713e
00000360: 28e5 e6bc 94a0 cdbd f5f0 1ebc 7a01 5cbd
00000370: 5185 cc3d 1b4f 35be ea24 b839 a18c d93e
00000380: 817e 5f3e 4f41 ed3d 9a9b ce3d c537 59be
00000390: 696c d73d b09e df3d 297e 38be b2e7 98bc
000003a0: b472 063d 42a6 c9be 61ec d33b 9892 9bbe
000003b0: 1fe4 2d3e e407 353e a048 43be 8e01 9ebe
000003c0: dcc6 03bf 64ce 16bc e98c db3d b182 453e
000003d0: 60fa 853e 87e3 31be 34dd 28bd be88 3bbb
000003e0: cb5e 03be b1ba e7bd 2181 1bbe 9cdd febd
000003f0: b545 b8bd 5a39 dabd 4095 9b3d f30f 12bd

bias f4 [200]
-5.9935483e-06 1.3531753e-06 1.6521163e-17 -5.3927424e-38 3.229438e-11 1.782065e-05 1.2311348e-05 1.4054175e-05
-2.3728011e-05 -0.00018150752 -4.7002188e-05 3.7109253e-38 -7.9895115e-05 1.4017332e-05 3.513128e-21 6.189227e-06
-3.0544742e-38 1.4335164e-09 9.752648e-07 3.9440158e-05 -3.8808603e-06 -2.0160616e-05 -7.1464764e-38 7.0479887e-38
-5.042352e-05 -1.7229053e-05 2.1805597e-05 -6.0927414e-07 2.7552234e-25 -5.0963536e-05 3.1093095e-05 -2.9907666e-38
-5.137378e-05 2.4246354e-05 2.0540009e-38 -4.3848595e-06 -2.2909502e-05 -3.0181702e-05 0.00013876689 6.207499e-38
-1.1112259e-05 7.8422815e-08 7.3898744e-05 -2.108587e-06 -2.827909e-37 -6.980019e-06 1.940988e-06 -5.8603822e-05
-6.108436e-38 -6.05014e-05 -1.2596483e-05 -9.027357e-25 0.00011378985 -5.8257945e-05 -4.8433603e-06 8.66188e-06
-2.4247442e-05 5.090722e-05 0.00028476416 1.5097578e-05 -3.1184845e-06 -3.6554638e-06 -7.7361165e-06 2.8990848e-05
2.0809823e-06 -5.8295518e-05 -0.00026451185 6.887286e-11 -3.1313219e-09 -5.505617e-06 1.14692475e-05 -2.5067193e-05
1.1800377e-05 2.0724673e-26 0.00036344992 -3.0528638e-05 6.866955e-05 -3.093491e-05 1.6057401e-37 -7.429613e-05
1.6293814e-37 -1.8513128e-05 -6.342114e-05 5.6549885e-05 0.00023346067 4.1990695e-08 1.8645676e-05 1.2863795e-05
-2.1229714e-06 -1.0999875e-06 -5.6328286e-38 -2.1942924e-06 -1.6318019e-09 1.0107191e-05 5.6089935e-05 4.485089e-06
1.4264685e-05 -5.000428e-05 -1.6667819e-21 2.8088742e-05 -2.7713417e-05 -6.196968e-05 0.00014397028 -3.8148883e-06
6.240583e-06 0.00011572869 0.00014199494 -0.00017704663 5.4277396e-05 4.1669664e-05 2.3233128e-05 1.8126775e-05
1.9095838e-05 -1.848987e-05 -4.9118134e-06 7.680443e-05 -2.483853e-05 3.0527197e-05 -1.7454247e-06 -7.362638e-06
-6.844853e-05 1.4322046e-37 -3.461243e-05 2.982314e-06 5.7590287e-06 1.8811312e-05 -2.759172e-05 3.715507e-05
6.891384e-05 4.1156436e-05 -2.2741806e-06 -1.0894553e-05 -8.2773515e-33 -1.0726071e-06 2.897339e-06 -3.1133546e-05
1.70829e-05 -4.954236e-07 1.12980215e-05 -0.00016838234 7.655112e-08 5.474926e-07 -1.0499269e-12 4.2158455e-05
-1.5677051e-06 -3.4680867e-05 -4.3961622e-17 -2.1751686e-05 8.730369e-06 -2.6600456e-38 1.2171912e-05 3.0095982e-05
-3.9647595e-05 -5.291303e-38 -4.455232e-05 5.0699e-05 -1.18959315e-05 -1.1372113e-05 2.0188962e-05 -0.00011357232
-1.533883e-05 -4.2675412e-38 -6.8205434e-38 3.974206e-39 -1.2296972e-05 3.5568979e-09 -7.358959e-05 4.943874e-10
-4.7026953e-07 0.00019780901 8.641376e-06 -2.449635e-20 -2.5433724e-06 7.5194293e-06 3.196485e-07 1.3129649e-05
-2.5749192e-05 3.4674233e-18 7.4590275e-06 1.419064e-05 1.0497048e-05 -9.265884e-05 -1.6583213e-05 1.0784103e-37
0.0001241351 7.774226e-12 6.6217126e-08 7.633676e-05 8.503179e-05 2.678164e-07 -1.2809421e-30 -9.802379e-05
3.4195905e-06 -3.9713614e-05 -1.547334e-38 5.534611e-38 1.7221628e-05 -8.303407e-05 -7.925598e-05 7.5461605e-05
00000000: 301c c9b6 c09e b535 7e61 9823 eecd 9281
00000010: 3d08 0e2e 8e7d 9537 d68c 4e37 39ca 6b37
00000020: 840b c7b7 0e53 3eb9 3724 45b8 c00a 4a01
00000030: 5d8d a7b8 fc2b 6b37 e4b8 841d 0ead cf36
00000040: 284d 2681 6005 c530 d8e5 8235 8c6c 2538
00000050: 5638 82b6 981e a9b7 ac8b c281 50dd bf01
00000060: d87d 53b8 1c87 90b7 2aeb b637 008d 23b5
00000070: 428a aa16 aec1 55b8 f569 0238 34d5 2281
00000080: 2d7a 57b8 a664 cb37 30a9 df00 a821 93b6
00000090: c82d c0b7 b62e fdb7 f481 1139 f4fb a801
000000a0: ca6e 3ab7 6669 a833 16fa 9a38 4081 0db6
000000b0: 2075 c082 e835 eab6 ec41 0236 60cd 75b8
000000c0: 9649 a681 e2c2 7db8 7c55 53b7 0cb1 8b97
000000d0: 76a2 ee38 fe59 74b8 2684 a2b6 7e52 1137
000000e0: fc66 cbb7 3685 5538 664c 9539 9b4b 7d37
000000f0: 2847 51b6 6450 75b6 5eca 01b7 5f31 f337
00000100: 01a7 0b36 5682 74b8 2eae 8ab9 f973 972e
00000110: cc2e 57b1 e4bc b8b6 0b6c 4037 6347 d2b7
00000120: 3cfa 4537 4a3f cd14 6c8d be39 e00b 00b8
00000130: af02 9038 1bc0 01b8 e08f 5a02 6ecf 9bb8
00000140: a8c7 5d02 a44c 9bb7 f700 85b8 fa2f 6d38
00000150: 1fcd 7439 4259 3433 4969 9c37 94d1 5737
00000160: 5f78 0eb6 48a3 93b5 1657 9981 a841 13b6
00000170: ed45 e0b0 0e92 2937 1c42 6b38 9f7e 9636
00000180: 5b52 6f37 b0bb 51b8 80e0 fb9c 1da0 eb37
00000190: 1c7a e8b7 b8f5 81b8 baf6 1639 a401 80b6
000001a0: 3366 d136 5eb3 f238 7ae4 1439 98a5 39b9
000001b0: e9a7 6338 76c6 2e38 c3e4 c237 f40e 9837
000001c0: 0030 a037 b21a 9bb7 28d0 a4b6 1012 a138
000001d0: 565c d0b7 540a 0038 5644 eab5 940c f7b6
000001e0: 068c 8fb8 0cf1 4202 d02c 11b8 c423 4836
000001f0: ae3d c136 fccc 9d37 c474 e7b7 f4d6 1b38
00000200: d685 9038 639f 2c38 209e 18b6 c0c7 36b7
00000210: f3e9 2b8a 80f6 8fb5 e86f 4236 6495 02b8
00000220: 404d 8f37 40fd 04b5 a28c 3d37 ca8f 30b9
00000230: 6c64 a433 68f7 1235 9ac3 93ab 4cd3 3038
00000240: f069 d2b5 4c76 11b8 b9bc 4aa4 6477 b6b7
00000250: a678 1237 a0d3 1081 f735 4c37 a176 fc37
00000260: 484b 26b8 000b 9081 b0dd 3ab8 a3a5 5438
00000270: a394 47b7 daca 3eb7 775b a937 ad2d eeb8
00000280: e3ab 80b7 d858 6881 40ac b981 7846 2b00
00000290: 184f 4eb7 9c6d 7431 1c54 9ab8 6ce5 0730
000002a0: 5a79 fcb4 f46a 4f39 6dfa 1037 8a5c e79e
000002b0: ceae 2ab6 684f fc36 289c ab34 6a47 5c37
000002c0: f8ff d7b7 c6d9 7f22 8f48 fa36 5614 6e37
000002d0: 7a1c 3037 d651 c2b8 2e1c 8bb7 1dc9 1202
000002e0: 432a 0239 00c4 082d 4033 8e33 fc16 a038
000002f0: 1853 b238 68c8 8f34 41d8 cf8d 1f92 cdb8
00000300: 1e7c 6536 2b92 26b8 607d a880 9caa 9601
00000310: 2a77 9037 9422 aeb8 3b36 a6b8 2441 9e38

weight f4 [200]
0.56705713 0.3140001 0.27028838 -1.6633257e-07 0.19711925 0.66185546 0.2607655 0.7328079
0.42105377 1.0433023 0.77306163 0.019516345 0.6935321 0.7839619 0.32092303 0.53648543
-7.47838e-40 0.24222113 0.40602368 0.7293944 0.536704 0.6692086 1.0443043e-07 -5.487537e-39
0.62396693 0.33414736 0.7013184 0.4935405 0.13883393 0.50162905 0.56971693 0.018882176
0.61589587 0.47851706 5.076242e-39 0.6622507 0.47117206 0.20744033 0.70790756 -0.009453056
0.40460464 0.13889845 0.48377752 0.4527401 -3.128816e-39 0.52466345 0.5652253 0.4468697
-0.0026405137 0.7499474 0.5710914 0.06904536 0.64683396 0.89378226 0.66437113 0.5775567
0.67088705 0.8010404 1.2791322 0.37395787 0.44909695 0.43374723 0.30356976 0.8708827
0.45294085 0.8841036 0.7729248 0.119623505 0.07140295 0.6722788 0.48042417 0.6864229
0.27130568 0.042718843 0.33644202 0.6645144 0.89702207 0.75007504 -6.3000585e-38 0.4766509
0.0012188697 0.56373805 0.7075726 0.5983361 0.7376465 0.22306652 0.38799092 0.50433403
0.3215066 0.054951705 0.031404316 0.6270682 0.06094598 0.52627075 0.49220145 0.6256465
0.6276188 0.84347606 0.19159773 0.5814239 0.48533028 0.42784184 0.6679028 0.47218126
0.3492594 0.49707282 0.97463346 1.0147909 0.6544867 0.6314397 0.38321424 0.752853
0.8969284 0.3467754 0.63675815 0.80878645 0.70701426 0.5567138 0.35858312 0.6340404
0.66197884 7.3603213e-38 0.5151522 0.4449532 0.45866346 0.81037194 0.497688 0.6664373
0.59087014 0.7265444 0.68279815 0.3139524 0.20817804 0.68164724 0.47613356 0.5119638
0.56046563 0.34959066 0.52107495 0.7021307 0.112648405 0.33406222 0.2718876 0.8858197
0.4805932 0.6742934 0.33025503 0.5551102 0.48824334 -0.0040266714 0.7442265 0.46868506
0.5492078 -9.478069e-38 0.7660912 0.62798893 0.75383914 0.6991761 0.61013067 0.74834734
0.5869043 1.4441233e-38 6.06964e-39 -2.7859506e-38 0.82803035 0.20028536 0.5897875 0.22688918
0.37560496 0.8076124 0.5229683 0.09808285 0.2991839 0.8670126 0.20501569 0.11771538
0.75857556 0.18824397 0.52666676 0.4516635 0.6501195 0.6767415 0.785041 -0.002407915
0.87338394 0.34064934 0.36541393 0.6355708 0.8078083 0.33190694 0.17856339 0.7477065
0.25087652 0.843707 0.177901 -6.795289e-05 0.6299337 0.43880388 0.84731084 1.0932931
00000000: a82a 113f 9fc4 a03e 3d63 8a3e 2699 32b4
00000010: a1d9 493e 5c6f 293f 0e83 853e 4c99 3b3f
00000020: 5c94 d73e ee8a 853f 5ee7 453f bee0 9f3c
00000030: 528b 313f bab1 483f 0650 a43e 1c57 093f
00000040: ab24 0880 d108 783e 56e2 cf3e 97b9 3a3f
00000050: 6f65 093f 4151 2b3f 3c43 e033 05c1 3b80
00000060: 4cbc 1f3f 5d15 ab3e 9a89 333f 57b1 fc3e
00000070: 7b2a 0e3e c36a 003f f8d8 113f cbae 9a3c
00000080: 5aab 1d3f 3000 f53e 7f46 3700 4389 293f
00000090: 773d f13e 3d6b 543e 6e39 353f fee0 1abc
000000a0: 5728 cf3e 653b 0e3e b0b1 f73e 8dcd e73e
000000b0: de11 2280 5850 063f 9bb2 103f 1bcc e43e
000000c0: 780c 2dbb 8efc 3f3f 0c33 123f a767 8d3d
000000d0: e996 253f eace 643f 3a14 2a3f c2da 133f
000000e0: 41bf 2b3f fc10 4d3f 9bba a33f 6877 bf3e
000000f0: 09f0 e53e 1e14 de3e 7f6d 9b3e 2bf2 5e3f
00000100: dde7 e73e 9d54 623f 66de 453f 2bfd f43d
00000110: b63b 923d 771a 2c3f 28fa f53e 69b9 2f3f
00000120: 94e8 8a3e f4f9 2e3d 2142 ac3e 9e1d 2a3f
00000130: 3da3 653f eb04 403f 0081 ab81 960b f43e
00000140: 7bc2 9f3a 2351 103f 7a23 353f 8e2c 193f
00000150: 67d6 3c3f 8d6b 643e bfa6 c63e 091c 013f
00000160: 839c a43e 0a15 613d d0a1 003d 8b87 203f
00000170: 7ea2 793d aeb9 063f d401 fc3e 5e2a 203f
00000180: a0ab 203f 0cee 573f 3232 443e 32d8 143f
00000190: 367d f83e 160e db3e aefb 2a3f bec1 f13e
000001a0: 21d2 b23e 5480 fe3e 9481 793f abe4 813f
000001b0: 718c 273f 08a6 213f a834 c43e f9ba 403f
000001c0: 1a9d 653f 8c8c b13e 9502 233f a10c 4f3f
000001d0: e3fe 343f cc84 0e3f 3598 b73e 7950 223f
000001e0: 7277 293f f45d c801 04e1 033f e8d0 e33e
000001f0: f0d5 ea3e 8974 4f3f f6d0 fe3e a39b 2a3f
00000200: 4443 173f d0fe 393f dccb 2e3f 5ebe a03e
00000210: a02c 553e 6f80 2e3f c7c7 f33e 0f10 033f
00000220: ad7a 0f3f 8cfd b23e 2b65 053f d6be 333f
00000230: 35b4 e63d 340a ab3e da34 8b3e 14c5 623f
00000240: 5010 f63e 7e9e 2c3f 3017 a93e b41b 0e3f
00000250: 08fb f93e 2bf2 83bb a185 3e3f 7df7 ef3e
00000260: e298 0c3f 4002 0182 8e1e 443f e2c3 203f
00000270: 9afb 403f 34fd 323f 8631 1c3f b193 3f3f
00000280: 5c3f 163f 4840 9d00 b017 4200 7cae 1781
00000290: ccf9 533f 9b17 4d3e 50fc 163f a355 683e
000002a0: 4b4f c03e b0bf 4e3f 40e1 053f a9df c83d
000002b0: a22e 993e 8af4 5d3f a2ef 513e c314 f13d
000002c0: 0232 423f 07c3 403e a2d3 063f 7040 e73e
000002d0: 3b6e 263f ee3e 2d3f 72f8 483f 1cce 1dbb
000002e0: 1796 5f3f 9769 ae3e 8917 bb3e c5b4 223f
000002f0: 86cc 4e3f b5ef a93e 52d9 363e b169 3f3f
00000300: e372 803e 2ffd 573f ae2b 363e ee81 8eb8
00000310: 5643 213f e7aa e03e 5de9 583f 07f1 8b3f

bias f4 [200]
-0.22631814 0.05246871 -0.6386759 -0.0014798135 -0.32612693 -0.28450015 -0.48510706 0.18219094
0.17781463 0.07112845 0.07847183 -0.10902482 -0.40595537 0.24293256 -0.47559515 -0.4593597
-0.0055695632 -0.52039784 -0.57604355 -0.33481613 -0.40306112 -0.05443743 -9.6708154e-17 -1.767158e-23
-0.12716122 -0.46011528 -0.35984483 -0.5361721 -0.47266605 -0.5707888 0.13297042 -0.090553105
-0.5659807 -0.7201869 -0.02203032 0.041499663 0.116479404 0.3017843 0.1897779 -0.029754154
-0.5962416 -0.51869255 -0.4235919 -0.5581582 -0.02120189 -0.5134701 -0.33776778 0.010579765
-0.01158337 -0.15043974 0.13408057 -0.10992827 0.07865862 -0.41071865 -0.24432403 -0.48823202
0.10437214 -0.12681921 -0.1073621 -0.47371608 -0.5026242 -0.58833724 -0.317057 -0.07073068
-0.5208814 0.32223743 -0.47597063 -0.32885042 -0.21844916 -0.21408433 -0.48214245 -0.38997814
-0.35827076 -0.2570755 -0.3689096 -0.3767735 0.30599675 -0.26316676 -2.9413712e-20 -0.42171735
-0.004847415 -0.42734832 -0.23972929 -0.49448925 0.10540167 -0.40355727 -0.47131297 -0.31223673
-0.24155045 0.0965155 -0.07671655 -0.056558006 -0.28678644 -0.4170225 -0.5750374 0.044182774
-0.44962424 -0.33852708 -0.52095574 -0.3755957 -0.5326231 -0.04189204 0.37921175 -0.55432326
-0.46603912 -0.07153758 0.4292938 0.32759112 -0.64020514 -0.49799255 -0.32074738 -0.25662765
-0.5841159 0.02189876 -0.29313657 -0.21842176 -0.32539558 -0.54642034 -0.47466877 -0.068034045
-0.23019126 -4.2796913e-08 0.086313166 -0.60682136 -0.45576975 -0.29409674 -0.3062572 0.1464367
0.17266196 -0.12214245 -0.2857017 -0.1377863 -0.63151914 -0.16832007 -0.6390674 -0.39902934
-0.46000856 -0.44936413 -0.34696105 -0.6747915 -0.3581548 -0.6248804 -0.5686917 -0.13872847
-0.5120798 -0.5078376 -0.44155052 -0.2876276 -0.5550418 -0.020469168 -0.43206072 -0.45244202
0.14069162 -0.00020480732 -0.22490144 0.1746419 -0.15852681 -0.1532609 0.101364225 0.31152412
-0.4396736 -2.047796e-20 -0.00791965 -0.020661853 -0.27940196 -0.3972814 -0.092467956 -0.47641382
-0.4019472 0.18024549 -0.41245127 -0.2931008 -0.541672 0.020236539 -0.4123767 0.47243476
0.07919485 -0.38864702 -0.55096567 -0.5141152 -0.32584202 0.013988284 0.040490255 -0.026300736
-0.09706684 -0.4557555 -0.4180511 -0.40962082 0.09964769 -0.3788573 -0.42447633 0.19133683
-0.17652155 -0.21058199 -0.38041773 -0.0044804937 -0.29299 -0.27886698 0.10959266 0.18425278
00000000: f1bf 67be 6ee9 563d 4480 23bf 4df6 c1ba
00000010: 1cfa a6be 01aa 91be f45f f8be 4390 3a3e
00000020: 0a15 363e cbab 913d d7b5 a03d 6848 dfbd
00000030: 62d9 cfbe 50c3 783e 3581 f3be 3231 ebbe
00000040: e280 b6bb cb38 05bf 9777 13bf 056d abbe
00000050: 075e cebe c8f9 5ebd 6bfe dea4 b6e8 aa99
00000060: 8d36 02be 3b94 ebbe 953d b8be 9342 09bf
00000070: 4901 f2be 371f 12bf 6629 083e e873 b9bd
00000080: 1ce4 10bf 2b5e 38bf ee78 b4bc 8dfb 293d
00000090: c18c ee3d 7983 9a3e 2355 423e fcbe f3bc
000000a0: 4aa3 18bf 09c9 04bf 0ae1 d8be 75e3 0ebf
000000b0: 96af adbc c772 03bf e6ef acbe c056 2d3c
000000c0: 2dc8 3dbc e00c 1abe 6b4c 093e 1322 e1bd
000000d0: c517 a13d b749 d2be 1430 7abe 8cf9 f9be
000000e0: 0fc1 d53d e5dc 01be a9e0 dbbd ea8a f2be
000000f0: fbab 00bf 459d 16bf 4c55 a2be 3fdb 90bd
00000100: 7c58 05bf 4efc a43e 6cb2 f3be 155f a8be
00000110: 23b1 5fbe ec38 5bbe 60db f6be 37ab c7be
00000120: 446f b7be 669f 83be b8e1 bcbe 75e8 c0be
00000130: 9bab 9c3e cbbd 86be ffe6 0a9f 56eb d7be
00000140: 10d7 9ebb 66cd dabe 987b 75be b22d fdbe
00000150: d5dc d73d 0f9f cebe ef4f f1be 7edd 9fbe
00000160: 0059 77be eba9 c53d 911d 9dbd 5ea9 67bd
00000170: acd5 92be f983 d5be a735 13bf fff8 343d
00000180: 2635 e6be 6c53 adbe 5b5d 05bf 144e c0be
00000190: fd59 08bf fd96 2bbd 0b28 c23e 21e8 0dbf
000001a0: ae9c eebe 4b82 92bd 66cc db3e 06ba a73e
000001b0: 7ce4 23bf e1f8 febe 0039 a4be b364 83be
000001c0: 9f88 15bf 0765 b33c ff15 96be f4a9 5fbe
000001d0: 409a a6be 34e2 0bbf c907 f3be 6f55 8bbd
000001e0: 42b7 6bbe b4cf 37b3 f5c4 b03d a558 1bbf
000001f0: a75a e9be d993 96be becd 9cbe 81f3 153e
00000200: 4cce 303e d225 fabd 7e47 92be da17 0dbe
00000210: 3dab 21bf 195c 2cbe ec99 23bf 934d ccbe
00000220: 3e86 ebbe 0e13 e6be e1a4 b1be 23bf 2cbf
00000230: 1160 b7be 29f8 1fbf c795 11bf d60e 0ebe
00000240: a917 03bf a501 02bf e912 e2be ed43 93be
00000250: 3817 0ebf f5ae a7bc 1037 ddbe 7ba6 e7be
00000260: 7711 103e 8cc1 56b9 904c 66be 54d5 323e
00000270: da54 22be 6df0 1cbe 0c98 cf3d 1780 9f3e
00000280: e61c e1be ab68 c19e 6bc1 01bc 0c43 a9bc
00000290: c60d 8fbe 7868 cbbe d75f bdbd 83ec f3be
000002a0: 06cc cdbe 4692 383e d02c d3be 4f11 96be
000002b0: 04ab 0abf 19c7 a53c 0a23 d3be f8e2 f13e
000002c0: e930 a23d befc c6be 160c 0dbf 0e9d 03bf
000002d0: c4d4 a6be 1e2f 653c 1cd9 253d a474 d7bc
000002e0: fbca c6bd c958 e9be cb0a d6be d2b9 d1be
000002f0: 1714 cc3d 96f9 c1be f654 d9be cded 433e
00000300: 11c2 34be cea2 57be 1dc6 c2be 1bd1 92bb
00000310: c902 96be a7c7 8ebe 1e72 e03d c3ac 3c3e

running_mean f4 [200]
2.6003413 -9.766608 -0.70149255 4.380042e-38 0.07884592 -1.784749 -0.44435018 -6.269067
-6.7839074 -0.45931894 -5.583631 -0.00035031943 -7.640671 -4.6194477 -0.62928504 -0.57186776
-4.889776e-38 0.41166514 3.713125 -0.58665943 -1.6738088 -0.17502865 3.2299363e-38 -9.3734003e-38
-0.19073504 -0.9924652 -3.6474707 -1.9344865 -0.15229353 -5.5009494 1.3778827 -0.09542817
-1.8010873 -1.5282832 4.857228e-38 3.859453 -11.6584425 3.7644122 3.4264617 0.28158817
0.17155512 1.6455156 -2.208279 -2.6866448 -2.0088992e-38 13.687615 -3.3410888 -12.000788
7.6449425e-15 3.073205 -2.8607647 -0.107965164 5.198522 -5.2252107 -6.1078086 2.8528957
6.7947087 -0.14341716 -0.11862978 0.08283867 -0.5026208 2.7083776 1.704495 0.122159556
0.6912816 6.678346 -2.2743702 -0.5065032 0.3440739 -4.3606577 11.539093 6.195478
-0.049638227 -0.020311728 -0.54477996 -4.011526 2.4623244 -8.712947 -7.367621e-38 -1.0797468
1.6058314e-11 13.918919 10.678095 -3.7266538 7.070301 0.088865206 -1.5866265 2.1645188
-5.580224 -0.9364432 -0.015791548 -2.4418635 0.18941575 -2.5791497 -5.6004815 3.032774
-5.2074466 -5.74177 0.19742845 -0.8071215 -0.8729753 -8.246151 -3.56323 2.326937
0.6397657 -1.5925453 -2.2260928 -0.91040003 -1.8641429 -5.947504 0.6321658 -2.7122035
2.262946 -4.3939166 -9.640024 -8.65532 6.0102835 -1.5300823 0.76079154 3.762679
-4.8234663 -9.342143e-39 -1.5964954 2.013562 -0.21268311 -8.670776 -9.400472 5.2674685
-14.432111 -7.1305733 -4.936422 1.3148791 -0.1992634 3.2232301 0.90618014 0.537245
-1.700379 1.0159932 -3.5593781 -4.796679 0.22959124 1.3355968 0.4523679 5.2672887
-2.356073 -1.3533362 -0.5885617 -1.5500795 -0.26543954 0.04219001 -1.1690494 2.5593219
8.870348 -1.4495962e-37 -6.45256 -1.4625348 -5.6156125 4.110643 -9.887103 -4.3150964
-3.891218 6.1720073e-38 3.8039575e-38 -6.646579e-39 -4.3400784 -0.34475154 -2.456422 0.90009093
-1.3131703 -9.837389 5.873468 -1.0024704 -1.7030786 -3.8747897 0.20216216 -10.564398
-1.4137166 -0.6735072 3.7046428 -4.2270765 -4.4295187 -9.29529 0.36489087 0.13782245
-1.4872229 0.26829088 -0.47963443 -7.689234 2.9494114 -2.5877452 -0.1968455 1.1869912
1.9829291 -6.6457334 -0.15827563 -1.9572635e-08 3.4617858 -3.142235 -4.8749695 3.4331121
00000000: fe6b 2640 0744 1cc1 0495 33bf e078 6e01
00000010: f879 a13d a872 e4bf de81 e3be 329c c8c0
00000020: c515 d9c0 da2b ebbe 1bad b2c0 14ab b7b9
00000030: 6080 f4c0 84d2 93c0 d318 21bf ed65 12bf
00000040: c41c 8581 c6c5 d23e d7a3 6d40 502f 16bf
00000050: 5e3f d6bf b63a 33be beda 2f01 112b ff81
00000060: 0c50 43be 3312 7ebf 2970 69c0 419d f7bf
00000070: d6f2 1bbe c707 b0c0 765e b03f d86f c3bd
00000080: 078a e6bf c99e c3bf f039 8401 4701 7740
00000090: fb88 3ac1 21ec 7040 264b 5b40 532c 903e
000000a0: 25ac 2f3e 41a0 d23f 7154 0dc0 fdf1 2bc0
000000b0: f0bf da80 7900 5b41 66d4 55c0 3a03 40c1
000000c0: 13b8 0928 64af 4440 c516 37c0 d71c ddbd
000000d0: 4b5a a640 ed34 a7c0 2b73 c3c0 d895 3640
000000e0: 416e d940 f3db 12be 2cf4 f2bd 52a7 a93d
000000f0: c2ab 00bf 0f56 2d40 e42c da3f ca2e fa3d
00000100: d5f7 303f 03b5 d540 488f 11c0 32aa 01bf
00000110: 742a b03e 828a 8bc0 20a0 3841 5b41 c640
00000120: 7451 4bbd c864 a6bc b376 0bbf 6c5e 80c0
00000130: b996 1d40 3b68 0bc1 d390 c881 2535 8abf
00000140: 1c40 8d2d e4b3 5e41 7ad9 2a41 7f81 6ec0
00000150: e83f e240 f6fe b53d 9416 cbbf 7a87 0a40
00000160: 3291 b2c0 beba 6fbf 475d 81bc 7e47 1cc0
00000170: 34f6 413e ca10 25c0 2537 b3c0 f818 4240
00000180: 67a3 a6c0 94bc b7c0 af2a 4a3e 849f 4ebf
00000190: 4f7b 5fbf 3cf0 03c1 f60b 64c0 89ec 1440
000001a0: afc7 233f 86d8 cbbf 4e78 0ec0 fa0f 69bf
000001b0: 3c9c eebf f451 bec0 9ed5 213f be94 2dc0
000001c0: 1bd4 1040 f79a 8cc0 8a3d 1ac1 317c 0ac1
000001d0: 3e54 c040 bdd9 c3bf 3cc3 423f bccf 7040
000001e0: d659 9ac0 18ba 6580 f659 ccbf 33de 0040
000001f0: 9ac9 59be 80bb 0ac1 5568 16c1 1a8f a840
00000200: ede9 66c1 a82d e4c0 2bf7 9dc0 f54d a83f
00000210: b40b 4cbe 6749 4e40 6cfb 673f e388 093f
00000220: 05a6 d9bf 110c 823f dacc 63c0 657e 99c0
00000230: f719 6b3e d6f4 aa3f c49c e73e a18d a840
00000240: e6c9 16c0 1f3a adbf fbab 16bf 0169 c6bf
00000250: b1e7 87be 6fcf 2c3d 69a3 95bf eecb 2340
00000260: f2ec 0d41 0e4f 4582 5f7b cec0 5734 bbbf
00000270: 19b3 b3c0 638a 8340 9331 1ec1 4515 8ac0
00000280: b709 79c0 9d04 a801 6e1b 4f01 f55f 4880
00000290: ece1 8ac0 4683 b0be 0536 1dc0 5c6c 663f
000002a0: f715 a8bf f265 1dc1 73f3 bb40 f350 80bf
000002b0: 7bfe d9bf 8efc 77c0 9903 4f3e c607 29c1
000002c0: aaf4 b4bf f86a 2cbf de18 6d40 3644 87c0
000002d0: 9ebe 8dc0 82b9 14c1 fad2 ba3e 5421 0d3e
000002e0: 525d bebf 6c5d 893e a592 f5be 340e f6c0
000002f0: 28c3 3c40 9e9d 25c0 de91 49be 54ef 973f
00000300: 9fd0 fd3f d9a9 d4c0 0213 22be ae20 a8b2
00000310: e68d 5d40 611a 49c0 c0ff 9bc0 1cb8 5b40

running_var f4 [200]
82.140495 38.83872 6.858676 6e-45 2.737219 133.42018 24.8788 111.85274
54.64013 142.23715 124.848 1.9876654e-06 110.05173 166.5968 6.996393 36.897835
6e-45 2.1670277 19.586264 91.842804 64.28755 127.74152 6e-45 6e-45
91.69949 20.393288 95.629295 52.524628 2.3009236 51.810307 57.534878 0.029017536
52.33482 78.11524 6e-45 38.694283 208.18896 131.93852 76.638535 0.7533116
25.008074 4.923258 66.64974 34.25121 6e-45 33.368767 81.755 65.42191
1.330462e-28 36.105972 70.54497 0.010859517 36.255398 112.43038 113.08141 50.707443
125.56972 86.87077 169.72449 19.55828 24.02832 67.35311 17.060955 69.789024
27.383884 115.44244 168.77711 3.8179088 1.5696753 144.53795 31.619188 195.64761
6.6323442 1.2483507 7.256635 49.513542 134.36891 208.01503 6e-45 59.58839
5.1912914e-22 87.99098 238.71954 135.33922 59.67095 3.2919514 28.21591 39.06093
43.564938 51.355743 0.00012510465 79.347496 0.5634093 20.127274 57.237045 136.11885
55.333534 270.8036 1.019046 17.654493 39.566414 161.58458 78.889084 60.831524
23.946735 30.86106 136.36484 124.27385 21.549171 135.66982 27.67951 136.72462
113.659225 119.48611 188.16763 270.8342 213.12045 83.90114 8.365178 68.2991
58.365013 6e-45 115.58822 33.74898 22.309826 269.48407 64.228386 99.312805
434.88083 197.77048 76.04868 30.3281 14.863574 161.82686 56.932682 63.604496
57.75108 33.318913 52.8491 134.59708 3.6986587 36.276794 2.1301038 123.84807
52.509373 59.86101 15.5883665 89.85297 99.15424 0.010898345 63.86642 61.031082
48.04065 6e-45 206.61298 113.38935 208.39532 184.47977 193.93556 117.18894
68.45181 6e-45 6e-45 6e-45 145.45578 2.0232012 174.70973 6.532572
26.205559 83.62786 132.49551 2.4180682 24.825052 95.12706 11.360439 187.39081
67.7781 3.3638284 102.27152 70.41195 82.64976 218.62956 80.02796 0.019080738
68.63197 20.631622 6.2575684 150.78694 84.80927 13.703129 3.5275767 105.77873
19.017977 229.76198 1.3795964 5.412418e-16 143.11465 77.33619 110.04465 94.45301
00000000: ef47 a442 d95a 1b42 467a db40 0400 0000
00000010: 992e 2f40 916b 0543 c807 c741 9ab4 df42
00000020: 7e8f 5a42 b63c 0e43 2db2 f942 d563 0536
00000030: 7c1a dc42 c898 2643 74e2 df40 6297 1342
00000040: 0400 0000 95b0 0a40 abb0 9c41 84af b742
00000050: 3a93 8042 a97b ff42 0400 0000 0400 0000
00000060: 2466 b742 7425 a341 3342 bf42 3819 5242
00000070: 5542 1340 c13d 4f42 b723 6642 2fb6 ed3c
00000080: db56 5142 013b 9c42 0400 0000 f2c6 1a42
00000090: 6030 5043 43f0 0343 ee46 9942 07d9 403f
000000a0: 8910 c841 548b 9d40 ab4c 8542 3d01 0942
000000b0: 0400 0000 9e79 0542 8f82 a342 05d8 8242
000000c0: f6a7 2811 846c 1042 0617 8d42 1eec 313c
000000d0: 8705 1142 5bdc e042 af29 e242 6cd4 4a42
000000e0: b223 fb42 d6bd ad42 78b9 2943 5c77 9c41
000000f0: 003a c041 cbb4 8642 d67c 8841 fb93 8b42
00000100: 3212 db41 87e2 e642 f1c6 2843 9e58 7440
00000110: 1feb c83f b789 1043 19f4 fc41 caa5 4343
00000120: 2a3c d440 f5c9 9f3f 5b36 e840 de0d 4642
00000130: 715e 0643 d903 5043 0400 0000 835a 6e42
00000140: ace5 1c1c 62fb af42 34b8 6e43 d756 0743
00000150: 0eaf 6e42 55af 5240 2fba e141 643e 1c42
00000160: 7f42 2e42 486c 4d42 862e 0339 ebb1 9e42
00000170: 983b 103f a804 a141 bcf2 6442 6d1e 0843
00000180: 8a55 5d42 dc66 8743 1970 823f 673c 8d41
00000190: 0244 1e42 a795 2143 36c7 9d42 7b53 7342
000001a0: ea92 bf41 73e3 f641 665d 0843 368c f842
000001b0: b464 ac41 79ab 0743 a36f dd41 81b9 0843
000001c0: 8651 e342 e3f8 ee42 ea2a 3c43 c76a 8743
000001d0: d61e 5543 62cd a742 c5d7 0541 2499 8842
000001e0: c675 6942 0400 0000 2b2d e742 f5fe 0642
000001f0: 867a b241 f6bd 8643 ef74 8042 28a0 c642
00000200: bf70 d943 3ec5 4543 ed18 9842 f39f f241
00000210: 33d1 6d41 add3 2143 11bb 6342 016b 7e42
00000220: 1b01 6742 9146 0542 7a65 5342 da98 0643
00000230: d3b6 6c40 701b 1142 9f53 0840 36b2 f742
00000240: 9909 5242 ad71 6f42 f369 7941 b8b4 b342
00000250: f94e c642 f98e 323c 3777 7f42 d41f 7442
00000260: a029 4042 0400 0000 ec9c 4e43 59c7 e242
00000270: 3465 5043 d27a 3843 81ef 4143 bd60 ea42
00000280: 54e7 8842 0400 0000 0400 0000 0400 0000
00000290: ae74 1143 217c 0140 b1b5 2e43 d40a d140
000002a0: fca4 d141 7741 a742 da7e 0443 a1c1 1a40
000002b0: b599 c641 0e41 be42 5cc4 3541 0c64 3b43
000002c0: 638e 8742 f748 5740 058b cc42 ebd2 8c42
000002d0: ad4c a542 2ba1 5a43 510e a042 354f 9c3c
000002e0: 9243 8942 900d a541 003e c840 75c9 1643
000002f0: 599e a942 0440 5b41 d1c3 6140 b68e d342
00000300: d124 9841 11c3 6543 9d96 b03f 9900 1c26
00000310: 5a1d 0f43 21ac 9a42 dc16 dc42 f1e7 bc42

weight f4 [4, 200]
0.068595774 0.03079083 -0.018712472 0.0002549766 0.004881309 0.09563579 0.13306235 0.05983572
0.101985954 -0.045624897 0.006654005 -0.0027278422 -0.20083392 -0.16478436 -0.030111128 0.15568204
3.1335625e-11 0.025987752 -0.0054882052 -0.1255687 0.062723346 0.1182152 1.857217e-11 -4.4818676e-38
0.06304673 0.34567612 -0.16789114 -0.016284117 -0.00028614805 -0.08676215 0.06721243 -0.011301802
-0.13807578 -0.0961535 -0.00033109164 -0.077726044 -0.06641611 0.026433753 -0.14468817 0.012787392
-0.063174844 0.01052528 -0.032839105 -0.07429158 -1.4e-41 -0.09179572 0.060278416 0.10063744
-0.00025032889 -0.08652493 0.09714351 0.005389132 -0.118408166 -0.13818909 -0.07621897 -0.054464336
-0.10119296 -0.188415 -0.022231089 0.037123553 -0.19343653 -0.33873326 0.03933014 0.030846016
-0.008285884 0.01098144 -0.081170976 -0.0009863894 0.03508413 -0.10996127 -0.07171476 0.13159123
0.04134772 -0.0028755562 0.030043539 -0.2593035 -0.04260511 0.11722068 -4.448589e-39 0.2601315
0.0022197152 -0.060106825 -0.1323894 0.12439798 -0.15658543 0.017156042 0.08738807 0.06897087
-0.03329987 0.008762616 0.00075155165 0.075212546 0.0023036492 -0.17323956 -0.25067687 0.090005234
-0.24430574 -0.0999765 0.0038880683 0.13415204 0.109861985 0.037143935 0.21926899 -0.019189708
0.029703958 0.066445135 -0.17493095 -0.015657077 0.22067326 -0.09294667 -0.030005403 -0.040748622
0.07447459 0.044696715 0.06855566 0.20426516 -0.14053462 -0.028008675 -0.01664768 0.078989215
0.11838571 -4.7380063e-31 -0.001854912 -0.029496113 -0.14637996 0.20201087 -0.076289944 0.12881903
0.07881101 0.118874274 -0.103791095 0.13695675 -0.014075753 0.09816571 -0.004962979 -0.10136075
-0.12727645 0.019780444 -0.0816667 0.23578736 0.000121852914 -0.022738133 -0.01681928 -0.013630483
-0.033157896 0.29088137 0.021696001 -0.060776018 -0.38213858 0.0013500648 -0.43005866 -0.0248841
0.121584766 -6.582277e-16 0.14503011 0.11117929 0.12125692 0.122466065 -0.08515572 0.15986212
-0.1510938 -7.01357e-39 0.0265142 -0.038135905 0.11015076 0.0069763963 0.05593481 -0.0025483193
0.029124217 -0.048066273 -0.047527615 -0.0052667893 0.0040281084 0.011066886 -0.037372842 -0.007804855
-0.15240932 0.03503492 -0.061103668 -0.14068873 -0.13821054 -0.11164699 -0.14600618 -0.0012749988
0.04185909 0.021845577 -0.0032120731 -0.1217254 -0.018022696 -0.011813552 0.022186698 0.09414968
-0.0034728223 0.24834073 -0.006915741 0.003351832 0.085535325 -0.07217527 0.087565094 0.012038372
-0.014756164 0.006207596 -0.007341465 0.00013907146 0.008949303 -0.030738879 0.0020876094 -0.16676506
-0.025152607 0.36673903 0.055577185 0.009088512 -0.12684655 0.017883798 0.0037204677 -0.0199381
5.041766e-07 0.00784657 -0.092826255 -0.17903945 -0.049899913 -0.029823849 -2.086e-39 3.1282763e-38
-0.0015640563 -0.058048178 0.019530125 0.0016706734 0.019598432 -0.24250357 -0.060084622 0.021181235
0.39881137 -0.010370783 0.018533332 0.06007159 0.00289437 0.042207655 0.050464045 -0.0038710104
-0.03052975 0.006944413 -0.14064687 0.09415559 6.34194e-39 0.012865846 0.011069853 -0.007703137
6.9210764e-05 0.053194974 0.00026301577 -0.0021806457 -0.00042653966 0.29010534 0.009663748 -0.086457744
00000000: f17b 8c3d 0d3d fc3c e64a 99bc 61ae 8539
00000010: 63f3 9f3b b2dc c33d 7f41 083e 4d16 753d
00000020: 03de d03d 2ce1 3abd d709 da3b 99c5 32bb
00000030: 68a7 4dbe 3bbd 28be 9dab f6bc 1d6b 1f3e
00000040: c7d0 092e 44e4 d43c 67d6 b3bb 1595 00be
00000050: 1975 803d d01a f23d cf5c a32d 1e04 7481
00000060: a51e 813d 76fc b03e a8eb 2bbe 4566 85bc
00000070: 2406 96b9 5bb0 b1bd aca6 893d 312b 39bc
00000080: bd63 0dbe 20ec c4bd 5e96 adb9 d52e 9fbd
00000090: 2b05 88bd 998b d83c 2329 14be 3682 513c
000000a0: d061 81bd 3972 2c3c 4c82 06bd 2f26 98bd
000000b0: 0727 0080 65ff bbbd 80e6 763d 011b ce3d
000000c0: 933e 83b9 fc33 b1bd 2df3 c63d 5197 b03b
000000d0: fb7f f2bd 7181 0dbe b118 9cbd ff15 5fbd
000000e0: 413e cfbd ddef 40be f91d b6bc de0e 183d
000000f0: 3a14 46be 726e adbe a418 213d c9b0 fc3c
00000100: 84c1 07bc 7feb 333c f83c a6bd bc49 81ba
00000110: 60b4 0f3d 6033 e1bd 30df 92bd dabf 063e
00000120: 3a5c 293d d473 3cbb de1d f63c 6ec3 84be
00000130: b282 2ebd 6511 f03d db70 3080 f52f 853e
00000140: a478 113b 9332 76bd 1691 07be 5ec4 fe3d
00000150: ee57 20be d48a 8c3c 84f8 b23d 9940 8d3d
00000160: 7265 08bd 1391 0f3c c703 453a 0909 9a3d
00000170: d2f8 163b b665 31be b858 80be aa54 b83d
00000180: 492b 7abe 7bc0 ccbd f6ce 7e3b 275f 093e
00000190: 52ff e03d 3d24 183d 0d88 603e bc33 9dbc
000001a0: b755 f33c 6314 883d 1921 33be 4543 80bc
000001b0: 2cf8 613e d35a bebd e4cd f5bc 07e8 26bd
000001c0: 2286 983d e713 373d e966 8c3d e32a 513e
000001d0: 4fe8 0fbe 7372 e5bc b760 88bc 19c5 a13d
000001e0: 3574 f23d d1c1 198d 8520 f3ba d5a1 f1bc
000001f0: a1e4 15be f0db 4e3e e73d 9cbd 23e9 033e
00000200: ab67 a13d 5b74 f33d 6d90 d4bd 643e 0c3e
00000210: fd9d 66bc 1b0b c93d 7ca0 a2bb 3a96 cfbd
00000220: c254 02be 990a a23c df40 a7bd 3e72 713e
00000230: 498b ff38 5245 babc 96c8 89bc 6452 5fbc
00000240: 93d0 07bd 67ee 943e d0bb b13c 46f0 78bd
00000250: aba7 c3be a8f4 b03a a630 dcbe bdd9 cbbc
00000260: 6f01 f93d a2b8 3da6 c682 143e f8b1 e33d
00000270: 8c55 f83d 7dcf fa3d 1f66 aebd e5b2 233e
00000280: 55b8 1abe fb5e 4c80 4f34 d93c 6534 1cbd
00000290: b996 e13d 419a e43b e61b 653d b401 27bb
000002a0: e995 ee3c 24e1 44bd 51ac 42bd 0895 acbb
000002b0: 39fe 833b e251 353c 4414 19bd debf ffbb
000002c0: 3011 1cbe c780 0f3d d747 7abd b510 10be
000002d0: 1087 0dbe 2da7 e4bd a582 15be dc1d a7ba
000002e0: 7074 2b3d 7ff5 b23c a581 52bb 2b4b f9bd
000002f0: 55a4 93bc a18d 41bc e1c0 b53c 8cd1 c03d
00000300: 4a98 63bb 084d 7e3e 719d e2bb 69aa 5b3b
00000310: 252d af3d a1d0 93bd 5455 b33d 983c 453c
00000320: d6c3 71bc 1769 cb3b ac90 f0bb b6d3 1139
00000330: 19a0 123c 1ad0 fbbc 46d0 083b 76c4 2abe
00000340: d70c cebc 38c5 bb3e e7a4 633d fbe7 143c
00000350: 10e4 01be 0b81 923c 17d3 733b 3a55 a3bc
00000360: c156 0735 e68e 003c b11b bebd 1e56 37be
00000370: da63 4cbd 2551 f4bc ebb6 1680 cf51 2a01
00000380: 0501 cdba edc3 6dbd a4fd 9f3c 7ffa da3a
00000390: e48c a03c db52 78be 4b1b 76bd 4584 ad3c
000003a0: 0131 cc3e 37ea 29bc 37d3 973c a10d 763d
000003b0: 78af 3d3b efe1 2c3d 63b3 4e3d c7b0 7dbb
000003c0: 8719 fabc f58d e33b bc05 10be a5d4 c03d
000003d0: c00e 4500 45cb 523c 545e 353c 996a fcbb
000003e0: 3f25 9138 f9e2 593d 61e5 8939 2ae9 0ebb
000003f0: 2fa1 dfb9 b088 943e b254 1e3c c210 b1bd

bias f4 [4]
-0.023839986 0.3126723 -1.1352185 -0.8189564
00000000: 134c c3bc 9516 a03e d74e 91bf 20a7 51bf
