experiments/kidney_data/model_kidney.pth (torch, 818856 bytes, 27 tensors)

weight f4 [10, 1, 10]
00000000: d73c 2dbd 9860 513f c806 dcbc d55c 54be
00000010: 5038 9c3e 4d4e 04be 37f7 613d 31d4 e0bd
00000020: 3d1d 1c3e d683 683e 63c5 b13d 72b0 c5bd
00000030: 4d34 4dbc d809 873e 6425 073e 34b9 203d
00000040: 2675 f7be 57f1 973d 0849 85be 5107 2fbf
00000050: 248c f73d 1137 a33d be5b 8c3e 8cee cbbd
00000060: f294 ba3d 40bc 883d 15de 143e 4b13 2fbe
00000070: feee 3dbf 751a 5cbe 6c91 44bd 4a10 e73e
00000080: 49f4 2bbd dabb 20be 8539 39bd 9114 c5bd
00000090: ee14 3a3e 02a9 83be 6c5c 9abd 2c7f 05bf
000000a0: 23fa 13bd e814 9abe e451 013e 31fa 3dbe
000000b0: e6e7 85be ffc1 0fbe 68a3 6f3d 569e 4abe
000000c0: 4d13 b0be 1fdc bd3e 17dd 5a3d e975 cc3d
000000d0: dabe a53f 3622 bbbd 121c 2dbd 05bb 6f3d
000000e0: a143 f3bc 586f b6bd 7a3d 59be c8be dd3c
000000f0: ca26 e1bd 098c 183e 52d3 8cbd b7f4 773f
00000100: a921 133d 4ee9 303e 0a17 6abe 53f0 28be
00000110: 87da f73b 0528 12be 1f4a 9cbd 7717 44be
00000120: e43f 21be 35c7 f8bd ac9f f1bd 8f5c 2fbe
00000130: b952 93bd 2e0e 74be 9b2d b7be 89f8 10bf
00000140: 7770 1cbe bca7 aabe ed15 7abe 7e96 99be
00000150: a6c5 aebe 42c6 8bbe a15f fcbd 5cbd 90bd
00000160: 48d2 87be ee36 0bbe eb38 6c3d 2e3e 26bf
00000170: 0c21 d1be 45c4 3d3e 13ef 95be b30f 6a3e
00000180: 354f a63d 80dd a83d 6be3 4dbe 1952 bcbd
-0.04229435 0.81788015 -0.026858702 -0.20738538 0.30511713 -0.12920494 0.055167403 -0.10977972
0.15245529 0.22706541 0.08680227 -0.09652795 -0.0125246765 0.26374698 0.13197857 0.039239123
-0.48331565 0.07419079 -0.2603228 -0.6837054 0.120872766 0.079694875 0.27413744 -0.099576086
0.0911044 0.06676531 0.14537843 -0.17097203 -0.741928 -0.21494468 -0.047990248 0.45129615
-0.041981015 -0.1569666 -0.04522087 -0.09623063 0.18172047 -0.2571488 -0.07537159 -0.52147174
-0.03612722 -0.30094075 0.12628895 -0.18552472 -0.26153487 -0.14038847 0.058505446 -0.19786963
-0.34389725 0.37082002 0.053433504 0.09983427 1.2948868 -0.091373846 -0.042263098 0.058527965
-0.029695334 -0.08907956 -0.21214858 0.02706851 -0.109937266 0.14897169 -0.06876244 0.9685778
0.035920773 0.17276499 -0.22860351 -0.16497926 0.0075638923 -0.14273079 -0.07631325 -0.19149576
-0.15747029 -0.12147371 -0.11798033 -0.17125152 -0.071935125 -0.23833534 -0.35776982 -0.56629235
-0.15277277 -0.33331096 -0.24422427 -0.2999763 -0.3413517 -0.27299696 -0.12322927 -0.070673674
-0.2652762 -0.13595173 0.05767147 -0.6493863 -0.40845525 0.18531902 -0.29283962 0.22857551
0.08120576 0.08245373 -0.20106284 -0.091953464

bias f4 [10]
00000000: 1c5d f139 9496 e4b9 4345 1e3a b8d9 f73a
00000010: 780b 8dba 64d2 65b8 817c 0aba f511 5eba
00000020: fd23 94b9 6180 b639
0.00046036474 -0.00043599738 0.00060375425 0.001890949 -0.0010760864 -5.4793796e-05 -0.0005282835 -0.0008471304
-0.00028255573 0.00034809395

weight f4 [10]
00000000: 9fcf 203f f26d 5b3f 733b 723f b88e 4e3f
00000010: abf1 8d3f c4ca 843f 9d55 813f 16ee 883f
00000020: f734 9f3f 3022 813f
0.62816805 0.8571464 0.9462196 0.8068652 1.1089376 1.0374379 1.0104252 1.0697658
1.2438039 1.0088558

bias f4 [10]
00000000: 08ef b93d aff7 e23c 6337 0d3e 339a 6a3e
00000010: e82c dabe caac b2bc 8d33 103e ec56 a6be
00000020: 16ee 2abf b7e1 d93d
0.09078795 0.027705995 0.1379066 0.22910385 -0.42612386 -0.021810908 0.14082165 -0.3248819
-0.6676954 0.10638755

running_mean f4 [10]
00000000: 312e 833c ced8 73bc a3b2 ccbb c8c5 f9bb
00000010: 9c5a 78bc 106a a13c 23d4 e93b 3311 01bd
00000020: a9ae 0ebd 6078 85bc
0.016013237 -0.014883233 -0.006246881 -0.0076224543 -0.015158322 0.019703895 0.0071358844 -0.031510543
-0.034834538 -0.01629275

running_var f4 [10]
00000000: 77ca 683f eb81 643f ddd4 2b3f 013f 0d3f
00000010: 76aa 1b3f 656f d13f 51f0 6e3f dd78 c03f
00000020: a443 d43f 7242 5e3f
0.90933937 0.8926074 0.6712168 0.5517426 0.6080698 1.636212 0.93335444 1.5036885
1.6583142 0.8682014

weight f4 [10, 10, 9]
00000000: 19ab f3be 2461 73bc b2f8 ca3e 9c40 97bd
00000010: 5386 9d3d 949f 20bd 0b9d b3bd 7cfe 9fbe
00000020: b25a 84be 862b adbd 8fe5 b3bd 6bc0 803e
00000030: af1e 103d b51d 41be 5420 b6be 53ed 043f
00000040: 43b0 043f 9fdc c53d 17cc 9a3e 5b52 863d
00000050: 3412 873d b909 003e 215c 68bc 7efe 013e
00000060: 312d 873e 0ed4 033f e959 98bc e274 bd3e
00000070: 28f4 f6bd 1fc9 0a3f e446 623e d819 083e
00000080: b75d 44be da7a 5c3e 6594 24bd 795b 64be
00000090: f367 963e 2854 38be 48f4 7b3b 49a7 3dbe
000000a0: adec d33e ec77 193e c4f8 ecbd 98bf 483e
000000b0: 6d6a f8bd 5198 05bf 34bc 96bd 726f 903d
000000c0: 8fec fb3e 47be 6dbe ed68 913d c7cc 90be
000000d0: 128c adbe fc31 5ebe 5f70 8ebd bba9 c03e
000000e0: 0c1d 983e 2129 8ebd 3835 04be b9ae 0e3e
000000f0: 5a2d acbe c28e 9cbe 9d3d a7bd cab3 bfbd
00000100: 0cba 143e 9b6a 533e 4c6b 953e cea8 453e
00000110: 556b 09bf 92cf 933d 3bb1 573d 5a9c a5be
00000120: be01 22bd 07c4 c63d d425 083d 34d8 7e3e
00000130: fe93 963e 6935 d3bc 5b27 883e 3b41 163e
00000140: 96f8 f4bd f332 44bc 122d 83be e837 babd
00000150: dcbf a63e 10d3 453e 5593 18be e110 ed3e
00000160: 2fbe 643e 8886 89bd 71aa 823d 3650 92bd
00000170: eb38 e2bd 629c 8d3e 1332 8abd b65d 5a3c
00000180: 0201 ff3c 8b37 7e3d 7a31 89bd 2bc3 05bf
00000190: eb80 98bd 7d6c 43bd 1bc5 8f3e b4cc cfbd
000001a0: c465 8dbe 0010 acbe c1a6 583d d7d0 63bd
000001b0: 7984 55be 43fa 18be ea95 563c c8ca 7ebd
000001c0: 0a48 4ebd 06df 67bf ab43 053d 8d14 80bd
000001d0: 2bbf 013e 8beb 8bbb 47dd 863d cbed fbbe
000001e0: a840 c3bd c572 e8bc 21ee 19be 1cd8 3a3e
000001f0: 4fb6 05be e316 853d 969d a53e 1cae 7fbe
00000200: 0517 f9bd 33ad 87be aee9 383e 9f39 4ebd
00000210: e89c f1bc ad8a 68be 9952 12bd 0b68 f1be
00000220: ade4 323e 6a17 923c cb65 393d dcad 753e
00000230: 878a 5dbe 2da7 30bd e027 9abe d44d 4e3f
00000240: ecb4 1dbf 48d2 1dbe 7189 1e3d 7116 a6bc
00000250: 0a54 013e a06c b33d f4e5 91be 5314 433e
00000260: 1e9b a3be 4eaf 86bd 2029 88bd 3d30 cbbe
00000270: 2e64 613e e9f3 9cbd 3e1b 95bd b1e2 e83e
00000280: 5cf1 aa3e 7142 0fbe bc01 153e 808e 1cbe
00000290: acbe 94be 016b 68be 14ce 8ebd 1e1e 483e
000002a0: 7e8d 873e c0df ab38 3568 98be d9aa 0abe
000002b0: 22db 2bba 129c 1bbd e2d9 7c3e b0f9 e6be
000002c0: 329b adbc 2f01 433e d6f1 09bf 6166 8fbe
000002d0: 6e57 173c ad99 153e be80 1cbe 9d1c 823d
000002e0: cf3e 613d 3812 e3bd 29e3 8abe be86 96bd
000002f0: 3eee 83be b831 a8bd ecb8 dfbe af2c 02be
00000300: 86e8 b1bd 96e3 293e a375 8bbd fe34 11be
00000310: cf4a afbe 24ec 633e 5a32 18bd e5bc 52bd
00000320: 8fe5 a43e 0e78 4d3e ed70 7b3d e8ec 59be
00000330: 0426 6dbd bbc0 413e 7613 f5be b174 bdbe
00000340: 1895 ecbd e5a5 d4be a397 2cbe d26e 2fbe
00000350: dcfa 423d 50df 3ebd 0ce0 cf3c b21f 23be
00000360: 7663 02bf 59f2 c6bd cdac 02bf 6bf5 4a3c
00000370: 403d 37bf 6403 873d 2f0a 5bbe 534d aebd
00000380: 5856 d1be 66e8 893e 43de 8e3e 2719 943d
00000390: 6752 80bd 66dc 9dbd 3e7d 85be 88bc febd
000003a0: f097 8d3d 8f14 cfbe 37a4 5ebf 7609 d5be
000003b0: 4805 56bc 0c62 563c f15c ff3d 3bdd 5f3d
000003c0: e549 c53c 3bfb 1bbb e4d1 a9be e1b8 e0be
000003d0: dc68 85be 5c35 92bd 04f7 373d 54ac a2be
000003e0: 34fd 533b 6952 50bc 45e7 c93b 3bed 2c3e
000003f0: 8e31 d4bc 504c 77be c702 aabd 8eb4 4b3d
-0.47591475 -0.014854703 0.39642864 -0.0738537 0.07691636 -0.039214686 -0.08770188 -0.31248844
-0.25850445 -0.08455567 -0.08784019 0.25146803 0.035185512 -0.18858989 -0.3557154 0.5192463
0.51831454 0.09661221 0.30233833 0.06558677 0.06595269 0.12503709 -0.0141821215 0.12694737
0.26401666 0.51495445 -0.01859756 0.37003237 -0.12058288 0.54213136 0.22097355 0.13291109
-0.19176374 0.21531239 -0.040180583 -0.22300519 0.29376182 -0.18000853 0.0038445164 -0.18520845
0.41391507 0.14987153 -0.11570886 0.19604337 -0.12129674 -0.5218554 -0.07360116 0.070525065
0.49203917 -0.23217116 0.07100091 -0.28281233 -0.33895928 -0.21698755 -0.06955027 0.37629494
0.2970966 -0.069414385 -0.12910926 0.13933839 -0.3362835 -0.30577666 -0.08166049 -0.09360464
0.14524096 0.20646136 0.29183424 0.19302675 -0.536794 0.07217325 0.052659255 -0.3234585
-0.039552443 0.09705358 0.0332392 0.24887162 0.29409784 -0.025782304 0.26592526 0.14673321
-0.119614765 -0.011975038 -0.25620323 -0.090926945 0.32568252 0.19318795 -0.14899953 0.4630194
0.22338174 -0.06715113 0.06380165 -0.07144205 -0.110460125 0.27658373 -0.06747832 0.0133280065
0.03112841 0.06206469 -0.0669889 -0.5225093 -0.07446464 -0.047710884 0.28080067 -0.10146466
-0.27616704 -0.33605957 0.052893404 -0.055619087 -0.20851316 -0.14939217 0.013097266 -0.062205106
-0.05036167 -0.9057468 0.032535236 -0.0625392 0.12670581 -0.0042700223 0.06585174 -0.4920486
-0.095338166 -0.028375039 -0.15032245 0.18246502 -0.13057826 0.06498506 0.3234679 -0.24968761
-0.12162594 -0.26499328 0.18057892 -0.05034792 -0.029493764 -0.2270915 -0.035723303 -0.4714969
0.17470045 0.01783343 0.045263093 0.23992103 -0.21634875 -0.04312818 -0.30108547 0.80587506
-0.6160419 -0.15412247 0.038705293 -0.020274373 0.12629715 0.08760953 -0.28495753 0.19050722
-0.31954283 -0.065764055 -0.06648469 -0.3968524 0.22010872 -0.0766371 -0.07280587 0.45485452
0.33387268 -0.13990189 0.14551443 -0.15288734 -0.2905172 -0.22697069 -0.069729 0.19542739
0.26475137 8.195592e-05 -0.29767004 -0.13541736 -0.00065557857 -0.037990637 0.2469249 -0.4511237
-0.021192167 0.1904342 -0.5388464 -0.28007796 0.009237153 0.14609404 -0.15283486 0.06353114
0.05499154 -0.11087459 -0.27126434 -0.07349919 -0.25767702 -0.08212608 -0.43695772 -0.12712358
-0.086869285 0.16590723 -0.06809547 -0.14180371 -0.34236762 0.22258049 -0.037157394 -0.051449675
0.3220639 0.20065328 0.06138699 -0.21281779 -0.057897583 0.18921177 -0.4786641 -0.3700309
-0.11551875 -0.41532817 -0.1685472 -0.17132118 0.04760252 -0.046599686 0.025375389 -0.1593006
-0.50933015 -0.09714193 -0.51044923 0.012387614 -0.71577835 0.065924436 -0.21390603 -0.08510842
-0.40886188 0.26935118 0.27903947 0.0723136 -0.06265717 -0.07708053 -0.26072115 -0.12438303
0.069137454 -0.40445372 -0.8696932 -0.4160878 -0.013062783 0.0130849 0.12468899 0.05465434
0.024083087 -0.0023800868 -0.33167946 -0.4389105 -0.26056564 -0.07139084 0.044913307 -0.317721
0.0032346966 -0.012714961 0.0061616027 0.16887371 -0.025902536 -0.24150205 -0.08301311 0.049732737

bias f4 [10]
00000000: 0166 1cba 1bc5 ac38 1a6c 80b9 83fb 8cb9
00000010: cc42 9c38 f7b2 a039 3bd5 6db9 211b a63a
00000020: 2ff5 a339 aed9 18ba
-0.00059661275 8.238313e-05 -0.00024494604 -0.00026890272 7.4511016e-05 0.00030650917 -0.00022681516 0.001267288
0.0003127246 -0.00058307766

weight f4 [10]
00000000: 23a1 933f 2204 4c3f d74a 563f 0d19 503f
00000010: 1718 5b3f 04c8 693f f55f 423f ca13 953f
00000020: de24 b53f 812c 343f
1.153355 0.79693806 0.83707947 0.81288224 0.85583633 0.91320825 0.7592767 1.1646664
1.4151876 0.7038041

bias f4 [10]
00000000: ed28 04bf ae65 d83d fbc5 b53c 87bc 253e
00000010: bc93 883e f6be 903e 9861 253e c373 663e
00000020: e916 17bf 5c5b a23e
-0.5162495 0.10566269 0.022189131 0.16185199 0.26675212 0.28270692 0.1615051 0.22505097
-0.59019333 0.31710327

running_mean f4 [10]
00000000: 4bf1 923f 0f77 06c0 ef7f 57c0 772f b8bf
00000010: 4c80 523e e8e7 82c0 065a 82bf 291e 84c0
00000020: b1b0 b13f 5b1b ad3e
1.1479887 -2.1010168 -3.3671834 -1.4389485 0.20556754 -4.090809 -1.0183723 -4.1286817
1.3882047 0.33809933

running_var f4 [10]
00000000: 2e68 6e40 de8b 5a40 1694 4e40 fcf0 5a40
00000010: 2df7 0b40 f43e 2040 4e04 6640 e90b 3440
00000020: a700 ba40 6988 5840
3.7251086 3.4147868 3.2277884 3.4209585 2.1869614 2.5038424 3.5940127 2.813227
5.8125796 3.3833258

weight f4 [200, 490]
00000000: 5e2d cf3e 7ffb a43d 3442 5e3d 71b4 59bc
00000010: 5729 c93d 2c42 333e 082f fc3d e416 0c3e
00000020: 276d a83e 8cd0 ae3d fa7f a83d 5801 2c3e
00000030: 35e9 353e ed17 213e be71 343e f773 333e
00000040: 1c78 813d c4eb a33c d9de e13d a874 243e
00000050: bf9b e1bd 8f94 a03d 5fde 823c 3c33 3c3e
00000060: b6a0 233e b86c 693e 8b39 173e bbf0 603d
00000070: 7b3b 063d 506d 6f3d 72d4 0a3d ce5a 483e
00000080: 395a 50bb c04b 2f3e 3edc 9e3e 8fc0 2c3e
00000090: 4601 e53d 39b9 a13e 2a45 cabc bc8f b7bd
000000a0: 73e1 82bd 9c0e 80bd f4c7 383d ce49 cd3d
000000b0: c0b8 793c e804 a83d 7629 2c3d 0293 7dbc
000000c0: 9f1b b83d b5fe c6be 1bb6 3fbe 5d12 623d
000000d0: a953 4f3e 2ef5 44bd 3155 13be bbfb de3e
000000e0: 4072 3bbe 2588 e2bd bcad e1be 415b d43d
000000f0: 0113 08be c652 87be 14a0 3b3d d094 e5bd
00000100: b0b2 153e a5ab 783e 01d4 82ba 72b4 c9bd
00000110: 12cd 0cbe c7c2 b23b caa6 573d cb8a 87be
00000120: aaaa 2f3e d4be 41bd dc5e c93b 8cac 48bd
00000130: ce6e 83bd f4ef 85bd 37fa 79be ef14 a8bc
00000140: f1d3 8dbd 2799 dcbd 0744 39be de26 95bd
00000150: b430 82be 0e60 0bbd ade7 73bd 7752 a53c
00000160: dc55 94bd 3367 983c 072c 753d fb36 56be
00000170: e91f 473c 986c 09bc 52fb 113e 8cf6 8c3e
00000180: 3541 32bc 4e40 b53d f6da f3be c3ca 32be
00000190: 57cc f7bd 772a a3bd 4267 273d 992d e23d
000001a0: 82f0 6cbd 361f c53d 2b2d f9bd 986d 0fbe
000001b0: 7fe2 2c3e 793b 573d e419 813e e710 e93e
000001c0: bf42 cb3d ab4d 9cbe bc28 40be 8684 9c3d
000001d0: ed2a c03b 2c2b c63d aba1 373e 9d4c 223e
000001e0: 6fe9 413e 90f6 5a3d 2196 ee3d f2a4 133e
000001f0: 479c 73bc ee41 9e3d aaf0 663e 53c2 8b3d
00000200: 2bf7 4dbe a376 a83c bf1f a23e a200 e13d
00000210: 9cad 19bd 37c2 b2bd fc83 ba3e 6ee8 91bd
00000220: 663d 51be d4a1 69be 47d1 36bc 58e1 163e
00000230: 44ae 43be d552 a63d 7431 143e fe59 49bd
00000240: 20b2 e3bd aa49 813d 151e bb3e 028a 12bd
00000250: 08da 92be d8a2 02be cd63 f23c 9cd6 c4bc
00000260: 1264 a0bd 5268 ea3d 6473 bebd 59c3 ffbd
00000270: 745e 40be a952 5ebe 8964 423e 924f 2e3e
00000280: 41fd 8cbb c27a 973e d8ba 753e 7399 95bd
00000290: 9338 503e 2404 e5bc ab27 d13d 2543 9f3d
000002a0: 10a5 203e 1620 543e 6365 2b3e 6af3 35be
000002b0: 372f 4bbd d24c 693e 0ee4 423c 1829 5f3e
000002c0: 16a7 2a3d c6e7 62be c499 bcbd 8741 6d3e
000002d0: c393 2cbd 0037 aa3d 5465 e93c 1c27 63be
000002e0: 41e0 82be a82c fc3d f8f3 113e 7816 ea3d
000002f0: d980 80be 4ad4 83bc 71cf e73d fe7b c3bd
00000300: a322 b43d 0fda da3d 9f83 cc3d b420 d93e
00000310: cd4b e1bd 79f8 0d3e 3dbd 593e 49e8 a2be
00000320: 2bcf c0bd 4ada 47bd 8d5f 2abd 5018 c7bd
00000330: ace2 0fbe 9c2f 4fbd bba5 56bc f42a db3d
00000340: 2a2b 9a3d 026f 58be 4e77 55be 431c 34bd
00000350: 73af 15be 8e25 f8bd c928 99be 61d6 403e
00000360: 96d3 17bc a1bf 963d 5bf1 9dbe b99b 3abc
00000370: 8bcb c23d 332e 58bd d330 55bd 8d78 16bc
00000380: c0fa d4be 4d37 91be 5e39 43bd c871 7dbd
00000390: a1bc 1a3d 6f76 6dbc da87 1f3e e432 b63d
000003a0: d099 2ebe b180 93be 8610 00be 3a81 f23d
000003b0: c848 4fbd 9d8b c5be 6b53 3f3d a548 b53d
000003c0: 7f9e 8cbd 99d2 e33c 906a 1c3d 65b5 3e3e
000003d0: 4174 15be 72e5 a13d f4a2 93be 25f6 ccbd
000003e0: f981 c33d e09f b0bd 4089 b8be 87e3 63be
000003f0: 0b7c abbe 976c b43d 33de 9bbe 8b3b 8a3e
0.404643 0.080557816 0.054262355 -0.0132876495 0.09822338 0.17505711 0.12313658 0.13680607
0.32895777 0.08535871 0.082275346 0.16797388 0.17764743 0.15731783 0.17621514 0.17524706
0.06321737 0.020009883 0.11028833 0.16060126 -0.11016034 0.07840835 0.015975175 0.1837892
0.15979275 0.22795379 0.14768045 0.05491708 0.03277157 0.058453858 0.03389401 0.19565889
-0.0031792058 0.1711874 0.31027406 0.1687033 0.111818835 0.31586626 -0.024691183 -0.08962962
-0.06390657 -0.062527865 0.045112565 0.10023843 0.015241802 0.08204061 0.042031728 -0.015476944
0.08989643 -0.388662 -0.18721811 0.055193294 0.20246758 -0.048085384 -0.14387967 0.4355143
-0.18305302 -0.11061124 -0.4407786 0.10368968 -0.132885 -0.2643034 0.04580696 -0.11210024
0.14618945 0.24284227 -0.0009981395 -0.0984887 -0.13750103 0.005455348 0.052649297 -0.26473078
0.17154947 -0.04730113 0.0061453413 -0.04899268 -0.06417619 -0.06539908 -0.24411856 -0.020517794
-0.0692519 -0.10771399 -0.18092357 -0.07282804 -0.25427783 -0.03402715 -0.059547115 0.020180924
-0.07242939 0.018603897 0.05985644 -0.20919411 0.012153604 -0.008387707 0.14256027 0.2753185
-0.010879804 0.08850156 -0.4762799 -0.1746016 -0.120995216 -0.07967084 0.04086996 0.11043853
-0.057846554 0.09625094 -0.12166818 -0.1400665 0.16883276 0.052546952 0.25215065 0.45520708
0.0992484 -0.30528006 -0.18765539 0.07642464 0.005864492 0.09676203 0.17932765 0.15849538
0.18936704 0.053457797 0.116497286 0.1441839 -0.014868802 0.07727419 0.22552744 0.06824174
-0.20113818 0.020564383 0.31664845 0.10986449 -0.037519082 -0.0872845 0.3642882 -0.071244106
-0.20433578 -0.22815639 -0.011158294 0.147344 -0.19109446 0.08121268 0.1447199 -0.04915809
-0.11117959 0.063128784 0.36546388 -0.035776146 -0.2868197 -0.12757432 0.029588604 -0.024028115
-0.07831587 0.11445679 -0.09299353 -0.124884315 -0.18786031 -0.2171122 0.18983664 0.17022541
-0.004302651 0.29585844 0.23997056 -0.07304659 0.20334081 -0.027956076 0.10212644 0.07776479
0.15687966 0.20715365 0.16737895 -0.17768636 -0.049605574 0.22783211 0.011895193 0.2179302
0.04166325 -0.22158727 -0.09209016 0.23169528 -0.042133104 0.08311272 0.0284907 -0.22182888
-0.25561717 0.12313205 0.14253223 0.11430067 -0.25098303 -0.016092438 0.11318863 -0.09545134
0.08795669 0.106861226 0.09986042 0.42407763 -0.11000786 0.13864316 0.21263595 -0.31817845
-0.09414514 -0.04879216 -0.04159503 -0.09721434 -0.14051312 -0.050582513 -0.013101037 0.10701552
0.07527764 -0.21136096 -0.20846292 -0.043972265 -0.1461771 -0.12116538 -0.2991393 0.18831779
-0.009266755 0.07360769 -0.30848202 -0.011389666 0.09511479 -0.052778434 -0.052048516 -0.009184015
-0.41597557 -0.28362504 -0.04766213 -0.06187609 0.037777547 -0.014493569 0.15579167 0.08896425
-0.17050862 -0.2880912 -0.12506303 0.11841054 -0.05060652 -0.3858308 0.046710413 0.088517465
-0.06866168 0.027810382 0.038187563 0.18623884 -0.14595129 0.07905091 -0.2883526 -0.10007886
0.09546275 -0.08624244 -0.36042213 -0.22254764 -0.33493075 0.08809774 -0.30442962 0.26998553

bias f4 [200]
00000000: 30ff c436 586e 4829 724f 1ab7 6f81 f4b7
00000010: 3ce3 9837 ecbb 5682 6cbd b4b6 80a7 9937
00000020: 17ee 1539 8c9c ec37 8c01 4c39 2ead 09ad
00000030: 1878 41b8 b065 baa0 7c1a 0f37 c6ce 9b35
00000040: 7c3b 8cb9 8879 5e36 c8d7 7db7 b211 f936
00000050: 52df 9636 207b 3b37 0c9d ae36 2019 d480
00000060: e04d 4300 1044 6f00 7009 b980 5742 1882
00000070: e035 7538 b336 1e37 0ce9 5c37 8c3c b9b7
00000080: fcb1 1238 58db 2238 88b8 8038 e67f 2e38
00000090: 7977 0c82 5886 48b8 40d0 3ab9 10bc 37b6
000000a0: f81a e5b5 d50d c1b8 cce9 d501 50b9 3a80
000000b0: 8c0f 5237 6c9e 8e01 2b2f e1b8 ec77 b7b7
000000c0: a953 2f82 d257 0bb8 b8d3 bd81 28f6 5d80
000000d0: dbba e8b1 2549 0a82 0057 2101 3e1f 8838
000000e0: 3758 9938 76e8 8337 7e0a ce38 88a6 3836
000000f0: 3f8e d137 8ee7 0638 cef9 de37 9131 1839
00000100: 5e55 9c81 d75f 6137 0a18 2db8 0015 6a80
00000110: 079c 0038 b3af 80b8 a038 7701 d722 0238
00000120: f854 9780 d488 0036 c2a3 1fb7 f8d3 3f24
00000130: 450b 1182 6a52 08b8 aebc 2182 7f03 4d38
00000140: 59b7 0cb8 5afb ad35 6006 e3b6 ea42 80b9
00000150: 68f5 63b2 4056 93b6 ae74 4f38 f9aa be37
00000160: c089 9a01 9cf6 00b7 a8ba 6e02 c787 7c36
00000170: 4c49 1639 74a7 fd37 b08d 5eb5 82c1 0838
00000180: ca1d 0838 04a6 3481 7891 b600 143e 4537
00000190: 9497 7fb8 d90c 17b7 6846 5f39 1f30 1938
000001a0: 7875 1fb5 6a89 f001 ce64 6236 5028 7300
000001b0: 3ef9 d7b8 c029 7b00 b5f9 3b82 22a6 e138
000001c0: 000c 1e35 f602 7638 c93a 1482 2fe2 fc38
000001d0: fc33 2581 0dcf b038 c0c9 e901 ce40 d3b8
000001e0: ce83 f937 ba4d 4138 7061 a7b6 5071 b2b6
000001f0: ed8c 0835 402e bd00 deb3 b201 6af8 a837
00000200: 8756 4eb7 aff2 3402 dacc bd37 1c90 9136
00000210: 0cb7 c581 31e7 3337 9c12 f601 1672 0638
00000220: 9889 8c38 8c5c 0525 a0f2 1380 c4f8 39b7
00000230: 8caa de81 4228 8702 cc0e 8237 ae6c c335
00000240: b71f a7b7 4cb9 bdb7 bdb5 8db7 4a6f 1336
00000250: acf2 ae36 e352 1c38 c02e d681 26a9 ea81
00000260: 8c4f 7cb8 2618 7538 b274 2db8 1030 2680
00000270: 0421 bc81 20b1 fd80 e0f1 4eb4 00d4 b800
00000280: 61c4 0037 5c67 0d82 369d 9e37 b0ae 4236
00000290: 68d2 0037 6e4e 12b8 222a fcb8 1fe5 5b38
000002a0: 4fee 0ab7 a8e7 09b9 5252 1538 192f d8b6
000002b0: 258f 0cb8 f342 9538 4813 ea01 fde7 d0b7
000002c0: 8fe0 3e39 80b9 6681 f00a 2901 85b9 82b6
000002d0: dc48 2c01 0039 1182 d489 d336 5883 96b8
000002e0: 1a10 fab7 1737 6ab7 2c35 f036 625d 0e02
000002f0: 7851 3e01 ff34 11b5 e397 9238 fd48 6539
00000300: 3cc0 c5b6 644d 3c38 c43e 4081 c662 d9b7
00000310: ae13 2638 2347 84b7 209b 8d80 f03a 4a02
5.870963e-06 4.450463e-14 -9.197613e-06 -2.9147339e-05 1.8225626e-05 -1.5776168e-37 -5.3864696e-06 1.831702e-05
0.00014298443 2.820629e-05 0.00019455532 -7.826002e-12 -4.612663e-05 -3.1576917e-19 8.529631e-06 1.1608579e-06
-0.000267472 3.3151318e-06 -1.5130216e-05 7.4228383e-06 4.4963463e-06 1.1174736e-05 5.2038868e-06 -1.9478138e-38
6.180915e-39 1.0218156e-38 -1.6992952e-38 -1.1186235e-37 5.8462727e-05 9.4302695e-06 1.3167282e-05 -2.2081913e-05
3.4974873e-05 3.882809e-05 6.137887e-05 4.1603947e-05 -1.0319863e-37 -4.7808833e-05 -0.00017815921 -2.7378592e-06
-1.7069679e-06 -9.2055336e-05 7.8579325e-38 -5.392936e-39 1.2520595e-05 5.2389886e-38 -0.00010737622 -2.1871143e-05
-1.2880979e-37 -3.322197e-05 -6.9731437e-38 -8.629005e-39 -6.7733317e-09 -1.015963e-37 2.963345e-38 6.490805e-05
7.31204e-05 1.5724665e-05 9.8248e-05 2.751507e-06 2.498098e-05 3.216374e-05 2.6580787e-05 0.00014514315
-5.7427846e-38 1.34333595e-05 -4.1268802e-05 -9.742096e-39 3.066289e-05 -6.136242e-05 4.5407362e-38 3.1026862e-05
-1.3897641e-38 1.915313e-06 -9.515266e-06 4.1596068e-17 -1.0656152e-37 -3.250168e-05 -1.188256e-37 4.8879065e-05
-3.3549357e-05 1.2962657e-06 -6.7658693e-06 -0.00024463917 -1.3268938e-08 -4.390982e-06 4.9461312e-05 2.272938e-05
5.6768327e-38 -7.686813e-06 1.7539046e-37 3.762996e-06 0.0001433242 3.0237927e-05 -8.2907627e-07 3.2605145e-05
3.245267e-05 -3.317989e-38 1.6766245e-38 1.1756569e-05 -6.0937906e-05 -9.003293e-06 0.00021293166 3.652286e-05
-5.9403055e-07 8.8359256e-38 3.37353e-06 1.0575543e-38 -0.00010298424 1.1310743e-38 -1.3810253e-37 0.00010759781
5.887705e-07 5.8653728e-05 -1.0890193e-37 0.000120584264 -3.034301e-38 8.4309e-05 8.588018e-38 -0.00010073335
2.974449e-05 4.6087174e-05 -4.988331e-06 -5.3180047e-06 5.086902e-07 1.73735e-38 6.564497e-38 2.0142837e-05
-1.2298703e-05 1.3293958e-37 2.2625947e-05 4.3381133e-06 -7.262903e-38 1.072306e-05 9.039283e-38 3.205434e-05
6.701349e-05 1.1567267e-16 -1.831912e-39 -1.10847795e-05 -8.1794643e-38 1.9859574e-37 1.5504098e-05 1.4560262e-06
-1.992272e-05 -2.2616841e-05 -1.6893138e-05 2.1969486e-06 5.213855e-06 3.7270493e-05 -7.867827e-38 -8.620074e-38
-6.0155566e-05 5.8435042e-05 -4.1355095e-05 -3.50699e-39 -6.910767e-38 -2.3297921e-38 -1.9273239e-07 1.6973783e-38
7.675118e-06 -1.0388707e-37 1.8908275e-05 2.9009934e-06 7.678384e-06 -3.4882156e-05 -0.00012024144 5.2427054e-05
-8.2809265e-06 -0.00013151637 3.5601035e-05 -6.4427845e-06 -3.3511915e-05 7.117344e-05 8.598569e-38 -2.490356e-05
0.00018203467 -4.2377418e-38 3.1048245e-38 -3.895899e-06 3.1643685e-38 -1.0669276e-37 6.3043353e-06 -7.177022e-05
-2.980982e-05 -1.39603135e-05 7.1587474e-06 1.0459312e-37 3.495594e-38 -5.409383e-07 6.9901136e-05 0.00021866332
-5.8934365e-06 4.489477e-05 -3.5309863e-38 -2.591441e-05 3.9595812e-05 -1.5768752e-05 -1.3004453e-38 1.485753e-37

weight f4 [200]
00000000: 9550 f53e e561 853e 3116 b33e f5fa b43e
00000010: d76e b43e 3802 a1b8 4120 343f 4bd0 f73e
00000020: 9f6f 093f 6f31 273f 6b7d 533f 2a2e 843e
00000030: 1617 0f3f 5e74 c03d 7664 ab3e f3a9 de3e
00000040: a52b 7e3f c972 023f 70d8 283f 24be 213f
00000050: 7060 d03e e788 063f cf57 213f 6c2d e439
00000060: 0035 2600 a412 3fba 9dce bd31 aae4 58b7
00000070: 1a30 193f b81e fe3e 136c 5d3f 3589 1b3f
00000080: 656a 403f 14f0 1b3f 224d 1f3f 91f4 ce3e
00000090: 1e95 9eb8 aef5 e83e bf2b 1f3f fb77 663e
000000a0: 75f6 133f ff84 273f 46a1 a181 00a6 0702
000000b0: e2df 203f 1612 dc32 6070 1e3f 42d2 9c3e
000000c0: d685 80ba 4267 383f aa51 1e38 b858 0700
000000d0: eb6d 843e 1b76 aaab 009c 3d80 2ceb e13e
000000e0: aa4a f63e 88bb 063f c34e 793f 247b c33e
000000f0: 9bd7 0c3f 4af8 633f 2552 523e 897d 113f
00000100: 8c2e 163b c221 193f a33c 103f 001c c300
00000110: 35bb 023f 32f0 da3e f1c6 64b9 0596 1d3f
00000120: 4eee 293a 4435 013f f7b7 d23e d10a 4c3e
00000130: 3ec2 f53a a67c 143f b483 0eb6 11c0 b23e
00000140: faa9 113f 487e f63e 0866 fe3e d9f4 373f
00000150: e837 d33a 7b2c 953f 68f3 003f b715 463f
00000160: e061 4902 a966 0d3f eef4 d439 f273 9c3e
00000170: b321 293f 9fa5 843f 5184 e63e b139 213f
00000180: 442f 4c3f cefd a63e 4fe0 8ab8 1a85 cd3e
00000190: eb83 153f f8fe d43e 761b 213f 2827 313f
000001a0: a4a3 de3e 4009 cc38 55e6 aa3e 8615 3e3b
000001b0: c808 883f 445d 9ab9 9bb1 0ab9 70a2 183f
000001c0: 6f3c 223f bd80 c73e 0088 0339 01e1 473f
000001d0: 56f3 cd81 426f 2b3f c0d0 9781 7ce9 153f
000001e0: 53e0 313f 12b9 033f 666f 273f 2bb8 cc3d
000001f0: e881 bc3e 02e9 17af 584b 87ba 0ee6 2e3f
00000200: 544f 083f 35f8 0039 c28d 3c3f aa5c 363f
00000210: 3050 ae38 652a e23e 8ffd 3eba e619 a33e
00000220: 03f2 f13e 3059 253c 1134 2d39 8605 123f
00000230: bbf1 8335 c094 59b8 7d9b 063f 970a 693e
00000240: e62a 553e d556 2b3f cc7b e73e fc6b c83e
00000250: 6804 a03d 5891 e23e 40d2 2c02 c34a 5eb9
00000260: 2d96 393f 86ea d93e 1967 ab3e 9c98 10ba
00000270: 2020 88b9 63a6 17b9 caba 9f3e bbf2 3bb5
00000280: a7e2 bc3e 28e3 4980 7685 1b3f 5bc8 173f
00000290: 34d6 0d3f 582e 263f 6050 313f 47b1 4d3f
000002a0: bf26 153f 67dc 8c3f 0403 393f 1c16 cd3e
000002b0: 1429 a73e b16b fa3e 3e88 3738 61b2 f83e
000002c0: 4585 853f 401e d881 da89 203a b129 f23e
000002d0: 26a0 e33a 40e1 f301 df68 d03e aad5 493f
000002e0: 3916 783f 4937 f63e 6053 e73e 39ba 9137
000002f0: 9e1a 9439 7733 ce3e d6e2 233f 0c2c 5a3f
00000300: 0a0a 323f 1708 3b3f b272 3fba ea27 003f
00000310: 3370 8a3f b099 b53e beff bf2f c33b b0b8
0.47913042 0.2605125 0.34977868 0.35347715 0.35240814 -7.6774915e-05 0.70361716 0.48401102
0.53685945 0.65309805 0.8261325 0.2581647 0.558946 0.09397195 0.33475083 0.43489036
0.99285346 0.509564 0.6595526 0.63180757 0.40698576 0.52552646 0.6302461 0.0004352139
3.508762e-39 -0.00072888494 5.524113e-09 -1.2927843e-05 0.5983902 0.49632812 0.86493033 0.60756236
0.75162345 0.60913205 0.6222707 0.40420964 -7.561802e-05 0.4549994 0.62176126 0.22506706
0.5779794 0.6543731 -5.9373476e-38 9.965873e-38 0.6284162 2.5619595e-08 0.6189022 0.30629164
-0.0009805511 0.7203256 3.774619e-05 6.74675e-40 0.2586511 -1.2112007e-12 -5.657928e-39 0.44124734
0.4810384 0.526299 0.97385806 0.38179886 0.5501649 0.89050734 0.20539148 0.56832176
0.0022915928 0.59817135 0.56342524 1.7917966e-38 0.51066905 0.4276138 -0.00021817886 0.61557037
0.00064823485 0.504719 0.4115598 0.19926001 0.0018749905 0.580027 -2.123631e-06 0.3491216
0.5689999 0.4814322 0.4968722 0.7185798 0.0016114684 1.1654199 0.5037141 0.77376884
1.4795237e-37 0.5523477 0.00040618278 0.3055721 0.66067046 1.0363044 0.45022824 0.62978655
0.7975962 0.32615513 -6.6221335e-05 0.4014061 0.58404416 0.41600776 0.6293253 0.6920037
0.43484223 9.729201e-05 0.33378854 0.0029004528 1.062768 -0.00029442657 -0.00013226869 0.5962286
0.63373464 0.38965407 0.00012543797 0.78077704 -7.5654277e-38 0.6696664 -5.576818e-38 0.58559394
0.69482917 0.5145427 0.65404356 0.09996065 0.3681786 -1.3816151e-10 -0.0010322137 0.68319786
0.53246045 0.00012299496 0.73653805 0.71235144 8.311903e-05 0.4417297 -0.0007285708 0.31855696
0.47254953 0.010092065 0.00016517962 0.5703968 9.830613e-07 -5.1875366e-05 0.52581006 0.22757946
0.20817146 0.6692937 0.45211637 0.39144886 0.078133404 0.44251513 1.2696903e-37 -0.00021199421
0.72494775 0.4256174 0.33477095 -0.00055159046 -0.00025963876 -0.00014462466 0.31197196 -7.001615e-07
0.36891672 -6.78548e-39 0.6075052 0.59290093 0.55404973 0.64914465 0.6926327 0.8034863
0.58262247 1.1004761 0.72270226 0.4005593 0.32648528 0.48910287 4.3757485e-05 0.48573592
1.0431296 -7.9389275e-38 0.0006124057 0.47297433 0.0017366454 8.958732e-38 0.4070501 0.7884165
0.9690891 0.48089054 0.45180798 1.7372064e-05 0.0002824859 0.4027364 0.64018 0.8522346
0.6954657 0.7305922 -0.0007303163 0.50060904 1.081549 0.35468817 3.4924413e-10 -8.4034655e-05

bias f4 [200]
00000000: 5164 11bf b6f7 eebe 6c3b b6be 0b34 27bf
00000010: 42ee 27bf d5ac 46bb 5135 9dbe d8a5 8fbc
00000020: b88b d8be 5213 90be 9922 8fbe a46c f4be
00000030: 4e34 acbe 4eae 4bbe 5144 08bf ca90 0dbf
00000040: 9125 92be 9627 15bf f252 ebbe d456 6fbe
00000050: df4f d9be 1971 f4be 0afd b1be f7d2 12bb
00000060: a4e5 0eb3 3321 34bb 5944 90a9 edf6 bdb9
00000070: 05c5 d4bd 41c1 83bd 2445 cdbe 683e 9cbd
00000080: 8c6d c5be 273d c2be 3c20 6b3e 1470 dbbe
00000090: 0965 6aba a244 603d 3e97 bfbe bef7 19bf
000000a0: 1da1 9fbe e16e f5be 135e 199f aa26 8eab
000000b0: 926d e4be 5a5d 0ab3 5ce6 d5be 7893 20bf
000000c0: e70a 88ba d0f8 e9be 97dc 43ba 361b 85b9
000000d0: 8cc2 fbbe f280 56a8 b7ea 02af 252a 0cbf
000000e0: 5f37 6e3b 17c8 03bf 8cfb 203e bdca 13bf
000000f0: 0c51 04bf 89f8 72be 0e2d f33d 0d4f 58be
00000100: c400 13bd 38ad 04bf a198 773e d363 43aa
00000110: f41b 2abd 6550 883d f58f 36b7 53f6 a2be
00000120: 9488 ebba 32f3 023e e90c 02bf 840e 9ebe
00000130: fc7e 8ebb 77c7 483b 8d42 22b9 f738 c43d
00000140: ff8f 033d 1ee8 cfbe 38f5 67be 1c2b 26bf
00000150: a4c0 4fbd 55cf e43e cc3c ccbe 6582 f4be
00000160: 68d9 bfb6 982a 923e 32a4 ebbb c182 f9be
00000170: 4461 76be 6f01 ec3c b391 02bf 494c a53e
00000180: b57b 61be 213b bdbe ab56 8bba 6e63 e0be
00000190: e012 5abe 14ac c3be 74a5 05bf 2403 12bc
000001a0: e67d fdbe c8da 66b8 46ff d2be ef57 98bc
000001b0: 04f3 70be 7dc9 3cba 4556 26ba 0d2f 6f3e
000001c0: fed4 c5be dc21 12be 9c15 c1ba cd0a a3be
000001d0: 722d 0bb3 b768 01bf a1e7 0eb3 9e69 03be
000001e0: 8a08 4a3e f5cb 723d d189 f1be 3dfb cc3e
000001f0: 58a8 dcbe 4fd5 f8b6 9cbb 1dbb 2834 b13e
00000200: 24d1 42be 5c46 94ba 7161 29bf 3c1d 2b3e
00000210: cac6 19ba 0bbe ccbe 9fca 8bbb b604 f2be
00000220: d6d3 38bf 0009 0fbd 4386 b0ba 9d51 babc
00000230: 7c71 79b6 abbd 42ba 4504 2cbf cc88 13bf
00000240: 15fa 743e 0431 c7be 0297 12bf 7b00 0ebf
00000250: cc4d 253f 971c c2be 3975 92a7 ac77 82bb
00000260: d1e0 05bf f297 2fbf 526e febe d0a2 f0bb
00000270: 2694 e8ba 9547 94ba 17cb 2ebf c575 a6b5
00000280: b24a 8ebe 7db0 7c92 157c 703e df79 9fbe
00000290: 5090 d7be f4c9 d8be 9147 6c3d d9d4 183d
000002a0: 8856 4dbd b3d6 433e 6db6 d9bc 8c0d 2cbf
000002b0: 3b45 33be b34b 26bf 3719 03bb fd67 0ebf
000002c0: b07e 943d 69bd 03b8 d347 7dbb 8694 8b3c
000002d0: 393d bdbb 6189 b5b7 26b7 e0be 7a0e 00bf
000002e0: 845e 60bd 2ecd 1abf ce7d 69be ab48 3eba
000002f0: affd 9abb bcea c4be e0d3 22bf 9033 5b3e
00000300: 9e22 23be 9e15 1bbe fca2 2bbb da9d 0abf
00000310: 3bc9 9ebe e30d 3dbf b594 65a2 10ed dfba
-0.56793696 -0.46673363 -0.3559221 -0.65313786 -0.6559793 -0.0030315418 -0.3070474 -0.017535135
-0.42294097 -0.2813974 -0.27956083 -0.47739136 -0.33633655 -0.1989071 -0.5322924 -0.55299056
-0.28544286 -0.5826353 -0.4596172 -0.23372966 -0.4244375 -0.47742537 -0.34763366 -0.0022403577
-3.327081e-08 -0.0027485609 -6.406741e-14 -0.00036232863 -0.10389141 -0.06433345 -0.40091813 -0.076290905
-0.3856014 -0.3793728 0.22961515 -0.42858946 -0.0008941447 0.054752953 -0.37420076 -0.6014365
-0.31177607 -0.47936156 -3.2476827e-20 -1.0100438e-12 -0.44614846 -3.221553e-08 -0.41777313 -0.6272502
-0.0010379226 -0.4569764 -0.000747153 -0.0002538801 -0.49171865 -1.1907347e-14 -1.1906819e-10 -0.5475181
0.0036348922 -0.5147719 0.15720958 -0.5773123 -0.5168617 -0.23727621 0.11873828 -0.21123905
-0.035889402 -0.5182681 0.24179317 -1.7354113e-13 -0.041530564 0.06655959 -1.0881563e-05 -0.31828555
-0.0017969781 0.12788084 -0.5080095 -0.3087045 -0.004348634 0.0030636468 -0.00015474316 0.09581178
0.032119747 -0.4060678 -0.22652137 -0.6490953 -0.050720826 0.44689432 -0.39890134 -0.47755733
-5.717553e-06 0.2854812 -0.0071912045 -0.4873257 -0.24060541 0.028809277 -0.5100357 0.32284763
-0.22019847 -0.36959174 -0.0010630687 -0.4382586 -0.21296263 -0.38217223 -0.52205586 -0.008911882
-0.49510115 -5.504003e-05 -0.41210383 -0.018596618 -0.23530203 -0.0007201655 -0.00063452526 0.23357792
-0.38639063 -0.14270729 -0.0014731172 -0.31844178 -3.240479e-08 -0.5055041 -3.3272617e-08 -0.12833259
0.1972982 0.05927654 -0.47175458 0.4003543 -0.43097186 -7.4158083e-06 -0.0024068123 0.34610105
-0.19025093 -0.0011312473 -0.6616431 0.16710371 -0.00058661087 -0.3998874 -0.0042660977 -0.4726922
-0.72198236 -0.034920692 -0.0013467747 -0.022743994 -3.7169948e-06 -0.00074287754 -0.67194015 -0.5763061
0.23923524 -0.38904583 -0.5726167 -0.55469483 0.64571834 -0.37912437 -4.0650233e-15 -0.003981551
-0.5229617 -0.68591225 -0.49693543 -0.0073436275 -0.0017744347 -0.0011312837 -0.6827864 -1.2402239e-06
-0.27791363 -7.973472e-28 0.23484834 -0.31147668 -0.4210229 -0.42341578 0.05768544 0.037312362
-0.05013135 0.1912487 -0.026576245 -0.6720817 -0.17506878 -0.6495926 -0.0020004043 -0.55627424
0.07250726 -3.1409236e-05 -0.0038647547 0.017038595 -0.0057751206 -2.1640853e-05 -0.4388973 -0.5002209
-0.054777637 -0.6046933 -0.22801897 -0.0007258753 -0.0047299485 -0.38460338 -0.63604546 0.21406388
-0.15931174 -0.15144965 -0.0026189676 -0.5414711 -0.31012902 -0.73849314 -3.1114012e-18 -0.00170842

running_mean f4 [200]
00000000: 641f 2bc0 ff2e 92bf ef73 4cc0 27f2 2040
00000010: 717c 95bf d38a 3a01 c651 2ac0 c1b1 4e40
00000020: 3ced a4c0 aaf7 05c1 d205 05c1 b476 7a3d
00000030: c64a c43f 853a 84be 3ca1 5fbf 9b68 f9c0
00000040: aeec 0ec0 d518 39c1 40d2 0ac1 1892 23c1
00000050: c0db 5ac0 7fcd b23f fa87 86c0 cb1f 722e
00000060: 422a 1382 0038 7a00 34e2 a081 4225 c780
00000070: 135e 053f 1cea 9fc0 c73d 243f f63c 4ec1
00000080: 8da3 9bc0 6f12 89c0 e18f 2ec1 25d6 7bbf
00000090: 6c21 aa00 7513 12c1 6a98 22c1 74cb 463f
000000a0: 2780 02c1 455d 123e 341b a701 e45e 1d82
000000b0: d12b 49c0 c4d8 3701 6078 cabf 4031 7abf
000000c0: 26e1 7001 9213 3fc0 36b8 bf80 6912 3d00
000000d0: 0bfd 16c0 31f8 4e80 0e61 da01 7bfc fac0
000000e0: 6c3f 23be 20d8 33bf 7ed0 fd3f 633b 0c3f
000000f0: d204 043f ebca f13e 14da 78c1 fe06 e33e
00000100: 8404 123d 241b 8ec0 a56b 2bc1 64d0 7d81
00000110: 2e71 abc0 2f77 2641 0085 a180 2487 bec0
00000120: 8be3 d21f aa8f 1ac1 feae e640 73ef a2bd
00000130: 9391 6180 3ef7 2240 5394 3581 5857 8bc0
00000140: 7c13 f9c0 2616 c2bf d8ad 81be 0b60 b7c0
00000150: 825a 26bf e54c d13f 6672 5ac0 aa85 20bf
00000160: 0583 2502 10ca 0fc0 8945 2ab7 060a 39bf
00000170: 7337 a1c0 69e6 9c40 7a75 fb3e 8b19 d9c0
00000180: d09d 32c1 511f 63be 5dc4 4801 3044 02c0
00000190: 2405 8bc0 e87f 9abf 0845 03c1 b908 0941
000001a0: fc43 87bf 4687 979b df94 d2c0 0488 d3ba
000001b0: 8235 cdc0 562b aa01 f32e 6f08 a3ac 6dc0
000001c0: 2207 8fc0 fc80 09c1 01b7 2db0 a45d 01c1
000001d0: d8e4 2581 ee56 c440 de31 ec81 42ae d640
000001e0: 0a16 5e41 4278 6cc1 df7b 21be fc9a 3cc1
000001f0: daf0 c6bf 9c44 4780 8d1d 6981 ac0c 84c0
00000200: 9f71 18c0 fd9b 8415 e492 86c0 ae23 8d40
00000210: 68bc c400 917a 1140 7767 a6b3 46f2 4cc0
00000220: c4b3 fdc0 acc8 0abf bda9 6780 a64e 8ebf
00000230: e235 8381 3b12 118d 1355 67c0 0c26 94bf
00000240: a5bf 14c1 2650 d340 e016 35c0 5efa a0bd
00000250: 7c0c c2c0 ed4f 0fc1 23db 0582 5f45 4500
00000260: 9e20 14c1 2066 b8be f5df 3ec0 388d 8a3b
00000270: de57 8401 c83e 4f80 e8f0 d63f 8bbe 3100
00000280: 2866 a0bf 6aa4 bf00 ce71 bdc0 8968 37c0
00000290: ac8d 96c0 17dc 55be 4d11 2d40 345a e83e
000002a0: 62a4 403f 6ffa 1141 8388 9241 33bc d9c0
000002b0: e5b6 aebf 4586 00c1 f4c6 4ba1 a4b7 a840
000002c0: 79bb e640 3326 8d82 24e1 5caa a27f d1bf
000002d0: 7fca bd90 e248 ce81 ecdd 63c0 fe9c a2c0
000002e0: c257 3040 c693 5440 aa3f 9ec0 9837 6d01
000002f0: 340f 14a4 8e24 4ec0 131a a93e 15b8 7dbf
00000300: 83c8 d8c0 4d0f 2bc1 8d46 8a26 d02d 1d40
00000310: 82d9 f640 cfbb 8bbf ba56 a181 a5c1 ef00
-2.673791 -1.1420592 -3.194576 2.5147798 -1.1678602 3.4262406e-38 -2.661241 3.2295992
-5.1539593 -8.372965 -8.313921 0.06114836 1.5335319 -0.25825897 -0.873554 -7.794019
-2.2331958 -11.5685625 -8.676331 -10.223167 -3.4196625 1.3968962 -4.2040987 5.5052667e-11
-1.0811982e-37 1.122402e-38 -5.9099303e-38 -1.828863e-38 0.5209667 -4.997328 0.64156765 -12.889883
-4.8637147 -4.2835 -10.910127 -0.98373634 1.5624024e-38 -9.12975 -10.16221 0.77654195
-8.156287 0.14293392 6.1385146e-38 -1.1561771e-37 -3.1432993 3.3767313e-38 -1.5817986 -0.977314
4.4242574e-38 -2.9855695 -1.7606662e-38 5.60857e-39 -2.3591945 -7.252203e-39 8.021982e-38 -7.8433204
-0.15942162 -0.70251656 1.9829252 0.54778117 0.51569855 0.47225127 -15.553242 0.44341272
0.035648838 -4.440813 -10.71378 -4.6618274e-38 -5.357566 10.404098 -1.4833226e-38 -5.9539967
8.93149e-20 -9.660074 7.2088614 -0.079558276 -8.960265e-39 2.5463405 -3.3350867e-38 -4.354412
-7.7836285 -1.5163009 -0.25327945 -5.730474 -0.64981854 1.6351591 -3.4132323 -0.62703955
1.2159886e-37 -2.246708 -1.01489795e-05 -0.7228092 -5.0380187 4.9031262 0.49113065 -6.784368
-11.163528 -0.22179915 3.6875082e-38 -2.0354118 -4.3443775 -1.2070284 -8.204353 8.56463
-1.0567622 -2.5068273e-22 -6.5806727 -0.0016138558 -6.4127817 6.251032e-38 7.1976635e-34 -3.713662
-4.4696207 -8.59399 -6.31971e-10 -8.0853615 -3.04699e-38 6.1356115 -8.6764264e-38 6.7087717
13.880381 -14.77936 -0.1576991 -11.787838 -1.5542252 -6.544933e-39 -4.2816543e-38 -4.126547
-2.381935 5.356048e-26 -4.205431 4.4106054 1.8067345e-38 2.2731059 -7.7487975e-08 -3.2022872
-7.928194 -0.5421245 -9.519947e-39 -1.1117752 -4.819912e-38 -4.470352e-31 -3.6145675 -1.1574111
-9.296788 6.6035337 -2.8295212 -0.07860254 -6.064024 -8.957013 -9.834186e-38 6.361535e-39
-9.257963 -0.36015415 -2.9824193 0.0042282604 4.8615225e-38 -7.277526e-39 1.6792269 4.568293e-39
-1.2531176 1.759956e-38 -5.920142 -2.8657553 -4.704794 -0.20884739 2.704181 0.4538132
0.7525083 9.123641 18.316656 -6.8042235 -1.3649565 -8.032781 -6.904239e-19 5.272417
7.210385 -2.0740013e-37 -1.9618037e-13 -1.6367075 -7.485935e-29 -7.577703e-38 -3.56042 -5.081664
2.7553563 3.3215194 -4.9452715 4.3569912e-38 -3.2105262e-17 -3.2209811 0.33027706 -0.9910901
-6.7744765 -10.691236 9.594796e-16 2.4559212 7.7140512 -1.091669 -5.9266506e-38 2.201815e-38

running_var f4 [200]
00000000: 63a6 2342 0599 b841 7b7b 1142 87d7 bd41
00000010: e3fd 5042 0400 0000 1dc5 de42 b963 9642
00000020: 219b 0342 cccc 6c43 59d4 bd43 47bb 9a41
00000030: 40ac e742 30d4 0f3f fc51 a441 f0aa 6e42
00000040: 059d 8043 66ef 9042 c102 7742 d8f4 6e43
00000050: 5115 8142 d87b ae42 0191 0b43 47f3 7d1d
00000060: 0400 0000 0400 0000 0400 0000 0400 0000
00000070: 51c5 5f42 fb77 bd42 4c01 4e43 9519 7643
00000080: 2814 a442 8ad4 c142 854e 0343 fd74 c541
00000090: 0400 0000 9ef7 5b42 793e e641 1ebd 1f42
000000a0: ce41 4c43 0a62 7f42 0400 0000 0400 0000
000000b0: 0317 8042 0400 0000 5140 1d42 7d44 d241
000000c0: 0400 0000 ba82 5343 0400 0000 0400 0000
000000d0: e8e1 6541 0400 0000 0400 0000 8d2a 7142
000000e0: 8b2b 7b42 d713 ea42 000d df42 b0da 2e42
000000f0: 4633 c842 3533 4a43 e0c1 1142 33d4 5342
00000100: b174 843b 2e29 3e43 8ba4 6442 0400 0000
00000110: a41e 6342 c9c4 9142 0400 0000 47c6 a043
00000120: dcef 5900 fd5e 3842 bde6 3242 8f49 6e3f
00000130: 0400 0000 48ee 1b43 0400 0000 9b0c 9f43
00000140: 9b11 1d43 d3ab 4342 df86 6543 9724 5143
00000150: 5009 4040 e89b 6143 cf9b 5b42 c1e2 7643
00000160: 0400 0000 2494 3343 72ec 5932 4f4a aa41
00000170: 7dfb bb42 bf65 7043 6b4c e042 ffa5 8242
00000180: fc1c 8543 1793 933e 0400 0000 dbb4 4342
00000190: 9d42 0a43 658e 8d41 28a2 cb42 fd55 ab42
000001a0: 5154 4742 3f00 0000 0970 ca41 0791 9336
000001b0: fa45 4643 0400 0000 0400 0000 21c8 c442
000001c0: 3837 7e42 1c4b 2142 c933 db20 c193 b343
000001d0: 0400 0000 9ca8 c642 0400 0000 4d18 6042
000001e0: b0fd a742 3ef2 8342 d031 8342 7ece 3343
000001f0: 646b 0342 0400 0000 0400 0000 f720 8043
00000200: d0a8 8e42 0400 0000 44f3 6742 47fd 5a43
00000210: 0400 0000 21a8 4342 ee6a 4e28 4957 e241
00000220: f042 a542 8050 8740 0400 0000 ae67 ad42
00000230: 0400 0000 0400 0000 bb5e 2242 fefe 1b41
00000240: 7940 9342 6628 0a43 9696 1642 dbe7 0642
00000250: d82b 8c43 8472 3142 0400 0000 0400 0000
00000260: d201 9d42 ee5d 6c42 db61 3142 ff58 f137
00000270: 0400 0000 0400 0000 bc69 e541 0400 0000
00000280: d1bf 5e42 0400 0000 e40d d943 3b43 af42
00000290: b9b3 9042 10b1 8d42 8dc7 3143 139d 8843
000002a0: 9795 c042 bec6 2f43 746d 7142 db3e e141
000002b0: d82c 3342 aa92 0d42 1a1e a103 556c 0843
000002c0: 342f 0d43 0400 0000 3ff8 be15 fe08 f942
000002d0: 0400 0000 0400 0000 4ef7 5942 a727 0e43
000002e0: 2eec 6243 8896 aa42 67ca 9442 0400 0000
000002f0: 75a8 100a 8aef 6d42 27f0 3e42 43b3 4d43
00000300: 9b48 8c43 ec76 5743 fb33 d70d 5bbb 0043
00000310: a2f3 5543 2931 1742 0400 0000 0400 0000
40.912487 23.074717 36.370586 23.730238 52.247936 6e-45 111.38499 75.19477
32.901493 236.79999 379.65897 19.341444 115.836426 0.5618315 20.540031 59.66693
257.2267 72.467575 61.75269 238.95642 64.54163 87.24188 139.56642 3.3610043e-21
6e-45 6e-45 6e-45 6e-45 55.94269 94.73434 206.00507 246.09993
82.03937 96.915115 131.30672 24.682123 6e-45 54.991814 28.780504 39.934685
204.25705 63.84574 6e-45 6e-45 64.044945 6e-45 39.31281 26.283442
6e-45 211.51065 6e-45 6e-45 14.367653 6e-45 6e-45 60.291553
62.792522 117.03875 111.52539 43.713562 100.10014 202.20003 36.43933 52.957226
0.004042231 190.16086 57.160686 6e-45 56.779922 72.884346 6e-45 321.54904
8.259404e-39 46.092762 44.72533 0.9308099 6e-45 155.93079 6e-45 318.09848
157.06877 48.917797 229.52684 209.14293 3.0005684 225.60901 54.902157 246.88576
6e-45 179.57867 1.2684824e-08 21.286283 93.99119 240.39745 112.149254 65.32421
266.22644 0.28823158 6e-45 48.926617 138.26021 17.694529 101.81671 85.667946
49.83234 8.8e-44 25.304705 4.397825e-06 198.27335 6e-45 6e-45 98.39088
63.553925 40.32335 3.7134312e-19 359.15433 6e-45 99.329315 6e-45 56.02373
83.99548 65.97313 65.59729 179.80661 32.854874 6e-45 6e-45 256.25754
71.32971 6e-45 57.987564 218.98936 6e-45 48.91419 1.1458484e-14 28.29262
82.63074 4.2285767 6e-45 86.7025 6e-45 6e-45 40.59251 9.749754
73.62592 138.1578 37.647057 33.72642 280.34253 44.36183 6e-45 6e-45
78.503555 59.09173 44.345562 2.877088e-05 6e-45 6e-45 28.676628 6e-45
55.68732 6e-45 434.10852 87.63131 72.35102 70.845825 177.7795 273.22714
96.29217 175.77634 60.356888 28.155691 44.793793 35.393227 9.4696405e-37 136.42317
141.18439 6e-45 7.713205e-26 124.51756 6e-45 6e-45 54.49151 142.15489
226.92258 85.29401 74.39532 6e-45 6.965031e-33 59.483925 47.734524 205.70024
280.56723 215.46454 1.3262912e-30 128.73186 213.95169 37.798008 6e-45 6e-45

weight f4 [4, 200]
00000000: 4164 6abe 6c68 c93d aa6f 8abc 86f1 eb3d
00000010: 55ec 50be 7e95 a1b8 de9f e73c 81e6 2fbc
00000020: 0247 60bc 6999 b2ba b8c1 093d fb31 9dbc
00000030: b85a af37 b078 d93b 0c18 813d b7de 243d
00000040: a81f 3ebf 626c d7bc 6eda efbb 0b8a 6e3c
00000050: 6bd7 c33d d656 2abf cd76 5dbc 7896 b9b9
00000060: 0e63 0500 2cec 0b3a 70ec 461c 707d 88b8
00000070: 9765 21be 8bb2 b2bb 89da d83e b491 a1b9
00000080: a1f6 873c 3e02 34be 498d 12bc 3823 7dbb
00000090: e22b 42b9 0779 ba3c 279c 9a3c 6bb5 24be
000000a0: 231e 78bc 8c5c d3b9 83ac 0280 0442 0180
000000b0: 8062 23bb 77bb b910 4a51 893d a58d b3be
000000c0: 5ea3 edb9 d88a eabe 0b34 c0b9 0269 df34
000000d0: 7e57 8939 dbd2 0c80 1b80 7601 4f95 8cbc
000000e0: 61bd 763d 0bb2 493e ddaa 953e 3c00 2a3d
000000f0: 65e8 8b3c 6819 893e bc42 5eba cbaa 23be
00000100: f091 c7bc 4188 393d b1be 99bc 4a1d 4800
00000110: 3d87 913c 26d0 6c3b 543b 4030 24a0 e3bd
00000120: 25b1 8139 67d0 923c 4881 44bc 2d82 13ba
00000130: 3480 12bb c360 fabd 345d 1fb0 9a8f 3bbd
00000140: 5f31 6cbc 72fd c23b 297e 193d 1bbf 273f
00000150: 8d6e be3c 83cb 043f aa1c fbbc 01c1 a53e
00000160: 9643 0100 ed33 313c a4ea 903a 4e9b 283d
00000170: 527b c93b 6927 a3be c0e6 32bc 9c93 873b
00000180: 6fb9 beba e6df 81bc 7cdc c939 83fb 253e
00000190: 832f 783c 1cc7 29bd 4cd2 a03e 4dc6 33bc
000001a0: e3b8 6b3e f85a a2b6 10e2 993b 01eb 793c
000001b0: 7c78 d5be 2e91 1d3a 1876 919d 75c3 613c
000001c0: 14b3 7d3c d7f4 74bd f4b8 85b9 edb7 9d3c
000001d0: e5c9 3180 1ce5 bfbe af8b 0800 5108 d6bb
000001e0: 7444 d8bb 7e8d 16bc a6db 0abd 5d18 4bbd
000001f0: 911f 563d fd37 61af 47f9 2039 2239 afbd
00000200: 1292 b83b a177 fe39 9b93 bd39 49d5 0fbb
00000210: 9063 66b9 ed2b 4d3c b8fc a93a dfef f5be
00000220: f2f7 fbbb 6e5f 503c 6454 51b9 a52d 243c
00000230: 7e83 211f deb1 4db9 afa3 abbe aa0e d7bd
00000240: 2aac a5bb 873a a8be 17d2 86be 3bb3 a53d
00000250: 08cc 02be 8619 8b3d b44a 4200 ffcc cf38
00000260: 8e73 843d 08f4 f63e a9f9 953e 13fc 0fbb
00000270: c4bc 973a 6987 a138 f2ec 3bbc adf5 a2a9
00000280: e73c 053e 2a71 b913 6e64 a3bc 1951 89be
00000290: ef23 e03d 3e5c b93c 5f6f 65bc 90f0 6d3e
000002a0: b951 a33c ab74 013f ef76 73bc 4a66 203c
000002b0: a57b 823d 2dc8 54be 999e 6838 d796 403c
000002c0: 634e bc3e 2eb4 1680 0e95 b538 b794 d83c
000002d0: 8cbf 193a 00ca 0800 c130 b73c 376b d1be
000002e0: 482c b1be 283a 083e 910d 093d c039 3d3a
000002f0: 3181 d7b9 6d09 63bd 2688 413f ec3b 923e
00000300: a0a4 713b 5e37 503b 3e09 44b9 2031 ec3c
00000310: 883c 11bf 78a7 bdbd a0f3 9e1f 0d38 fd38
00000320: 344c 7d3d 82a7 fb3c 309a 433d 71cc 5cbd
00000330: 0b23 3cbe 2a4f 0239 5886 57be da00 f13d
00000340: 71df afbe aa1c d73d d194 a33e f698 233c
00000350: 6d22 ffbd 43e5 4f3a 1c5e 04be dd27 58be
00000360: 930a 773d fe6f abbe 57ea c2be d64e b23d
00000370: fd65 2c3d d936 253e 45d6 b63d 5805 34bb
00000380: 4c10 3200 a014 f4b8 d22c 87a6 0eae dab3
00000390: 47b0 32bd c567 a43d 2d05 4dbd 643b 063e
000003a0: 6f45 9fbe e991 1e3d 516f 08be 74e9 a2be
000003b0: 9296 84b7 2a49 153e 8462 5e3e 4947 debc
000003c0: b4e7 963d d352 813e 1655 2400 3f44 0680
000003d0: 27fb dfbe a6dc 3380 f3cf a2be fa4c 77bd
000003e0: 0953 e239 68b0 0dbe 3e30 9838 a9c4 99a4
000003f0: 72ed eabc 15e0 1480 43cf 2802 801c ebbe
-0.22889806 0.0983437 -0.016898949 0.11520676 -0.20402654 -7.704923e-05 0.028274473 -0.010736109
-0.013688805 -0.0013626042 0.03363201 -0.019188872 2.090387e-05 0.0066367015 0.06303415 0.04025146
-0.74267054 -0.026296798 -0.00731974 0.014559279 0.09562572 -0.6653875 -0.013517094 -0.00035398058
4.94712e-40 0.00053376216 6.5818293e-22 -6.50835e-05 -0.1576141 -0.005453413 0.4235423 -0.0003081687
0.016597094 -0.1757898 -0.008944818 -0.0038625728 -0.0001851763 0.022762788 0.018873287 -0.1608483
-0.015143904 -0.0004031401 -2.45557e-40 -1.15517e-40 -0.0024930537 7.325847e-29 0.06704958 -0.35069004
-0.0004532588 -0.45809054 -0.0003665987 4.161339e-07 0.00026195863 -1.177667e-39 4.5274975e-38 -0.01716104
0.0602392 0.19696824 0.2923192 0.04150413 0.017078588 0.26777196 -0.0008478572 -0.15983121
-0.02436158 0.045295957 -0.018767687 6.622663e-39 0.017764682 0.0036134808 6.9933503e-10 -0.11114529
0.0002473678 0.01792164 -0.011993714 -0.00056270027 -0.0022354247 -0.12225487 -5.797631e-10 -0.045791246
-0.014416068 0.005950623 0.03747383 0.6552598 0.023246074 0.51873034 -0.030653317 0.32373813
1.16081e-40 0.010815603 0.0011056256 0.041163735 0.006148734 -0.31866005 -0.010919273 0.0041374695
-0.0014551113 -0.015853833 0.0003850198 0.16209225 0.015148046 -0.04144965 0.31410444 -0.010972572
0.23019747 -4.8385664e-06 0.004696138 0.015253783 -0.41693485 0.0006010708 -3.8503286e-21 0.013779511
0.01548459 -0.05980381 -0.00025505538 0.019252742 -4.572365e-39 -0.37479484 7.84793e-40 -0.006531753
-0.006599957 -0.009189008 -0.03390088 -0.04958378 0.052276198 -2.0483522e-10 0.00015351652 -0.08555819
0.0056326473 0.00048535786 0.00036158864 -0.0021947196 -0.00021971599 0.01252268 0.0012968993 -0.4803457
-0.0076894695 0.012718065 -0.00019963231 0.010020648 3.4201844e-20 -0.00019616584 -0.33523318 -0.10500844
-0.005055924 -0.32857153 -0.2633216 0.08090826 -0.12773144 0.067919776 6.087941e-39 9.908713e-05
0.06467353 0.48233056 0.29292038 -0.0021970316 0.0011576642 7.7023e-05 -0.011470066 -7.236863e-14
0.13011514 4.6812154e-27 -0.01994535 -0.26819685 0.10944354 0.022626992 -0.014003604 0.23236299
0.01993643 0.50568646 -0.014859899 0.009790013 0.063712396 -0.20779486 5.5460816e-05 0.011754713
0.36778554 -2.085017e-39 8.658516e-05 0.0264381 0.00058650295 8.07148e-40 0.022362115 -0.4090211
-0.34604096 0.13303435 0.033460204 0.0007218383 -0.0004110425 -0.05542891 0.7559837 0.28561342
0.0036871806 0.0031771283 -0.0001869546 0.028832018 -0.5673299 -0.09260458 6.7318647e-20 0.000120744204
0.06184025 0.030719522 0.047754467 -0.053905908 -0.18372743 0.00012427257 -0.21047342 0.117677405
-0.3435016 0.10503514 0.31949475 0.009985199 -0.12457738 0.0007930586 -0.12926525 -0.21108957
0.06031282 -0.3348388 -0.38069412 0.08706443 0.04208945 0.16134204 0.089275874 -0.0027469005
4.597621e-39 -0.000116386684 -9.379655e-16 -1.01830764e-07 -0.043625142 0.08027605 -0.050053764 0.13108593
-0.3110766 0.03871337 -0.13323714 -0.31818736 -1.5805741e-05 0.14578691 0.21717268 -0.0271336
0.073684126 0.25258502 3.336601e-39 -5.75495e-40 -0.43746302 -4.762764e-39 -0.31799278 -0.060376145
0.00043167945 -0.13836825 7.2569106e-05 -6.668633e-17 -0.028677676 -1.917095e-39 1.2402172e-37 -0.4592018

bias f4 [4]
00000000: 3d43 99be 388e 47bd 1ae6 76bf 1ffc 8fbf
-0.2993411 -0.048719615 -0.9644486 -1.1248816
