experiments/hyperspectral/model_salient_beta_4.pth (torch, 290240 bytes, 27 tensors)

weight f4 [10, 1, 9]
-0.34398422 -0.3610868 -0.043134354 0.08761832 0.15684545 -0.0029615923 -0.22756478 -0.62801045
-0.14449495 1.0768197 0.29832864 -0.4414321 -0.07735369 0.081661105 0.23600912 -0.015140643
0.12294469 -0.18080124 -4.6011436e-08 6.3084265e-08 2.5513223e-09 -6.2245764e-10 -1.9753497e-08 -8.7724565e-09
-9.459803e-09 -1.8114488e-08 -3.85616e-06 0.108858146 0.34615898 0.005608878 -0.039168105 0.052200597
0.35859588 0.19547097 0.11907965 -0.44588098 -0.07333011 0.44749436 0.27744028 0.23463026
0.2052486 0.042403217 0.1341049 -0.016746322 -0.46274674 -0.108422935 -0.19542593 -0.15877162
-0.07814184 -0.104596466 0.09134382 0.035745814 0.20183213 1.1240151 -0.831244 -0.7124354
0.25529328 -0.01859427 0.10685773 -0.05850731 -0.046066612 -0.15804417 0.14604871 -0.10268895
-0.09107701 0.06355242 0.03028047 -0.09085907 -0.2741759 -0.10968236 -0.23557733 -0.7951534
0.04790468 -0.05816362 -0.08230019 -0.015590257 -0.14754784 -0.0365866 -0.13837287 0.088224955
1.4110235 0.32794312 0.3309108 0.26045662 -0.115920946 0.1800025 -0.09484525 0.043309554
0.058536537 0.41026816
00000000: b31e b0be 5ee0 b8be a6ad 30bd 3c71 b33d
00000010: 189c 203e 4617 42bb be06 69be 4bc5 20bf
00000020: 7cf6 13be 3ad5 893f 88be 983e 6303 e2be
00000030: 9d6b 9ebd f03d a73d 60ac 713e 7610 78bc
00000040: 6dca fb3d f623 39be 1c9e 45b3 f178 8733
00000050: 5653 2f31 9019 2bb0 66ae a9b2 acb5 16b2
00000060: a784 22b2 2e9a 9bb2 2a64 81b6 05f1 de3d
00000070: c03b b13e aeca b73b bc6e 20bd 4bd0 553d
00000080: e199 b73e 8b29 483e 08e0 f33d 834a e4be
00000090: 192e 96bd fb1d e53e a70c 8e3e ea42 703e
000000a0: b02c 523e ffae 2d3d cb52 093e 952f 89bc
000000b0: 24ed ecbe d80c debd bc1d 48be 0795 22be
000000c0: d408 a0bd ac36 d6bd 7812 bb3d 346a 123d
000000d0: 15ad 4e3e badf 8f3f 68cc 54bf 2b62 36bf
000000e0: cdb5 823e 0353 98bc 3ad8 da3d 5ca5 6fbd
000000f0: 58b0 3cbd 55d6 21be cb8d 153e 964e d2bd
00000100: 9586 babd c527 823d c00e f83c 5214 babd
00000110: c960 8cbe 25a1 e0bd 2f3b 71be 2c8f 4bbf
00000120: b337 443d fa3c 6ebd 018d a8bd 476e 7fbc
00000130: c816 17be d5db 15bd 9eb1 0dbe 49af b43d
00000140: 6b9c b43f 29e8 a73e 246d a93e 925a 853e
00000150: f667 edbd 9352 383e 3a3e c2bd 5c65 313d
00000160: 02c4 6f3d ab0e d23e

bias f4 [10]
0.00027261427 -0.00088307075 -4.3744334e-38 -0.00022686535 0.00013063445 0.0010909796 -0.0012142779 -5.920593e-05
0.0010888565 -0.00083441194
00000000: abed 8e39 e07d 67ba b42a 6e81 b4e2 6db9
00000010: ebfa 0839 33ff 8e3a 6828 9fba e253 78b8
00000020: f6b7 8e3a 70bc 5aba

weight f4 [10]
0.9226973 0.8892657 0.010372186 0.75426984 0.9260235 1.0448904 1.0318352 0.88769823
0.9734463 0.79512805
00000000: e435 6c3f eba6 633f 1af0 293c d417 413f
00000010: e00f 6d3f f8be 853f 2d13 843f 3140 633f
00000020: c733 793f 838d 4b3f

bias f4 [10]
-0.19105218 0.23896682 -0.023679927 -0.33652487 -0.5245306 0.5209787 -0.15463099 -0.18549362
0.21477264 -1.0494593
00000000: 2fa3 43be b8b3 743e 68fc c1bc fd4c acbe
00000010: a347 06bf dc5e 053f 9657 1ebe 0af2 3dbe
00000020: 5ced 5b3e af54 86bf

running_mean f4 [10]
-0.052330654 0.036526892 -1.3094251e-07 0.024639178 0.02782405 0.027329495 -0.04435873 -0.054875217
0.03548671 0.046647396
00000000: ab58 56bd 399d 153d 3499 0cb4 1ad8 c93c
00000010: 43ef e33c 1be2 df3c 80b1 35bd d6c4 60bd
00000020: 835a 113d 5711 3f3d

running_var f4 [10]
2.1920998 1.1926043 1.6116865e-11 0.49499464 0.655699 0.6643985 1.7157984 2.490642
1.109134 1.8401947
00000000: 5d4b 0c40 42a7 983f f4c3 8d2d f06f fd3e
00000010: e4db 273f 0516 2a3f 489f db3f ae66 1f40
00000020: 1af8 8d3f 808b eb3f

weight f4 [10, 10, 10]
0.2736803 0.28795204 0.15994944 0.08996622 0.044578608 -0.022452824 -0.06671419 -0.111093536
-0.16989377 -0.29139134 -0.45666498 0.63416284 0.34221208 0.12226964 0.3456782 0.09143887
0.33317885 0.072763324 0.27309594 -0.09725225 -3.5960633e-27 3.4457656e-22 -4.7290488e-24 1.065117e-19
4.579393e-19 2.5681709e-15 6.8641205e-14 9.410405e-14 -2.4445092e-12 4.847823e-11 -0.56549126 0.23318309
0.119866595 0.13003963 0.051844433 0.13042758 0.2068816 -0.068900935 0.41898876 -0.15072288
-0.37665528 -0.09908488 -0.10382505 0.025308294 0.061867356 0.05575018 0.22219212 -0.060656495
0.37000963 -0.15269247 -0.15169844 0.041175764 0.5684617 0.28725776 0.44968185 0.09020288
-0.10426196 0.03864351 -0.5802735 0.00969179 0.23056024 0.20887166 0.25361663 0.2505474
0.21122333 0.109322235 0.010817296 -0.025022749 -0.104901575 -0.2344894 0.28579086 0.25327474
0.16035366 0.06683294 0.03327739 -0.04784296 -0.09005646 -0.14911827 -0.20661187 -0.3093817
-0.08738465 0.15321721 0.5087765 0.25764155 0.42942885 0.13190892 -0.07375943 0.06738073
-0.5032952 0.039740544 0.13570131 0.21881092 0.3883667 0.34629127 0.3498728 0.06420121
-0.16915266 -0.33616206 -0.3710438 -0.15166605 -0.47207108 -0.41479173 -0.31545797 -0.32473788
-0.26120993 -0.31236544 -0.37348887 -0.32856312 -0.3036342 -0.34951323 0.031267054 0.3462205
0.43589154 0.41341993 0.3251367 0.29517198 0.24045761 0.08583791 0.045022637 -0.09037297
9.036684e-13 1.6750074e-10 7.667996e-11 5.523518e-11 3.4964802e-11 2.5040767e-10 1.05850585e-10 -6.827668e-10
-2.835552e-10 -9.268563e-11 0.09682004 0.32000795 0.31523094 0.2790031 0.122583605 0.15844777
0.100413084 0.091811925 0.013804018 -0.119346924 0.22175638 0.49337617 0.35783622 0.27799538
0.21859902 0.11314585 0.09439058 0.08350924 0.15431237 -0.03313427 -0.08844564 0.0018972082
-0.10005615 -0.1358388 -0.09548941 -0.057517316 0.10247382 -0.061293192 -0.7743683 -0.28253368
-0.7133373 -0.8630974 -0.6196041 -0.46348128 -0.31331924 -0.256245 -0.31832457 -0.30193564
-0.3098685 -0.43994275 -0.4667272 -0.33965287 -0.25113782 -0.34812844 -0.2852886 -0.40941384
-0.4390119 -0.3796398 -0.23505628 -0.30269253 0.047193456 0.114644736 0.044442657 -0.0496481
0.0011181606 0.013146822 0.071026534 -0.06095434 -0.65852714 -0.19533412 0.49259502 0.5090522
0.5627204 0.52920234 0.426998 0.3206836 0.12731074 0.033615652 0.24795873 0.03255046
-0.14247406 -0.049270775 -0.056071993 -0.053516798 -0.05779915 -0.08999403 -0.118404865 -0.14196038
-0.1540794 -0.18809591 0.19835076 -0.017297348 -0.13568398 -0.18693602 -0.33047593 -0.21886614
-0.5991045 -0.52431303 -0.66407025 -0.78346103 1.876975e-39 -1.25901e-40 -3.023286e-39 4.697242e-39
3.608883e-39 1.617362e-39 1.106321e-39 1.377049e-39 -7.217e-42 5.61551e-40 0.4095727 0.23035978
0.15098414 -0.064612255 -0.27871582 -0.35419828 -0.4311603 -0.57917565 -0.5821176 -0.52818507
0.31147978 -0.08484792 0.13556458 0.10051682 -0.19327357 -0.41567388 -0.5726211 -0.49200863
-0.63201565 -0.5216489 0.5769394 0.111079305 -0.066337265 -0.104061715 -0.1300422 0.21948685
00000000: d31f 8c3e 736e 933e c9c9 233e 3640 b83d
00000010: 0f98 363d fcee b7bc 73a1 88bd 0285 e3bd
00000020: a2f8 2dbe 3f31 95be fecf e9be 7f58 223f
00000030: 6c36 af3e 8168 fa3d bcfc b03e 4d44 bb3d
00000040: 6b96 aa3e f004 953d 3bd3 8b3e 302c c7bd
00000050: 6a74 8e93 a448 d01b 3bf2 b698 5f7e fb1f
00000060: ea28 0721 640e 3927 f690 9a29 4be7 d329
00000070: 5d04 2cac a235 552e 09c4 10bf 8cc7 6e3e
00000080: 9e7c f53d 1c29 053e d45a 543d cf8e 053e
00000090: c5d8 533e ef1b 8dbd b285 d63e 1957 1abe
000000a0: f6d8 c0be 03ed cabd 3aa2 d4bd 5753 cf3c
000000b0: a068 7d3d 4d5a 643d 5586 633e f272 78bd
000000c0: e771 bd3e 6a5b 1cbe d656 1bbe eba7 283d
000000d0: b586 113f 7313 933e b33c e63e 4abc b83d
000000e0: 4b87 d5bd a848 1e3d ce8c 14bf 50ca 1e3c
000000f0: fc17 6c3e 74e2 553e 0ada 813e c047 803e
00000100: ee4a 583e 56e4 df3d 073b 313c 82fc ccbc
00000110: a3d6 d6bd fd1d 70be 2e53 923e 3aad 813e
00000120: c033 243e b5df 883d df4d 083d fbf6 43bd
00000130: 856f b8bd 76b2 18be 1092 53be 4767 9ebe
00000140: b9f6 b2bd f9e4 1c3e 2d3f 023f 98e9 833e
00000150: 19de db3e 2213 073e 2f0f 97bd e8fe 893d
00000160: f4d7 00bf fbc6 223d 49f5 0a3e f80f 603e
00000170: 00d8 c63e 174d b13e 8722 b33e ed7b 833d
00000180: 5b36 2dbe 6f1d acbe 74f9 bdbe 584e 1bbe
00000190: 4db3 f1be 955f d4be b583 a1be 0b44 a6be
000001a0: 4fbd 85be 5dee 9fbe ef39 bfbe 6d39 a8be
000001b0: f175 9bbe 66f3 b2be e211 003d d043 b13e
000001c0: 2d2d df3e c7ab d33e 5178 a63e c820 973e
000001d0: 853a 763e c9cb af3d a869 383d 7715 b9bd
000001e0: 2c5c 7e2b 442b 382f fb9e a82e 49ed 722e
000001f0: dec6 192e bfa9 892f 95c4 e82e 71ad 3bb0
00000200: d9e2 9baf 5fd1 cbae 9649 c63d 15d8 a33e
00000210: f365 a13e 7fd9 8e3e 1d0d fb3d 2240 223e
00000220: 60a5 cd3d e407 bc3d 3f2a 623c 296c f4bd
00000230: 1b14 633e cd9b fc3e 4f36 b73e 6955 8e3e
00000240: 6cd8 5f3e 03b9 e73d d94f c13d e406 ab3d
00000250: 1004 1e3e cdb7 07bd fd22 b5bd beab f83a
00000260: 3dea ccbd 5419 0bbe f48f c3bd 4797 6bbd
00000270: cbdd d13d 920e 7bbd 003d 46bf 41a8 90be
00000280: 469d 36bf f4f3 5cbf 609e 1ebf 6b4d edbe
00000290: 616b a0be 8b32 83be 70fb a2be 4f97 9abe
000002a0: 16a7 9ebe 2d40 e1be def6 eebe fbe6 adbe
000002b0: 2395 80be e43d b2be 5911 92be b19e d1be
000002c0: 2bc6 e0be 2660 c2be 98b2 70be 84fa 9abe
000002d0: ed4d 413d dcca ea3d 8109 363d ce5b 4bbd
000002e0: 3e8f 923a c565 573c 5c76 913d 42ab 79bd
000002f0: 3c95 28bf ab05 48be 6a35 fc3e 3f51 023f
00000300: 720e 103f ce79 073f 7b9f da3e a430 a43e
00000310: bf5d 023e 91b0 093d e5e8 7d3e a253 053d
00000320: b8e4 11be 27d0 49bd bfab 65bd 6e34 5bbd
00000330: cdbe 6cbd ca4e b8bd 407e f2bd 105e 11be
00000340: fdc6 1dbe 379c 40be 761c 4b3e 2bb3 8dbc
00000350: bef0 0abe 286c 3fbe 2434 a9be 721e 60be
00000360: ea5e 19bf 6139 06bf 8200 2abf e790 48bf
00000370: 3e70 1400 f65e 0180 b1eb 2080 0026 3300
00000380: 194c 2700 8c9c 1100 f90b 0c00 a7fe 0e00
00000390: 1e14 0080 601d 0600 83b3 d13e 6fe3 6b3e
000003a0: 969b 1a3e 6e53 84bd d7b3 8ebe 7a59 b5be
000003b0: 0bc1 dcbe db44 14bf a905 15bf 2337 07bf
000003c0: 477a 9f3e bfc4 adbd 71d1 0a3e c3db cd3d
000003d0: 82e9 45be 35d3 d4be 4c97 12bf 8ee8 fbbe
000003e0: c7cb 21bf c88a 05bf 4db2 133f 8c7d e33d
000003f0: d5db 87bd 4f1e d5bd c829 05be 29c1 603e

bias f4 [10]
3.363037e-05 -0.00033630026 -0.00041038467 -2.226961e-05 -2.665948e-05 -4.328158e-06 -0.00028694503 0.00018966608
1.5377129e-05 5.06227e-05
00000000: 560e 0d38 7551 b0b9 e628 d7b9 a0cf bab7
00000010: cca2 dfb7 983a 91b6 1c71 96b9 1ae1 4639
00000020: 22fe 8037 b653 5438

weight f4 [10]
0.6227632 0.79567075 0.7240743 0.8676852 0.8937151 0.7610688 0.984676 0.77074546
0.65222013 1.3541379
00000000: 696d 1f3f 14b1 4b3f ef5c 393f 9e20 5e3f
00000010: 83ca 643f 68d5 423f ba13 7c3f 934f 453f
00000020: e6f7 263f 6454 ad3f

bias f4 [10]
-0.60143113 -0.20328806 -0.16096528 -0.41601107 -0.712902 -0.40720126 -0.52100164 -1.2253358
-0.7913243 -0.6289775
00000000: 64f7 19bf bf2a 50be 15d4 24be 67ff d4be
00000010: bf80 36bf af7c d0be 5d60 05bf ced7 9cbf
00000020: 3b94 4abf ab04 21bf

running_mean f4 [10]
2.4339108 -3.516347 -5.631758 -3.339041 0.7976915 -0.25029916 -1.3191295 0.050771046
-0.64166945 -4.7902155
00000000: 32c5 1b40 d40b 61c0 5d37 b4c0 d9b2 55c0
00000010: 8335 4c3f 3627 80be 3cd9 a8bf 4df5 4f3d
00000020: 7344 24bf 7249 99c0

running_var f4 [10]
4.9889035 26.023127 33.37184 58.879353 4.64023 53.00018 3.6563048 2.9004457
24.785574 29.07562
00000000: 19a5 9f40 5d2f d041 c47c 0542 7584 6b42
00000010: c47c 9440 2f00 5442 e600 6a40 e7a0 3940
00000020: db48 c641 df9a e841

weight f4 [200, 160]
-1.640458e-39 -1.48131e-40 -9.72039e-40 -1.094383e-39 -7.9615e-40 -1.3579e-41 7.5384e-41 9.76982e-40
1.015846e-39 -9.3548e-41 -1.15288e-40 -1.31969e-39 -2.100857e-39 -1.527527e-39 -2.010838e-39 -3.375868e-39
4.368598e-39 1.786308e-39 1.411576e-39 2.260813e-39 1.989393e-39 4.549509e-39 2.952844e-39 1.1929e-40
1.19306e-39 8.66726e-40 4.050218e-39 2.830188e-39 2.24837e-39 2.12429e-39 8.04244e-40 -2.13533e-39
6.783613e-39 3.003986e-39 1.478488e-39 3.061338e-39 2.621499e-39 6.737785e-39 1.601763e-39 3.302434e-39
1.521149e-39 -3.153258e-39 -4.798901e-39 -3.534209e-39 -3.708183e-39 -9.74701e-40 2.1869e-39 2.18095e-40
-6.932145e-39 -1.08528e-40 -6.43454e-40 -1.211764e-39 -1.795416e-39 -1.910547e-39 -1.674204e-39 -1.446835e-39
-1.774021e-39 -1.423848e-39 -1.095524e-39 1.458427e-39 -2.671654e-39 -3.167904e-39 2.641403e-39 1.2333263e-37
-4.232762e-39 4.827507e-39 -1.2621828e-37 -3.71333e-40 -4.08114e-40 1.534086e-39 -5.750783e-39 5.477934e-39
-6.547e-42 -1.3063368e-37 -4.00175e-39 -1.3280841e-37 -1.2458705e-37 -3.23016e-40 1.093983e-39 1.107107e-39
3.446051e-39 6.575672e-39 6.016629e-39 1.0002166e-38 3.439585e-39 2.000875e-39 7.70468e-40 4.03425e-40
4.5858e-40 7.6906e-40 1.891739e-39 5.33043e-40 6.819e-42 -8.5841e-41 -1.514285e-39 -2.471131e-39
4.936315e-39 4.561249e-39 -2.28526e-39 1.804424e-39 -1.2871258e-37 -1.2874741e-37 1.621145e-39 -1.352009e-39
-3.516878e-39 4.471417e-39 -2.918568e-39 -9.2373e-40 6.432403e-39 2.796269e-39 -5.27307e-39 2.188007e-39
-1.195516e-39 -3.235405e-39 -2.783912e-39 -2.979561e-39 -2.76796e-39 -2.565038e-39 -2.473471e-39 -2.298198e-39
-2.47864e-39 -2.475572e-39 -2.792541e-39 -2.694107e-39 -2.95987e-39 -3.154289e-39 -3.414332e-39 -3.628178e-39
-4.005352e-39 9.28768e-40 -1.976383e-39 -6.210116e-39 -3.2399e-39 -2.55685e-39 6.201724e-39 1.950515e-39
4.75089e-40 3.992561e-39 6.46762e-40 -9.8663e-40 4.500114e-39 3.719085e-39 5.098371e-39 5.985446e-39
2.2552e-40 -2.314303e-39 3.109518e-39 2.535296e-39 -1.98999e-39 -3.29201e-40 6.034703e-39 7.027159e-39
5.465339e-39 6.856901e-39 5.699072e-39 4.089603e-39 -2.89612e-40 -7.20909e-40 -6.96028e-40 1.041232e-39
7.5463663e-06 -1.5307657e-07 -3.3402537e-06 -3.0926842e-06 -2.048018e-05 -2.7107666e-05 -1.3634094e-05 -1.152418e-05
-1.2576277e-06 -1.1409514e-08 -6.58211e-08 -2.9970359e-05 -8.672081e-05 -0.00020782728 -0.00041111987 -0.00391742
9.641794e-05 0.00017515033 2.2659257e-05 7.207953e-06 -1.0613789e-05 -1.035622e-05 -4.2587042e-05 -8.824013e-05
-4.1966567e-05 -6.981833e-05 -3.5346904e-05 -6.183839e-05 -0.00020286915 -0.00032889465 -0.0004711076 -0.0012533377
7.929487e-06 -8.718608e-07 2.2762438e-06 2.8533992e-07 1.4185536e-06 2.8190907e-06 3.658789e-06 2.0835666e-06
-2.5834947e-07 -2.554138e-06 -4.029219e-06 -2.233704e-06 2.3449254e-06 -3.215466e-06 -1.9885249e-05 -4.1427047e-05
5.7346824e-07 2.1306134e-06 -3.0280203e-06 -4.1312936e-07 -9.574032e-07 -1.1259642e-06 -9.712512e-07 -3.3063372e-07
3.9184673e-07 6.7480124e-07 1.8446378e-06 3.6608621e-06 3.961469e-05 7.158762e-05 0.0001849272 1.1833893e-05
3.6965287e-06 1.0086904e-05 6.720043e-06 1.6520966e-05 2.6360005e-05 3.7029375e-05 3.6831712e-05 2.3092229e-05
1.9673947e-05 1.3212565e-05 6.8466934e-06 1.2300051e-05 5.5466113e-05 0.00054370787 0.0029308507 0.008893234
6.5939525e-07 3.2966323e-06 -6.845337e-07 -2.531457e-06 -6.029374e-06 -8.078688e-06 -5.5601613e-06 -2.8011716e-06
-1.9838556e-06 -1.414083e-06 1.2690552e-06 -4.168665e-06 -1.7114082e-05 -4.6856916e-05 -6.557592e-05 -0.00015012111
00000000: eedc 1180 ee9c 0180 a695 0a80 b2ea 0b80
00000010: 58ab 0880 da25 0080 24d2 0000 6ea3 0a00
00000020: c40f 0b00 c604 0180 6041 0180 c25e 0e80
00000030: 56e0 1680 20a2 1080 66e5 1580 8cc2 2480
00000040: e091 2f00 8073 1300 e65e 0f00 3a9e 1800
00000050: 9ea9 1500 2e8a 3100 5427 2000 884c 0100
00000060: c4fd 0c00 1470 0900 5c1a 2c00 6ad1 1e00
00000070: 8a7b 1800 a821 1700 e8c1 0800 6e40 1780
00000080: f4dd 4900 e4b5 2000 6c19 1000 c455 2100
00000090: ac8b 1c00 345e 4900 1071 1100 d8f5 2300
000000a0: 5890 1000 0056 2280 6241 3480 f07b 2680
000000b0: e860 2880 129d 0a80 30d0 1700 f65f 0200
000000c0: 007c 4b80 882e 0180 b001 0780 e831 0d80
000000d0: e48c 1380 d4cd 1480 003b 1280 30c1 0f80
000000e0: 4051 1380 1c81 0f80 e0ed 0b80 80e1 0f00
000000f0: 7c17 1d80 d47e 2280 28c3 1c00 26df 2702
00000100: 3817 2e80 2091 3400 a7cc 2b82 200b 0480
00000110: a871 0480 68b4 1000 d89e 3e80 40a6 3b00
00000120: 4012 0080 32cf 3182 4093 2b80 fac4 3482
00000130: 4094 2982 7084 0380 94e9 0b00 2a0e 0c00
00000140: 3086 2500 4c9a 4700 ea83 4100 f8e9 6c00
00000150: 2a74 2500 a0c9 1500 c063 0800 9664 0400
00000160: 56fe 0400 d45f 0800 6699 1400 e8cd 0500
00000170: 0213 0000 4aef 0080 367d 1080 82e8 1a80
00000180: 70c0 3500 e8aa 3100 60e2 1880 00a6 1300
00000190: ca31 2f82 ed3d 2f82 18a7 1100 dab8 0e80
000001a0: a04b 2680 7eb0 3000 c8c7 1f80 fc0e 0a80
000001b0: ec0a 4600 dc72 1e00 2c6b 3980 46d3 1700
000001c0: 9d04 0d80 fe3a 2380 6a50 1e80 ce71 2080
000001d0: f223 1e80 48ee 1b80 08ef 1a80 7106 1980
000001e0: 71fd 1a80 e3f4 1a80 7868 1e80 1356 1d80
000001f0: ea3a 2080 e058 2280 c52d 2580 e281 2780
00000200: 4b9d 2b80 071d 0a00 5a85 1580 479f 4380
00000210: 8647 2380 75d7 1b80 e287 4300 3e3d 1500
00000220: 5b2c 0500 a379 2b00 e90a 0700 53be 0a80
00000230: 7d00 3100 4c7f 2800 2f84 3700 fd2c 4100
00000240: a874 0200 5633 1980 12dc 2100 609b 1b00
00000250: 48ab 1580 ae95 0380 4cb6 4100 dc84 4c00
00000260: 2483 3b00 40aa 4a00 b20e 3e00 2688 2c00
00000270: 5227 0380 9ad9 0780 3e94 0780 8856 0b00
00000280: cb36 fd36 5e5d 24b4 1f29 60b6 e98b 4fb6
00000290: dacc abb7 4565 e3b7 fdbd 64b7 fa57 41b7
000002a0: c2cb a8b5 9303 44b2 8859 8db3 db68 fbb7
000002b0: e1dd b5b8 36ec 59b9 938b d7b9 b35d 80bb
000002c0: fd33 ca38 8fa8 3739 6214 be37 d8db f136
000002d0: e011 32b7 a0bf 2db7 7d9f 32b8 8f0d b9b8
000002e0: 4205 30b8 6e6b 92b8 7341 14b8 3caf 81b8
000002f0: 46b9 54b9 7e6f acb9 fefe f6b9 0947 a4ba
00000300: e308 0537 d109 6ab5 92c1 1836 d230 9934
00000310: 2165 be35 9c2f 3d36 8489 7536 67d3 0b36
00000320: 48b3 8ab4 c267 2bb6 ba32 87b6 bee6 15b6
00000330: 835d 1d36 49c9 57b6 3fcf a6b7 f4c1 2db8
00000340: 70f0 1935 a9fb 0e36 fe34 4bb6 11cc ddb4
00000350: 2080 80b5 d61f 97b5 f05b 82b5 f481 b1b4
00000360: 015f d234 fd23 3535 4695 f735 22ad 7536
00000370: f327 2638 5021 9638 04e9 4139 2f8a 4637
00000380: e111 7836 ec3a 2937 bb7c e136 8196 8a37
00000390: ae1f dd37 fd4f 1b38 c07b 1a38 2fb6 c137
000003a0: 7b09 a537 89ab 5d37 a6bc e536 515c 4e37
000003b0: 49a4 6838 9e87 0e3a 8413 403b edb4 113c
000003c0: 4c01 3135 b63b 5d36 ccc0 37b5 1ae2 29b6
000003d0: ee4f cab6 b389 07b7 6c91 bab6 c3fb 3bb6
000003e0: 6122 05b6 86cb bdb5 6854 aa35 8fe0 8bb6
000003f0: 3690 8fb7 3b88 44b8 ce85 89b8 d469 1db9

bias f4 [200]
-6.117578e-38 -4.2031107e-38 8.05702e-38 4.5322566e-05 1.3790037e-37 -1.9724543e-38 1.458134e-38 -4.1920635e-37
-0.000118790704 9.368734e-38 -4.758729e-38 0.00012363883 -1.0740365e-05 1.975106e-06 3.917859e-38 -0.0002466071
-1.1158634e-37 -1.328257e-37 -4.4557633e-05 -5.675883e-38 -0.00020633271 1.4905955e-37 -3.9856247e-38 7.175875e-05
0.00012504583 -2.8417705e-38 -5.5559183e-05 1.6431772e-37 -1.754909e-37 2.7771186e-37 4.712554e-06 0.0001784515
5.550308e-39 -8.8413554e-11 -5.528316e-18 3.9162066e-38 4.816821e-38 -1.1413162e-37 1.9918256e-37 -0.00010555337
2.4904693e-07 -6.495701e-07 1.2987518e-14 0.00017240146 2.094207e-37 -0.0001414648 -2.4090787e-06 8.7889995e-05
-4.1131017e-05 -1.3189474e-05 -8.961154e-05 0.0001733535 4.343863e-06 -7.4953685e-05 -2.7840025e-37 2.3208846e-05
-2.4019579e-38 -1.3357762e-37 -4.815637e-05 -5.797005e-07 2.9716843e-38 8.1613394e-38 -8.005301e-06 6.102076e-05
4.0163635e-05 7.764389e-05 -1.8320767e-38 -6.605897e-38 -5.721257e-38 -1.3341976e-38 1.0064396e-05 -2.8450092e-38
1.2087153e-37 -7.757186e-38 3.077877e-38 -5.4088955e-38 -2.904205e-05 6.570237e-05 2.292381e-05 -1.0265676e-37
3.1325602e-05 2.9622805e-05 4.769986e-39 6.4413434e-05 -1.1220432e-38 1.1215555e-37 7.79217e-38 0.00010148451
6.1722716e-10 -6.383028e-05 6.714656e-05 -3.211478e-38 -9.520776e-38 -5.2595933e-38 1.7409155e-37 -1.0894737e-38
5.0141964e-05 2.5399375e-38 -1.1118193e-37 7.532819e-38 -6.91966e-38 8.751469e-38 -4.4168097e-08 -1.1388104e-37
-8.46315e-05 -7.1188115e-05 1.6224606e-37 1.2586783e-37 1.1902853e-38 7.797393e-13 6.662127e-38 -7.1805807e-38
9.9850775e-05 -4.228288e-05 -6.7904926e-05 2.5154826e-05 -5.173959e-10 -2.2328983e-05 1.697614e-05 6.166323e-38
8.4699827e-38 -8.4049927e-38 -9.193971e-05 5.8629487e-38 2.3082637e-38 -1.5823165e-37 7.08689e-38 3.4173354e-08
-2.405776e-38 -1.1349985e-37 1.0661192e-37 5.93647e-38 2.9508655e-38 -3.2556903e-25 6.0992805e-38 -2.3297921e-38
-1.3543908e-38 6.307165e-38 -1.0277952e-05 -0.00023661372 -7.679759e-38 -0.00019853996 9.976276e-38 -1.0754527e-37
2.8992112e-05 3.621324e-38 2.699333e-05 -4.1587937e-30 1.0815939e-37 3.96255e-05 6.0943073e-09 -1.1606638e-37
-5.6412465e-38 -1.2604071e-37 -4.9270203e-38 8.8716385e-38 -5.5699316e-38 5.1179994e-38 0.0001964881 -3.958294e-05
-1.6162359e-37 5.2424388e-05 -5.6263815e-38 -7.7340555e-38 -4.6824374e-05 -6.447072e-39 -2.701642e-13 1.3720728e-37
2.415513e-39 -9.176029e-05 -4.820875e-05 1.1414542e-37 -3.7572965e-31 -2.3219573e-05 1.0666325e-06 3.5762296e-05
3.0254487e-05 9.942005e-05 9.781046e-38 1.552159e-05 -6.5546046e-06 -1.1179197e-37 6.10615e-05 -9.9300174e-05
-8.7549866e-38 -7.3831793e-38 5.395098e-38 3.4473108e-38 -9.330527e-06 6.183238e-05 -1.0164766e-37 3.1760732e-38
-2.489604e-24 1.2986355e-37 5.9616304e-38 -0.0002479585 7.568317e-05 5.4411124e-05 -3.6833186e-38 1.4291839e-37
00000000: 4c89 a681 d0d6 6481 3c55 db01 bc18 3e38
00000010: 44b3 3b02 00c8 d680 d8c6 9e00 06a6 0e83
00000020: 461f f9b8 8c0a ff01 808b 8181 0ca5 0139
00000030: 8431 34b7 108c 0436 fc4e 5501 0b4b 81b9
00000040: 2ae2 1782 00cb 3482 65e3 3ab8 2283 9a81
00000050: 045b 58b9 ace3 4a02 80ff 5881 307d 9638
00000060: bc1e 0339 80b8 1a81 3808 69b8 5ea8 5f02
00000070: a7dd 6e82 3b00 bd02 8820 9e36 b61e 3b39
00000080: 0070 3c00 686c c2ae 78f5 cba2 f437 5501
00000090: 5820 8301 1159 1b82 7f8e 8702 895c ddb8
000000a0: c0b4 8534 1e5e 2eb5 5bf6 6928 aac6 3439
000000b0: 3b86 8e02 2b56 14b9 a8ab 21b6 9551 b838
000000c0: 1884 2cb8 5c48 5db7 d4ed bbb8 3ac6 3539
000000d0: 80c1 9136 7430 9db8 2a78 bd82 9eb0 c237
000000e0: 68c6 0281 02d1 3582 82fb 49b8 b79c 1bb5
000000f0: 3ccb 2101 3c2c de01 824e 06b7 8bf0 7f38
00000100: 6075 2838 bfd4 a238 d87e c780 62d4 b381
00000110: 58bf 9b81 0048 9180 40da 2837 a4e5 1a81
00000120: 9585 2402 b22b d381 5893 2701 803e 9381
00000130: 549f f3b7 b1c9 8938 824c c037 a9ba 0b82
00000140: 9c63 0338 7d7e f837 c8f0 3300 b315 8738
00000150: 002e 7a80 81a8 1802 801f d401 15d4 d438
00000160: 80a9 2930 9fdc 85b8 09d1 8c38 78d9 2e81
00000170: 1097 0182 042e 8f81 0df6 6c02 18a2 7680
00000180: 864f 5238 9049 0a01 4055 1782 1610 cd01
00000190: fe5e bc81 d63c ee01 56b3 3db3 c001 1b82
000001a0: 317c b1b8 d44a 95b8 80d6 5c02 8a52 2b02
000001b0: 509c 8100 237a 5b2b 405c b501 5879 c381
000001c0: fa66 d138 e658 31b8 2e68 8eb8 9403 d337
000001d0: 8038 0eb0 204f bbb7 fc67 8e37 00dd a701
000001e0: 2a93 e601 40ce e481 c2cf c0b8 ca9a 9f01
000001f0: 0059 fb00 af5f 5782 6aec c001 00c6 1233
00000200: a0fb 0281 ed7c 1a82 d51c 1102 289b a101
00000210: 10a9 2001 7984 c996 c809 a601 20b1 fd80
00000220: e87a 9380 86b2 ab01 786f 2cb7 831b 78b9
00000230: 1c10 d181 2a2f 50b9 40ca 0702 0f62 1282
00000240: 1634 f337 e429 4501 bc6f e237 62b3 a88e
00000250: 0c38 1302 8f33 2638 1866 d131 3bfb 1d82
00000260: c091 9981 c78e 2b82 5220 8681 4c82 f101
00000270: c2a0 9781 4053 8b01 5f08 4e39 dc05 26b8
00000280: 9afd 5b82 42e2 5b38 282a 9981 808a d281
00000290: 4a65 44b8 d033 4680 c416 98aa c2c1 3a02
000002a0: 784d 1a00 6e6f c0b8 c033 4ab8 e05d 1b02
000002b0: ccdc f38c a7c7 c2b7 3729 8f35 79ff 1538
000002c0: 04cb fd37 bc7f d038 f921 0502 5c34 8237
000002d0: a0ef dbb6 d129 1882 250e 8038 603f d0b8
000002e0: 5a55 ee81 40fd c881 58de 9201 80b0 3b01
000002f0: 4f8a 1cb7 02ac 8138 0a5b 0a82 00ec 2c01
00000300: b09f 4098 d8c2 3002 804a a201 6d00 82b9
00000310: 18b8 9e38 8037 6438 f889 4881 ca87 4202

weight f4 [200]
9.2266e-40 0.012691887 0.001394199 0.63858414 0.0022366901 9.70981e-38 6.957918e-39 0.0056852256
0.925304 2.4991883e-05 -3.7940616e-38 0.60726446 0.58955544 0.6710555 -3.574895e-39 0.79005
-2.9186296e-08 0.0008069184 0.6682356 5.951752e-39 0.70449454 -0.00015438355 2.5559756e-37 0.68101466
0.6540571 -1.2155145e-37 0.39411774 -2.75855e-39 -2.935475e-39 0.00068723416 0.6210135 0.5152807
5.2656783e-38 0.09134904 0.13707063 -0.0017372327 -0.0002802375 -2.916961e-39 -6.827636e-39 0.68097705
0.580957 0.5688662 -0.0006000748 0.5511225 -5.274866e-39 0.90678924 -0.009423218 0.8065162
0.5666208 0.5483215 0.65870214 0.48285982 0.28012317 0.72790676 5.898455e-39 0.42278907
2.339869e-39 -5.018275e-39 0.44410548 0.20181596 -2.331525e-39 -2.896781e-39 0.6182034 0.38468242
0.628899 0.64580786 -4.97757e-40 -5.57097e-39 2.227169e-06 5.072818e-39 0.4132844 5.879787e-39
0.0014907903 0.00050158036 -4.008224e-39 -5.014254e-38 0.461502 0.7934818 0.69315034 0.01937456
0.5123479 0.27582628 0.0119394045 0.7485813 -3.5617823e-38 -1.946272e-39 -3.3192792e-38 0.73851085
0.017191445 0.65751797 0.663648 -1.389215e-39 0.00047276245 1.3570976e-37 1.6240786e-37 -0.004230955
0.64393306 5.91113e-38 -1.7904088e-34 0.03264188 -1.79921e-40 6.157603e-39 -0.010175574 5.0350246e-38
0.6292584 0.7684641 6.211129e-38 -8.3296e-41 2.1075202e-22 0.015494131 4.786925e-38 -4.57311e-40
0.5842467 0.4167184 0.7154719 0.20264505 0.1516081 0.8369582 0.6489302 3.932353e-38
8.030844e-06 3.01852e-39 0.31779668 3.738189e-39 0.00022163359 -0.0044087665 1.3245567e-05 0.02408024
4.9828e-40 -0.007937856 -0.0022490367 7.6358e-41 0.00022648816 0.00615404 -6.10137e-40 -0.001883376
5.02049e-40 -2.414527e-39 -0.021696702 0.7501555 0.0019542112 0.69036335 2.3439324e-37 0.011017312
0.3546029 2.160756e-39 0.4842999 -0.0009047234 3.03758e-40 0.58434546 -0.009180275 -9.0622656e-05
8.294503e-38 0.002139871 6.7014e-41 0.0009031115 -0.0049980637 -0.004428677 0.9732155 0.51251775
-0.00024154593 0.53997964 0.009111667 -6.1801343e-38 0.6303578 -5.60127e-40 0.13602263 0.00017020646
1.3112711e-06 0.63954544 0.50417084 5.816308e-38 -0.0053229616 0.25304937 0.29693815 0.5561689
0.52570516 0.3886481 -4.0259406e-38 0.8306384 0.50521255 2.718798e-39 0.7495508 0.512067
-2.63155e-39 -1.1247945e-37 5.330191e-09 3.7713123e-38 0.605525 0.71634626 1.995116e-39 -1.23007e-37
0.010376182 -1.102026e-39 6.008768e-39 0.64244556 0.40793177 0.57409865 -6.905792e-08 6.6444276e-38
00000000: 000c 0a00 a2f1 4f3c 8ebd b63a 407a 233f
00000010: 6f95 123b c029 0402 d8c3 4b00 214b ba3b
00000020: b9e0 6c3f a9a5 d137 8091 4e81 af75 1b3f
00000030: 1bed 163f 4bca 2b3f 5aed 2680 b840 4a3f
00000040: 58b5 fab2 6187 533a 7d11 2b3f 10cf 4000
00000050: c159 343f 05e2 21b9 60f3 ad02 fa56 2e3f
00000060: 4970 273f 8072 2582 cdc9 c93e b709 1e80
00000070: e9f6 1f80 8127 343a befa 1e3f 70e9 033f
00000080: 6c58 8f01 3515 bb3d 3e5c 0c3e dbb3 e3ba
00000090: d7ec 92b9 4dc3 1f80 ac58 4a80 8354 2e3f
000000a0: 99b9 143f 37a1 113f 574e 1dba 5d16 0d3f
000000b0: 2e70 3980 5723 683f d763 1abc d877 4e3f
000000c0: 100e 113f cc5e 0c3f b4a0 283f 6739 f73e
000000d0: 4e6c 8f3e 1958 3a3f 7e3a 4000 cf77 d83e
000000e0: 9a7a 1900 e9a4 3680 cb61 e33e d8a8 4e3e
000000f0: 5863 1980 0c8b 1f80 9442 1e3f 18f5 c43e
00000100: 86ff 203f aa53 253f 8b6b 0580 99a9 3c80
00000110: 7976 1536 f43c 3700 039a d33e 7406 4000
00000120: 9f66 c33a 7d7c 033a 4ca5 2b80 4080 8881
00000130: fd49 ec3e a021 4b3f 4d72 313f 66b7 9e3c
00000140: 3b29 033f 1a39 8d3e 7e9d 433c 06a3 3f3f
00000150: 00ec 4181 6a31 1580 00b8 3481 0c0f 3d3f
00000160: 13d5 8c3c 1953 283f d6e4 293f 9120 0f80
00000170: 1add f739 f3b7 3802 e10e 5d02 d3a3 8abb
00000180: ccd8 243f 90ea a001 74fc 6d87 7eb3 053d
00000190: 8cf5 0180 e40c 4300 73b7 26bc 0011 8901
000001a0: 1417 213f 10ba 443f 4015 a901 32e8 0080
000001b0: 97c8 7e1b 18db 7d3c 0050 8201 ccfa 0480
000001c0: 3191 153f 1d5c d53e 2b29 373f 2f82 4f3e
000001d0: 273f 1b3e e542 563f 4a20 263f 0019 5601
000001e0: 36bc 0637 68de 2000 3fb6 a23e 8db4 2800
000001f0: 5066 6839 6a77 90bb 4739 5e37 ec43 c53c
00000200: 006d 0500 c80d 02bc 9364 13bb dbd4 0000
00000210: 747d 6d39 d4a7 c93b d0a4 0680 9ddb f6ba
00000220: 8277 0500 b84a 1a80 48bd b1bc 310a 403f
00000230: 3912 003b a7bb 303f 1085 9f02 f581 343c
00000240: 838e b53e 4f87 1700 28f6 f73e f62a 6dba
00000250: c14e 0300 aa97 153f dd68 16bc ab0c beb8
00000260: 40cc e101 143d 0c3b cfba 0000 c9be 6c3a
00000270: ccc6 a3bb 6f1e 91bb a724 793f 5d34 033f
00000280: 7e47 7db9 1b3c 0a3f 1a49 153c 403d a881
00000290: 215f 213f 6819 0680 8449 0b3e 7379 3239
000002a0: effe af35 40b9 233f 5711 013f c055 9e01
000002b0: 3d6c aebb b08f 813e 4708 983e 1661 0e3f
000002c0: 9d94 063f e2fc c63e 6c31 5b81 b8a4 543f
000002d0: 9c55 013f e79a 1d00 90e2 3f3f d316 033f
000002e0: b1a7 1c80 5e19 1982 db24 b731 6c54 4d01
000002f0: b003 1b3f 7862 373f 92b9 1500 af6d 2782
00000300: dd00 2a3c 0000 0c80 006e 4100 5077 243f
00000310: 6fdc d03e 21f8 123f fe4c 94b3 e7e0 b401

bias f4 [200]
-6.9562254e-22 -0.029699061 -0.013281716 -0.41120762 -0.016326204 -2.3182555e-22 -9.846504e-14 -0.021240208
-0.49184114 -8.756337e-05 -0.011587402 0.35059518 -0.7843189 -0.4074469 -1.7660561e-07 -0.52830327
-2.3051857e-06 -0.0074408874 0.17292257 -9.254973e-16 0.10788505 -0.0036995744 -1.4616642e-32 -0.18390386
-0.6267922 -4.5741353e-06 -0.3789195 -0.00033114338 -0.016723078 -0.010384145 -0.6433556 -0.5962438
-0.012333831 -0.4317035 -0.70635897 -0.008425766 -0.009453598 -2.7549686e-06 -0.0040896037 0.14183353
-0.4985496 -0.58249223 -0.038305808 0.33010864 -0.008926426 -0.34444457 0.07762283 0.13398026
-0.28853106 -0.2622783 -0.6639045 0.17058201 -0.49013427 -0.46927127 -0.00023748584 -0.5356476
-1.2791447e-08 -1.8589508e-05 0.09722195 -0.35839853 -2.6183726e-16 -3.039843e-09 0.20180355 0.38422337
-0.64720947 -0.58054745 -1.4795748e-14 -0.0040051425 -0.00047935412 -4.9532892e-17 0.20070983 -0.0004537786
-0.009528191 -1.7506818e-06 -3.265636e-07 -0.022181317 -0.475958 -0.39882675 -0.23371729 -0.013123744
-0.3805698 0.16615501 -0.05670884 -0.43204242 -0.0025654917 -2.1463795e-14 -3.9484551e-19 -0.33186898
-0.035434548 -0.36532184 -0.4211061 -1.7405711e-05 -5.5050926e-11 -0.009704638 -0.0061123855 -0.029400108
-0.39417285 -2.753114e-06 -0.030253341 -0.055286735 -2.4894369e-20 -0.00011336538 -0.008679221 -2.498234e-25
-0.8007558 -0.01908496 -5.3363266e-07 -0.00067733513 -3.1050375e-29 -0.11123646 -4.7351644e-20 -0.020726468
-0.5208529 -0.46114984 -0.32897645 0.23212276 -0.2724259 0.041506287 0.5144217 -6.5490347e-15
-0.00013207551 -1.2382622e-13 0.15436953 -0.003318788 -3.851246e-06 -0.020926263 -0.0046391767 -0.038788974
-6.437745e-23 -0.022819426 -0.008457261 -0.00014220516 -0.004208461 -0.016333034 -7.1646587e-06 -0.019132359
-0.00024402478 -5.48041e-40 0.027266575 -0.2890787 -0.010159229 0.1639851 -3.3618778e-23 -0.044444997
-0.74053246 -0.0010359739 0.072449215 -0.0074632927 -2.1569817e-06 -0.41224936 -0.012150122 -0.0029928947
-9.201237e-07 -0.0117062535 -2.959377e-11 -0.022901295 -0.02416918 -0.023738807 -0.41981363 -0.31188628
-0.007253335 0.08688418 -0.02155188 -2.0723703e-35 0.025060724 -0.0035088724 -0.23417307 -0.013322238
-0.0014582942 -0.6053489 -0.7390411 -2.5191926e-22 -0.02746701 0.21249142 -0.5708372 -0.57796335
0.22359024 0.20313354 -4.35385e-09 -0.40857548 -0.6456362 -3.4939818e-16 -0.07845713 0.2252924
-0.00654657 -0.0070102024 -1.1974121e-15 -9.661112e-10 -0.5948001 0.24851154 -0.005288909 -0.009044169
-0.053642873 -5.1690364e-17 -8.193962e-09 0.20582117 -0.020730037 0.21382058 -8.872109e-06 -0.017787356
00000000: 303d 529c 724b f3bc 8e9b 59bc ce89 d2be
00000010: 88be 85bc 4421 8c9b 3bb9 dda9 f2ff adbc
00000020: 9ad2 fbbe 3aa2 b7b8 16d9 3dbc 3681 b33e
00000030: 20c9 48bf e19c d0be fba0 3db4 e23e 07bf
00000040: cab2 1ab6 b0d2 f3bb 9d12 313e d360 85a6
00000050: d6f2 dc3d 8f74 72bb b3c9 978a 4b51 3cbe
00000060: 7475 20bf 867b 99b6 bd01 c2be 509d adb9
00000070: d6fe 88bc 4322 2abc f4b2 24bf 6fa3 18bf
00000080: d613 4abc 3e08 ddbe f1d3 34bf 390c 0abc
00000090: 44e3 1abc 00e2 38b6 1502 86bb cf3c 113e
000000a0: e541 ffbe 361e 15bf 8de6 1cbd 0004 a93e
000000b0: 2540 12bc 0a5b b0be b8f8 9e3d 1f32 093e
000000c0: 58ba 93be 5749 86be a5f5 29bf 0dad 2e3e
000000d0: e1f2 fabe 5344 f0be 9f05 79b9 3320 09bf
000000e0: 61c1 5bb2 aaf0 9bb7 4d1c c73d 0380 b7be
000000f0: 5cf0 96a5 7ce5 50b1 97a5 4e3e edb8 c43e
00000100: 85af 25bf c29e 14bf ac44 85a8 923d 83bb
00000110: d251 fbb9 1e6e 64a4 e186 4d3e 22e9 edb9
00000120: 211c 1cbc f8f8 eab5 8f52 afb4 98b5 b5bc
00000130: c4b0 f3be 0533 ccbe 9653 6fbe f904 57bc
00000140: 0bda c2be 8a24 2a3e 8747 68bd aa34 ddbe
00000150: cf21 28bb 2454 c1a8 5e13 e9a0 bbea a9be
00000160: d123 11bd 770b bbbe 389b d7be 7b02 92b7
00000170: d51d 72ae 3400 1fbc 684a c8bb 7fd8 f0bc
00000180: 06d1 c9be 23c2 38b6 dbd5 f7bc 5874 62bd
00000190: e41e eb9e 93be edb8 4b33 0ebc 19a2 9a96
000001a0: 55fe 4cbf 1058 9cbc f53e 0fb5 318f 31ba
000001b0: b171 1d90 f1cf e3bd a09c 5f9f 8eca a9bc
000001c0: 9e56 05bf d51b ecbe 9a6f a8be 97b1 6d3e
000001d0: 687b 8bbe 7f02 2a3d 24b1 033f 2ff4 eba7
000001e0: c07d 0ab9 7a6a 0baa 0c13 1e3e 0680 59bb
000001f0: f439 81b6 8e6d abbc 3c04 98bb 30e1 1ebd
00000200: b6a7 9b9a ceef babc 5390 0abc e81c 15b9
00000210: 21e7 89bb dbcc 85bc f367 f0b6 77bb 9cbc
00000220: e7e0 7fb9 b7f7 0580 275e df3c 2002 94be
00000230: e572 26bc b6eb 273e 0892 229a f50b 36bd
00000240: 8993 3dbf 84c9 87ba 4160 943d a38e f4bb
00000250: aac0 10b6 5912 d3be 4e11 47bc 7124 44bb
00000260: 6bfe 76b5 96cb 3fbc 9f27 02ae 7f9b bbbc
00000270: 72fe c5bc e377 c2bc d0f1 d6be 8faf 9fbe
00000280: 62ad edbb 55f0 b13d 918d b0bc 495f dc85
00000290: 264c cd3c 1cf5 65bb 11cb 6fbe 8445 5abc
000002a0: 3c24 bfba 25f8 1abf cc31 3dbf 9e46 989b
000002b0: 7f02 e1bc 5a97 593e 6322 12bf 68f5 13bf
000002c0: d7f4 643e 3d02 503e df98 95b1 ce30 d1be
000002d0: 6a48 25bf 126a c9a5 22ae a0bd 0db3 663e
000002e0: 9c84 d6bb d7b5 e5bb b690 aca6 04c8 84b0
000002f0: d244 18bf cf79 7e3e 964e adbb ff2d 14bc
00000300: a1b8 5bbd 3661 6ea4 6dc5 0cb2 c9c2 523e
00000310: 0ad2 a9bc c8f3 5a3e 6bd9 14b7 cab6 91bc

running_mean f4 [200]
1.592527e-38 -0.0057275705 -3.2738024e-18 -1.2440518 3.225749e-12 9.907296e-39 1.67823e-38 1.4864771e-12
-1.2007666 3.0637524e-38 -2.779422e-39 0.6724396 0.33641812 0.6193874 -2.3823666e-38 -0.926035
-4.295418e-39 9.689897e-08 -0.7682698 5.014524e-39 -0.7385596 2.2955824e-17 -9.764543e-39 -2.021963
-1.3814858 3.1724125e-38 -0.24888386 1.1562698e-38 1.6109771e-38 -1.2147328e-05 -1.7395586 -1.2073745
3.0936556e-38 -0.24927437 0.047614537 0.00031923607 -3.648998e-39 -7.042017e-39 -1.024787e-38 -0.081821665
-1.0213374 -0.7858588 -0.10506249 -1.1837597 -5.693127e-39 -2.5586371 -0.54611486 0.2776188
-0.85437727 -1.7892215 -0.19957283 -0.68798286 0.48671636 -1.5241321 -7.097645e-39 -0.052649897
-6.762207e-39 -3.821394e-39 0.4848825 -0.20886986 4.886118e-39 -1.7388159e-38 -1.7757717 -2.3910964
-0.42647368 -0.09510624 -1.842339e-39 -1.986476e-39 3.12703e-39 1.4903773e-38 1.3260866 1.5738779e-38
-2.1342197e-10 2.301707e-39 -4.0138748e-38 -8.945273e-39 0.6162337 -1.3743571 -1.7744293 -5.23658e-09
0.4724935 -1.1605573 -0.016310355 -0.91409975 5.707141e-39 1.4032359e-38 6.576813e-38 -1.7016691
0.32159206 -1.0139532 -0.9377806 -4.0678293e-38 -1.2859046e-19 -2.6528853e-38 2.5050486e-38 -0.00030358884
1.4291992 -1.9777048e-38 5.660162e-35 -0.014731445 -1.8770438e-38 -2.0166418e-38 0.26055872 -2.0461728e-38
-0.43304652 0.9161587 4.928678e-38 -2.2145993e-38 1.2001835e-38 0.09024813 4.5202312e-38 -1.3918944e-38
-0.24369457 0.14468688 -1.422225 -1.5375993 -0.7233008 -2.2064304 0.6716387 2.8562075e-38
-4.650831e-39 -9.23981e-39 -0.02399393 8.02675e-40 -1.9732035e-38 -1.03373004e-07 8.344683e-39 -0.10676968
-1.919158e-38 0.010675108 8.247878e-11 1.379703e-39 4.9991065e-14 -0.011809573 -3.0600267e-38 4.38861e-08
-1.3708023e-38 -3.5498318e-38 0.0631273 -2.0102167 -1.9090749e-21 0.35283732 8.397135e-39 0.00044713236
-0.5417724 -3.25209e-38 -0.42348936 -0.0018197778 -1.2187645e-38 -1.4500499 0.17943275 2.2170903e-30
3.835693e-38 -0.0009151345 -1.2745991e-38 0.00013389677 -0.013770258 5.799359e-11 -0.7559984 -1.3093928
-6.012177e-15 -1.5487367 -6.825982e-05 4.0596886e-38 -0.80575085 1.5199613e-38 -0.19427267 6.2103123e-07
2.0157458e-32 -2.3296077 -0.88186544 -5.019857e-39 -0.05055698 -2.0643487 0.7133451 -2.0804765
0.2363984 1.1735219 -2.4723535e-38 -1.2806654 -0.33684722 -6.40412e-40 -0.09498266 0.090915
1.0253141e-38 7.828727e-39 -1.9911493e-38 1.1997332e-38 0.009667144 -1.0527916 -1.5412938e-38 3.8001042e-38
0.07029436 5.784957e-39 4.5700026e-38 0.29478085 -0.64255345 -0.89570564 -1.2030442e-38 -2.5656474e-38
00000000: 2c69 ad00 58ae bbbb 6190 71a2 173d 9fbf
00000010: eefd 622c 83e1 6b00 39be b600 fb33 d12b
00000020: b8b2 99bf 7ace 2601 e643 1e80 0025 2c3f
00000030: ff3e ac3e 2c90 1e3f 58b5 0181 a110 6dbf
00000040: e1c5 2e80 c616 d033 54ad 44bf 749a 3600
00000050: 3e12 3dbf e8ba d323 9353 6a80 d767 01c0
00000060: 87d4 b0bf fab8 2c01 69db 7ebe 19e8 7d00
00000070: 7d6b af00 60cc 4bb7 dba9 debf 3f8b 9abf
00000080: 446f 2801 c841 7fbe 7607 433d 245f a739
00000090: ecbb 2780 47ae 4c80 e496 6f80 1e92 a7bd
000000a0: 2fbb 82bf 0b2e 49bf 012b d7bd 7085 97bf
000000b0: 1ffe 3d80 b6c0 23c0 2fce 0bbf 0d24 8e3e
000000c0: 78b8 5abf 3605 e5bf d25c 4cbe a51f 30bf
000000d0: e332 f93e c316 c3bf 5949 4d80 6ba7 57bd
000000e0: 48a2 4980 7e9c 2980 8542 f83e fbe1 55be
000000f0: 8234 3500 1d57 bd80 7d4c e3bf b907 19c0
00000100: c25a dabe 0fc7 c2bd b10f 1480 7da1 1580
00000110: e30c 2200 a849 a200 35bd a93f 5061 ab00
00000120: f2a8 6aaf 3910 1900 4089 5a81 c867 6180
00000130: 7ec1 1d3f efea afbf 8020 e3bf 72ed b3b1
00000140: abea f13e 248d 94bf 4b9d 85bc 7102 6abf
00000150: 3025 3e00 82cc 9800 b209 b301 4bd0 d9bf
00000160: b7a7 a43e 38c9 81bf 6412 70bf 4479 5d81
00000170: 15d0 17a0 d36f 1081 4863 0801 012b 9fb9
00000180: 00f0 b63f 5d5a d780 1179 9606 295c 71bc
00000190: 5864 cc80 c597 db80 f467 853e f9ce de80
000001a0: 46b8 ddbe 6089 6a3f df2b 8601 0526 f180
000001b0: 3cb0 8200 03d4 b83d d41a 7601 5a90 9780
000001c0: 128b 79be cc28 143e 780b b6bf 0ed0 c4bf
000001d0: 3e2a 39bf 2836 0dc0 84f0 2b3f b981 1b01
000001e0: a0a4 3280 d59c 6480 eb8e c4bc 88bd 0800
000001f0: e3dc d680 e9fd ddb3 95dd 5a00 10aa dabd
00000200: 51fa d080 a6e6 2e3c 6d5f b52e 0d06 0f00
00000210: c623 6129 f07c 41bc 8c9a 2681 477d 3c33
00000220: 6444 9580 6f45 4181 e348 813d 64a7 00c0
00000230: e13e 109d 18a7 b43e cc6f 5b00 176d ea39
00000240: 99b1 0abf 850f 3181 99d3 d8be 9c85 eeba
00000250: 32b6 8480 3c9b b9bf 38bd 373e 2adf 330e
00000260: c2d5 5001 a3e5 6fba a3ca 8a80 a466 0c39
00000270: a69c 61bc fa0e 7f2e 1c89 41bf 2f9a a7bf
00000280: 8c9c d8a7 013d c6bf b626 8fb8 cd07 5d01
00000290: b045 4ebf 5682 a500 6aef 46be f1b4 2635
000002a0: b753 d10a 4b18 15c0 efc1 61bf 52a9 3680
000002b0: d614 4fbd 4a1e 04c0 c99d 363f 8726 05c0
000002c0: 6c12 723e f735 963f 949b 0681 d8ec a3bf
000002d0: 3d77 acbe 35f9 0680 4586 c2bd a531 ba3d
000002e0: 96a5 6f00 4e3f 5500 24d1 d880 aea3 8200
000002f0: f162 1e3c e0c1 86bf 00d5 a780 b9e5 4e01
00000300: 7df6 8f3d 1bfe 3e00 8ad0 7801 84ed 963e
00000310: 627e 24bf f74c 65bf faff 8280 e8af 0b81

running_var f4 [200]
6e-45 0.000903033 3.1583521e-35 3.1620853 3.08749e-23 6e-45 6e-45 4.113266e-23
22.233585 6e-45 6e-45 14.022775 4.909856 6.7287383 6e-45 9.022251
6e-45 5.492063e-14 12.6745825 6e-45 5.19215 2.2117556e-33 6e-45 6.0535727
3.566445 6e-45 3.3786247 6e-45 6e-45 1.8791124e-09 3.6243954 2.8982172
6e-45 0.32880554 0.020931637 5.881501e-07 6e-45 6e-45 6e-45 7.472549
3.9375296 3.5518913 0.27496693 10.131103 6e-45 6.067304 0.72377634 9.088157
9.540017 5.7873216 12.160026 9.454425 4.8127575 4.150725 6e-45 3.3688755
6e-45 6e-45 6.12339 1.5140554 6e-45 6e-45 10.136055 17.747505
9.0427265 3.513554 6e-45 6e-45 6e-45 6e-45 11.662353 6e-45
9.9519347e-20 6e-45 6e-45 6e-45 3.794511 5.5050497 4.53606 1.8241733e-15
2.1786947 13.319446 0.0014477869 9.43585 6e-45 6e-45 6e-45 3.8106482
0.903679 6.8693767 9.68121 6e-45 3.174868e-37 6e-45 6e-45 1.2881532e-06
4.8176394 6e-45 6e-45 0.0024980821 6e-45 6e-45 0.49834093 6e-45
8.437486 15.333499 6e-45 6e-45 6e-45 0.041942745 6e-45 6e-45
4.1699705 2.5980332 4.6460314 2.8274739 2.4839916 4.630211 6.8998904 6e-45
6e-45 6e-45 4.4764266 6e-45 6e-45 1.6074413e-13 6e-45 0.52920926
6e-45 0.0027928 1.2742304e-20 6e-45 6.2442216e-27 0.00060786476 6e-45 3.9055304e-15
6e-45 6e-45 0.2073365 9.485157 9.834e-42 8.395499 6e-45 2.1536785e-05
4.539171 6e-45 5.082472 0.0010695527 6e-45 2.5440261 0.30273464 6e-45
6e-45 8.168552e-06 6e-45 1.7949515e-07 0.005434688 4.0303135e-21 12.334332 6.061242
6.536945e-29 9.5318165 7.267418e-08 6e-45 9.19812 6e-45 0.33229774 7.0791736e-12
6e-45 3.8227606 2.4400465 6e-45 0.11027209 9.689346 0.9217686 2.850176
7.116312 11.184072 6e-45 5.134913 5.9390826 6e-45 7.1590366 8.726555
6e-45 6e-45 6e-45 6e-45 7.2221346 9.963304 6e-45 6e-45
0.034063924 6e-45 6e-45 10.360226 3.6461556 13.205141 6e-45 6e-45
00000000: 0400 0000 85b9 6c3a 43ed 2706 9b5f 4a40
00000010: 464d 151a 0400 0000 0400 0000 c4e7 461a
00000020: 62de b141 0400 0000 0400 0000 495d 6041
00000030: 8a1d 9d40 d351 d740 0400 0000 245b 1041
00000040: 0400 0000 2d57 7729 17cb 4a41 0400 0000
00000050: 1826 a640 d7be 3709 0400 0000 deb6 c140
00000060: a340 6440 0400 0000 633b 5840 0400 0000
00000070: 0400 0000 b221 0131 18f6 6740 647c 3940
00000080: 0400 0000 3359 a83e d378 ab3c 5ee1 1d35
00000090: 0400 0000 0400 0000 0400 0000 1f1f ef40
000000a0: 7c00 7c40 3052 6340 77c8 8c3e ff18 2241
000000b0: 0400 0000 5b27 c240 6849 393f 1769 1141
000000c0: e9a3 1841 bd31 b940 778f 4241 5345 1741
000000d0: 1c02 9a40 bdd2 8440 0400 0000 a89b 5740
000000e0: 0400 0000 0400 0000 d0f2 c340 91cc c13f
000000f0: 0400 0000 0400 0000 482d 2241 e4fa 8d41
00000100: 02af 1041 12de 6040 0400 0000 0400 0000
00000110: 0400 0000 0400 0000 ff98 3a41 0400 0000
00000120: c1fb ea1f 0400 0000 0400 0000 0400 0000
00000130: 45d9 7240 5e29 b040 6727 9140 0f72 0327
00000140: bc6f 0b40 731c 5541 abc3 bd3a 3ef9 1641
00000150: 0400 0000 0400 0000 0400 0000 a9e1 7340
00000160: 8257 673f efd1 db40 3ce6 1a41 0400 0000
00000170: 0012 d802 0400 0000 0400 0000 9be4 ac35
00000180: 1a2a 9a40 0400 0000 0400 0000 ddb6 233b
00000190: 0400 0000 0400 0000 8b26 ff3e 0400 0000
000001a0: f1ff 0641 0356 7541 0400 0000 0400 0000
000001b0: 0400 0000 28cc 2b3d 0400 0000 0400 0000
000001c0: 6670 8540 2d46 2640 4aac 9440 55f5 3440
000001d0: b8f9 1e40 b02a 9440 e7cb dc40 0400 0000
000001e0: 0400 0000 0400 0000 e33e 8f40 0400 0000
000001f0: 0400 0000 57fb 342a 0400 0000 427a 073f
00000200: 0400 0000 6907 373b 00b2 701e 0400 0000
00000210: ee5b f713 1d59 1f3a 0400 0000 29b6 8c27
00000220: 0400 0000 0400 0000 0550 543e 34c3 1741
00000230: 6a1b 0000 f753 0641 0400 0000 e5a9 b437
00000240: e440 9140 0400 0000 9ca3 a240 3c30 8c3a
00000250: 0400 0000 53d1 2240 0900 9b3e 0400 0000
00000260: 0400 0000 aa0b 0937 0400 0000 40bb 4034
00000270: 7815 b23b cd42 981d 6d59 4541 b2f5 c140
00000280: 33bb a510 5282 1841 0e11 9c33 0400 0000
00000290: 802b 1341 0400 0000 ee22 aa3e 8713 f92c
000002a0: 0400 0000 1ca8 7440 b929 1c40 0400 0000
000002b0: 55d6 e13d 9007 1b41 07f9 6b3f 4969 3640
000002c0: d4b8 e340 f5f1 3241 0400 0000 3551 a440
000002d0: f70c be40 0400 0000 d416 e540 f89f 0b41
000002e0: 0400 0000 0400 0000 0400 0000 0400 0000
000002f0: ba1b e740 b169 1f41 0400 0000 0400 0000
00000300: 9d86 0b3d 0400 0000 0400 0000 7cc3 2541
00000310: 9d5a 6940 4248 5341 0400 0000 0400 0000

weight f4 [4, 200]
2.71891e-40 0.0125827985 -0.017519085 -0.109774396 -3.0185463e-05 1.640532e-39 -2.153766e-11 0.006843011
-0.38502952 3.2120468e-05 0.0064917034 -0.15952794 0.14419438 -0.1833995 1.0610283e-28 -0.210467
3.1764562e-06 -0.007043086 0.1365476 0.012226126 0.16527303 0.002360702 5.3335496e-35 -0.18073046
-0.34123182 -2.1531548e-07 0.11886251 5.496666e-39 -0.017252969 0.004909589 -0.25340205 0.16447298
0.015408223 0.01980018 0.01164107 0.002425324 0.007240136 -0.00060932164 0.004296052 -0.16684419
-0.07929916 -0.080864824 0.021373235 -0.06036342 -0.008298128 0.2908083 -0.006888265 -0.26431867
0.158794 0.06282565 0.18806672 0.10707995 -0.13139035 0.23660807 -0.007167721 0.06678178
-4.1909046e-12 2.320542e-39 -0.07958785 0.010538667 -3.194279e-19 -7.028314e-19 0.17413133 -0.054551184
0.16645448 -0.058859695 -2.396765e-39 -0.0013928168 0.0011878718 5.886418e-39 -0.06872994 -1.6032004e-17
-0.009266966 -0.00057625386 -7.723963e-07 -0.022315431 -0.07280961 0.3289422 0.19687474 0.0006942687
-0.0013620915 -0.01747992 0.015020031 -0.1369931 -0.003413356 4.3544362e-16 -1.083995e-39 0.25397307
-0.0016794989 -0.0989452 -0.03916817 -0.0003236546 2.8146287e-05 -0.0056365607 0.020857781 0.017240344
-0.030815685 -1.1227374e-06 -0.0011644703 -0.0029558714 -4.606287e-13 9.67565e-35 -0.0026706608 -1.3485109e-25
0.26063585 0.19211029 -3.784215e-34 0.0006192271 -2.3122733e-19 -0.0132365925 2.2935815e-23 1.79482e-39
-0.11985003 0.008885884 0.23042198 -0.053428374 0.025560519 0.19942518 0.05268407 -1.9413639e-13
5.1769817e-05 -3.125443e-39 -0.059786648 -0.0011102584 -0.0008867023 -0.003227119 -0.0013742244 0.005740728
0.00014084419 -0.003311009 0.00043781506 0.00018074879 0.0073199654 -0.0024993902 1.6261595e-32 0.020651741
0.00017673286 -6.397164e-39 0.022304205 -0.14144872 0.004231529 -0.18188241 -3.602403e-39 -0.0043207863
0.5333978 -3.873517e-39 -0.09942841 0.01173855 1.384027e-39 0.03609208 0.001299055 -0.0022662978
6.653866e-08 0.017805066 4.194546e-39 0.011854069 -0.018787544 -0.008241341 -0.2601631 0.037288703
-0.0009809864 0.14552563 0.0148494085 -6.9818435e-35 -0.13998692 0.0001645005 0.030766632 -0.0060012126
-0.0020773248 -0.303688 -0.3322356 -1.4776505e-23 -0.029210381 -0.047406502 0.003394963 -0.32151768
0.029536376 -0.07491332 -2.527487e-39 0.3301338 0.070526466 -1.994939e-39 0.07324892 -0.12601797
-0.010316589 0.0011096274 0.00080468744 -1.2484626e-25 -0.22995117 0.19124798 -0.003183178 -0.02315436
0.0013190022 -1.3418366e-19 -1.9642926e-21 -0.16903469 0.07476486 0.15906177 -9.5818075e-05 -0.01241498
-1.6737697e-38 -0.0013573334 -1.446748e-39 0.008202795 5.152366e-16 3.761709e-39 1.706308e-39 -5.5173035e-07
0.014189804 -1.928924e-39 9.845214e-16 -0.02731418 0.0065924483 0.0016153994 2.592151e-39 -0.0006391477
4.37349e-39 6.619927e-39 -0.006341989 -7.328993e-39 0.0004955439 1.35705e-40 -3.940671e-35 -0.00028598675
0.0006793231 -3.311955e-39 -0.0006282853 -4.973138e-39 1.5901417e-17 -0.0010989767 -0.0012258203 -0.0024450275
1.1284589e-32 -0.048046794 0.0014256606 1.881998e-39 5.00946e-40 5.897475e-39 -1.897176e-39 0.006313842
-0.016682098 0.0012178636 -0.02053889 -0.0030159862 -1.700663e-39 0.000897999 0.012573189 0.00032529613
-0.02059459 -0.0038873698 -0.0071346583 -0.0034978914 -0.0066087716 -0.0010068245 -6.565138e-39 -0.0036118317
00000000: ecf5 0200 1528 4e3c 2f84 8fbc 66d1 e0bd
00000010: ca36 fdb7 23dd 1100 8072 bdad 563b e03b
00000020: 9722 c5be 17b9 0638 5bb8 d43b 4b5b 23be
00000030: b1a7 133e 14cd 3bbe 5680 0611 a984 57be
00000040: 1a2b 5536 b0c9 e6bb 22d3 0b3e 1750 483c
00000050: 553d 293e 02b6 1a3b 42ca 8d06 6811 39be
00000060: f0b5 aebe 7831 67b4 306e f33d 78da 3b00
00000070: 1956 8dbc 9ee0 a03b eabd 81be 9b6b 283e
00000080: c572 7c3c fd33 a23c 30ba 3e3c 2ff2 1e3b
00000090: aa3e ed3b e2ba 1fba e5c5 8c3b 34d9 2abe
000000a0: 9967 a2bd 759c a5bd ec16 af3c a23f 77bd
000000b0: dff4 07bc d3e4 943e f4b6 e1bb c754 87be
000000c0: e59a 223e bcaa 803d 9094 403e bc4c db3d
000000d0: 318b 06be 6349 723e 34df eabb e3c4 883d
000000e0: 5074 93ac ba44 1900 f4fe a2bd 60aa 2c3c
000000f0: 948e bca0 7070 4fa1 7c4f 323e 1071 5fbd
00000100: 0b73 2a3e dd16 71bd 3519 1a80 2d8f b6ba
00000110: 5db2 9b3a f018 4000 48c2 8cbd 80de 93a3
00000120: 79d4 17bc be0f 17ba ab56 4fb5 dace b6bc
00000130: 341d 95bd 1d6b a83e 8899 493e 95ff 353a
00000140: 3588 b2ba 0d32 8fbc 9316 763c eb47 0cbe
00000150: 9cb2 5fbb 2304 fb25 bdcd 0b80 c208 823e
00000160: a222 dcba c8a3 cabd ce6e 20bd 2fb0 a9b9
00000170: b11b ec37 e6b2 b8bb f0dd aa3c 9f3b 8d3c
00000180: 2d71 fcbc f7b0 96b5 24a1 98ba 4bb7 41bb
00000190: cca7 01ab 889c 0007 4106 2fbb 04f0 2696
000001a0: 1072 853e 8fb8 443e 1581 fb87 a153 223a
000001b0: 167e 88a0 4bde 58bc 54d2 dd19 3a8b 1300
000001c0: ef73 f5bd 1996 113c bdf3 6b3e b6d7 5abd
000001d0: 4b64 d13c 1d36 4c3e 40cb 573d 0194 5aaa
000001e0: 6b23 5938 7708 2280 d8e2 74bd 1786 91ba
000001f0: 9671 68ba 137e 53bb 521f b4ba b81c bc3b
00000200: 93af 1339 83fd 58bb 8b8a e539 6287 3d39
00000210: 52dc ef3b cfcc 23bb bcde a80a d72d a93c
00000220: 5e51 3939 b1a8 4580 4fb7 b63c efd7 10be
00000230: a3a8 8a3b 623f 3abe 093a 2780 6295 8dbb
00000240: c28c 083f ca2d 2a80 1fa1 cbbd 0c53 403c
00000250: 1b12 0f00 4ad5 133d 0d45 aa3a 2b86 14bb
00000260: 04e4 8e33 eedb 913c b0ac 2d00 9237 423c
00000270: 56e8 99bc b106 07bc 1934 85be 0abc 183d
00000280: 7194 80ba ac04 153e ef4a 733c f79b b986
00000290: bb58 0fbe c47d 2c39 4e0a fc3c d2a5 c4bb
000002a0: ba23 08bb fe7c 9bbe c91a aabe dbe8 8e99
000002b0: 9c4a efbc 522d 42bd 077e 5e3b f79d a4be
000002c0: 45f6 f13c 286c 99bd 9b85 1b80 4c07 a93e
000002d0: 2e70 903d 14b9 1580 8803 963d db0a 01be
000002e0: e906 29bc eb70 913a a9f1 523a 5c8d 1a96
000002f0: 5278 6bbe 83d6 433e dd9c 50bb 36ae bdbc
00000300: 5fe2 ac3a 866a 1ea0 f26a 149d 6e17 2dbe
00000310: 521e 993d 17e1 223e f0f1 c8b8 3368 4bbc
00000320: e441 b680 8de8 b1ba f2c0 0f80 0465 063c
00000330: c081 1426 1df6 2800 7e94 1200 9f1a 14b5
00000340: 5a7c 683c 0e01 1580 6ee2 8d26 fdc1 dfbc
00000350: 7705 d83b cfbb d33a dd39 1c00 7a8c 27ba
00000360: 839f 2f00 aa15 4800 76d0 cfbb 40ce 4f80
00000370: 63e7 013a 4a7a 0100 a285 5186 7ef0 95b9
00000380: 9a14 323a 6210 2480 83b3 24ba 1627 3680
00000390: 29aa 9223 8a0b 90ba b4ab a0ba c13c 20bb
000003a0: 2b5f 6a0a b7cc 44bd 3bdd ba3a 3f7e 1400
000003b0: 6f74 0500 c337 4000 8ea8 1480 58e4 ce3b
000003c0: e5a8 88bc b9a0 9f3a 2d41 a8bc daa7 45bb
000003d0: c284 1280 b167 6b3a c7ff 4d3c 828c aa39
000003e0: fcb5 a8bc 3ec3 7ebb dac9 e9bb e13c 65bb
000003f0: 658e d8bb 6df7 83ba ef7c 4780 7bb4 6cbb

bias f4 [4]
0.0044272644 0.0052174437 -1.2292367 0.014401043
00000000: 9612 913b 17f7 aa3b a157 9dbf 5af2 6b3c
