experiments/hyperspectral/model_salient_beta_3.pth (torch, 290240 bytes, 27 tensors)

weight f4 [10, 1, 9]
00000000: d75c 0fbe d3a2 b2be 0aa8 d3be 52f1 24be
00000010: 63ec 37be 8865 dbbb af15 75be 9d86 06be
00000020: a0a5 133f a1b7 cc3e fb54 9e3d a967 62be
00000030: 1d20 85bd 4bbf b83e 4ab1 a93e ae1d 9f3d
00000040: 6316 813e 95b0 87be 5433 1d3e 9b3b d33d
00000050: 7e07 103e c7c2 64bd a34b 5b3e 7bbc 1a3e
00000060: 13fb 943d f125 0a3e f5da 373f 19e7 65bc
00000070: 1389 af3e 3f0b 333e 0cd3 813c 4f15 f13c
00000080: 78e1 263e 8893 3a3e c06f 923e 96cc fabe
00000090: c676 973e 4cf5 c53e b035 9f3e b82f 09be
000000a0: 2de8 193d cb77 2abc a3d6 a03e 03c6 a33e
000000b0: 59fc 08bd f457 0f3e 1930 e23c c424 e8bd
000000c0: ccd7 c9bd 051d cabd b43f c83c 7895 d8bd
000000d0: 6ba3 943d 1c90 d83f b25a eb3d a0fc b1be
000000e0: abfd 8fbe 5498 f4bd 7fc5 89be a779 3dbe
000000f0: c0ce 55be 475e 1f3c 091a 1e3f 49c2 0a3e
00000100: be5e a53e 6b05 483e 488a 513e 3a45 823c
00000110: 4662 3dbe 0832 acbe d48a febe f6fa fcbe
00000120: f240 c7be 6b96 a6be be23 88bd 05e5 d83b
00000130: 2ed0 fbbb 2ba1 513e 2d80 993e 1a19 0a3f
00000140: 9fd4 0e3f 71b1 e6be c5eb 94be b53e 753c
00000150: f166 c2bd 21e9 c5bc 1a86 14be 8860 78be
00000160: ad56 c1be 1999 13be
-0.1400026 -0.3488985 -0.4133914 -0.16107681 -0.17961268 -0.006695453 -0.23934053 -0.13137288
0.576746 0.39983848 0.077310525 -0.22109856 -0.06500266 0.36083445 0.33143073 0.07769333
0.25212392 -0.2650191 0.15351611 0.10314103 0.14065358 -0.055849817 0.21415572 0.15110962
0.07274451 0.13491036 0.71818477 -0.014032149 0.34284267 0.17484759 0.015847705 0.029429106
0.16296947 0.18220341 0.28600883 -0.48984212 0.29582804 0.3866371 0.31095648 -0.1339711
0.037574936 -0.010404537 0.31413755 0.31987008 -0.033443782 0.13998395 0.027610825 -0.113351375
-0.09855613 -0.09868816 0.024444439 -0.10575384 0.07257732 1.6918979 0.11491908 -0.3476305
-0.2812322 -0.11943117 -0.2690849 -0.18503438 -0.2087965 0.009727067 0.61758476 0.13550676
0.32298845 0.19533317 0.20462906 0.01590215 -0.1849452 -0.3363192 -0.49715292 -0.49410218
-0.38916737 -0.32536635 -0.06647442 0.006619098 -0.007684729 0.20471637 0.29980603 0.5394455
0.55793184 -0.45057252 -0.29086128 0.014968564 -0.09492291 -0.024159016 -0.1450428 -0.24255574
-0.3776144 -0.14413871

bias f4 [10]
00000000: 9347 0b3a 5c10 183a 7ca2 34b9 1ee9 573a
00000010: f46d e139 b8c6 4cb9 8062 fe38 50ba 80b8
00000020: f190 cdb8 c0a4 1a39
0.00053130946 0.00058007776 -0.00017226668 0.0008236336 0.00042997266 -0.00019528985 0.00012130011 -6.138219e-05
-9.802159e-05 0.00014747959

weight f4 [10]
00000000: a2ee 473f c866 653f b1b8 193f de28 5e3f
00000010: 931a 583f 2eca ac3f fa22 613f 8dd3 0f3f
00000020: 3fb8 4c3f 0139 473f
0.780985 0.89609957 0.6004744 0.8678111 0.8441555 1.34992 0.87943995 0.56182176
0.7996864 0.77821356

bias f4 [10]
00000000: 2a45 33bf c225 24bf 35ed 3dbe c666 d4bc
00000010: d541 96bf f963 e13e 5aef 07bf d471 2dbc
00000020: a6be 61bd cc24 583d
-0.7002741 -0.64120114 -0.18547519 -0.025927912 -1.173884 0.44021586 -0.53099597 -0.010586221
-0.055113457 0.052769467

running_mean f4 [10]
00000000: bd66 13bd 58cb 043d 7bdf 613d b640 c63c
00000010: 3a50 4f3d 3216 523d 5345 bfbc 7aa2 b4bc
00000020: 57bb ec3c 9603 75bd
-0.03598665 0.032420486 0.05514477 0.024200778 0.05061362 0.0512907 -0.023348486 -0.022050131
0.028897924 -0.059817873

running_var f4 [10]
00000000: 89c8 8c3f 08ab 663f 8ecd 2340 daab fd3e
00000010: 7c5c 0a40 3f3e 1140 6b77 f53e ccc5 ec3e
00000020: e558 3f3f caf7 3e40
1.0998698 0.9010472 2.559421 0.49545175 2.1618948 2.2694242 0.4794267 0.46244657
0.7474502 2.9838738

weight f4 [10, 10, 10]
00000000: 77f2 3bbe d96d 14be 8d29 2dbe 574e ccbd
00000010: 567a febd d58c 08be ccdf e5bd 9131 dabd
00000020: bfd5 74be b1a4 80bc f015 073d c9c9 393e
00000030: 5304 6d3e 4546 6b3e d110 a23e 8968 9e3c
00000040: f951 803d 0612 35bd bb2b eabd ff35 9ebe
00000050: 097d cb3e 463c 973e 9816 8b3e 8bcd 113e
00000060: 2f96 2a3e 051c b03d 5915 2ebb 4ec8 94bc
00000070: 2970 1abf 772a 73bd 8c1d a73e 10c0 cc3e
00000080: 9bbb a83e 9003 773e 880d 0d3e 0cf4 893d
00000090: 95be 093e 5266 9e3c 8a17 dd3e 3a2f 91bd
000000a0: 47b6 773d 9471 e63d 346e e03d a85b e43d
000000b0: 953b 053c 299d 16be fde3 68be 8517 b5be
000000c0: e3ba 98be 4acf 0cbf 4363 bc3e 63f2 0f3e
000000d0: 15c0 7b3e def5 473d 0b37 ec3d 233a d83c
000000e0: 39ee 3abe ed5a e7bc 207a abbf 5a02 c1bd
000000f0: 18a3 d4be 53ab b9be 9064 ddbe e380 50bd
00000100: 8a87 46bd a45f b1bd bcb5 60bd 747f c0bc
00000110: c3ed 4fbe 6ce7 de3d 8e8e 273d d9b6 893d
00000120: 7de8 5e3d b6c2 053e b9f3 423e 7e02 c4bd
00000130: b6a5 acbd a4f6 b53c d4ec 1e3e 99e4 213e
00000140: 44ec ad3e 5dfb 3f3b 7687 ce3d 18ae b93d
00000150: 0a27 b33d 1259 b8bc 03ba f4bd d15c f5bd
00000160: c96c 23bf 2302 bdbd fb55 a4bd 8992 333c
00000170: 8b29 893d 85cd 863d 356e b53d 74c8 9f3d
00000180: 0650 d03d 4316 283e 1ae5 003e 23f4 a23d
00000190: 1152 5bbe cab0 73be 689a 89be 3229 5ebe
000001a0: 950d 55be 342b 17be 6e71 25be 6eab 28be
000001b0: 508e 10be 485c 95be 1eae 42be a074 123f
000001c0: 1f0d f5bc dd1a 793e f2e5 da3e 7ddf 863e
000001d0: 2319 403f 5d30 753e ac1a 063f 74d3 423e
000001e0: 8e80 343e f5fa c53d 63e5 2f3e 549c 3ebd
000001f0: 8b48 933e 28c6 383d 31b7 393e 8563 003e
00000200: 14cb 92be 7435 1d3e 3c38 f1bd d67f 77bb
00000210: acf9 8fbe 0697 e83c 5696 32be c4b8 6bbd
00000220: 10c0 89bd 4e20 3abd 9864 563e 1623 c4bd
00000230: 49ba 1e3f 5a4d 8d3f ba46 1c3f 0c41 9a3f
00000240: 2003 7f3f c875 873f ac4a 3e3f 70a1 a93e
00000250: 6c5f f93d d91f fc3e 707a 563e 38d7 67be
00000260: 3e66 ac3d e807 99be 18da 463e 9303 06be
00000270: db49 663d 0735 96bb 78d8 efbe 4e11 9b3c
00000280: 18f6 1abe 86ee 62be 78e4 abbe 741a 75be
00000290: 73b6 65be cc40 acbd b53d 1cbd 35c3 a0bd
000002a0: 5d7d 413d 4142 9abe b0f4 a43d 6704 893d
000002b0: bf2d e73d 068d fc3d abfc ca3d 68a0 783d
000002c0: bf02 9e3d 8ceb b03d 8bfa 973d da02 52be
000002d0: eb0e 143f 06ae e5be cabe a03e c9b7 fabd
000002e0: cbe6 5c3e a655 123e fa80 453e f137 5d3e
000002f0: 5ca8 acbe f7b3 933e a8d7 f33d 5969 c53d
00000300: fbe4 ef3d 3581 143e 4304 0a3e a5cd f13d
00000310: 34e8 983d ea8e a03d f238 043d 733e 85be
00000320: a768 93be 5e71 333c 723c f3bc 5a51 aa3c
00000330: 3de9 a63d 3b0e d83c 3ebb 8b3b c53e 08be
00000340: c2d2 45be 7170 203e d002 2d3f cc43 903e
00000350: c2fb 533e 88f2 71bc 8d16 84bd 8f4f 6ebc
00000360: e82d b2bc 7d78 a63d 53fe 293d dddc 7f3d
00000370: 3ff3 433f 6980 b53e c3e6 583d f7db 4d3d
00000380: d508 b43d 65e3 0c3e 5c02 043e 93fc 053e
00000390: d208 5c3e e0c3 ebbc 35ff 423f f30d 91bd
000003a0: 6f73 3b3e 15b0 d93d fc6a f03c 274f d0bd
000003b0: 5524 3fbd fb27 ac3d af44 cdbd 5ef0 34be
000003c0: 5157 d9be 64c6 07bf ff5f dcbe 004e a0be
000003d0: d3c4 55be 65b3 93bd 5d13 9cbc ee45 393d
000003e0: 8d5a 943c b01a 76bd 4746 583c 79f5 5fbe
000003f0: 741c 24bf b828 fabe ab4d e5be 2890 43be
-0.18354212 -0.14495029 -0.16910382 -0.0997588 -0.124256775 -0.13334973 -0.112243265 -0.10653985
-0.23909663 -0.015703531 0.032979906 0.18143381 0.23146181 0.22976024 0.31653455 0.019336956
0.06265635 -0.04420664 -0.11434122 -0.3090057 0.39743832 0.29538172 0.27165675 0.14238565
0.16658853 0.08599094 -0.0026563017 -0.018161919 -0.6032739 -0.05936667 0.3263973 0.39990282
0.32955632 0.24122453 0.13774693 0.06736001 0.13451608 0.0193359 0.4318202 -0.07089086
0.060476568 0.11252132 0.109585196 0.111502945 0.008131881 -0.1470839 -0.2274322 -0.35369506
-0.29830083 -0.550038 0.3679448 0.14057307 0.24584992 0.04881846 0.11533936 0.02639491
-0.18254937 -0.028241599 -1.3396645 -0.09424277 -0.4153068 -0.36263523 -0.43240786 -0.050904166
-0.048469104 -0.0866082 -0.054860815 -0.023498274 -0.20305543 0.10883984 0.040907435 0.067243285
0.054420937 0.13062558 0.19038285 -0.09570788 -0.08430044 0.022212334 0.1552003 0.1580986
0.3396932 0.0029294111 0.10084431 0.09066409 0.087476805 -0.02250341 -0.119495414 -0.11980594
-0.6383787 -0.09228923 -0.08024212 0.01096023 0.06697377 0.065821685 0.08858911 0.07801905
0.10171513 0.16414742 0.12587395 0.07956722 -0.21418025 -0.23797908 -0.26875615 -0.21695402
-0.20805962 -0.14762574 -0.16156551 -0.16471645 -0.14116788 -0.29171968 -0.19011733 0.57209206
-0.029913483 0.24326654 0.4275356 0.26342383 0.75038356 0.2394423 0.5238445 0.19025975
0.17627165 0.09667007 0.17177348 -0.046535805 0.28766283 0.04511085 0.18136288 0.12537964
-0.2867056 0.15352422 -0.11778304 -0.0037765405 -0.28120172 0.028392326 -0.17440161 -0.057549253
-0.06726086 -0.045440964 0.20936811 -0.095770046 0.62003 1.1039231 0.6104542 1.2051101
0.99614143 1.0582819 0.7433269 0.3313098 0.121764034 0.49243048 0.20945144 -0.22640693
0.08417939 -0.29888844 0.19419134 -0.13087301 0.056222778 -0.004583958 -0.4684484 0.01892915
-0.1513294 -0.22161302 -0.33572745 -0.23935872 -0.2243288 -0.084107965 -0.038144786 -0.07849733
0.047238696 -0.30128673 0.08054483 0.06690293 0.11288022 0.123315856 0.09911474 0.06069985
0.077153675 0.08638677 0.07420834 -0.205089 0.57835263 -0.44859332 0.3139556 -0.122420855
0.21572416 0.14290485 0.19287482 0.21603371 -0.33722198 0.2884824 0.119063675 0.09639234
0.117135964 0.14502414 0.13478188 0.11806802 0.07466164 0.07839759 0.03228087 -0.26024207
-0.2879078 0.010952322 -0.029691909 0.020790745 0.081499554 0.026373973 0.0042642644 -0.13305195
-0.19318679 0.15667893 0.67582417 0.28176725 0.20701507 -0.014767297 -0.06449614 -0.014545335
-0.021750405 0.0812845 0.041502308 0.06246649 0.7654304 0.35449532 0.052954447 0.050258603
0.08790747 0.13758619 0.12891525 0.1308463 0.2148774 -0.028779924 0.76170665 -0.07082739
0.18305753 0.10629288 0.02934789 -0.10171347 -0.04666551 0.08406063 -0.10022866 -0.17669818
-0.4244943 -0.53037095 -0.4304199 -0.3130951 -0.20875864 -0.07211951 -0.019052202 0.045232706
0.018109584 -0.060084045 0.013200349 -0.21870984 -0.64105916 -0.4885919 -0.44785818 -0.1909796

bias f4 [10]
00000000: 601d 7e39 5410 31b9 28e9 04b9 0c63 fb38
00000010: b631 dbb6 e9d8 0439 aa39 f438 42c7 4f39
00000020: f048 1137 283e 1b39
0.0002423427 -0.00016886118 -0.00012675358 0.000119870616 -6.5324957e-06 0.00012669306 0.000116455674 0.00019815288
8.659656e-06 0.00014805107

weight f4 [10]
00000000: 0b58 623f 9270 803f 5de0 743f c2ae 873f
00000010: 8f7f 6a3f 6ac4 183f 12ec 6e3f 9719 363f
00000020: d25e 313f e052 083f
0.8841559 1.0034354 0.9565485 1.0600207 0.9160089 0.59674704 0.93328965 0.71132797
0.6928531 0.5325146

bias f4 [10]
00000000: 28ba f2be e511 b9bf cc3c 20bf 4453 b1be
00000010: cd13 81bf c448 c3be 17d1 83be 98ab 06be
00000020: 1ff2 ecbe e814 19bc
-0.4740765 -1.4458586 -0.6259277 -0.3463384 -1.0084168 -0.38141453 -0.2574546 -0.13151395
-0.46278474 -0.009343363

running_mean f4 [10]
00000000: b14b cf3e 1e55 083f 8267 9fbf 0f56 7dbf
00000010: f572 c03f 1e74 06bf 4f5c 19c0 6831 86bf
00000020: aab7 6ec0 31e3 20c0
0.40487435 0.5325488 -1.2453463 -0.9895944 1.5035082 -0.5252093 -2.396259 -1.0483828
-3.72996 -2.5138667

running_var f4 [10]
00000000: 03fa c53f 0ee4 2740 a500 6e3f 468f df41
00000010: b212 2b40 0601 5141 9169 0741 e15e 4841
00000020: 8d56 2541 e313 f540
1.5466923 2.6232944 0.92969733 27.944958 2.673016 13.06275 8.463273 12.523164
10.333631 7.6586776

weight f4 [200, 160]
00000000: 8398 423d b7c0 45be 608d 13be e4d4 4cbd
00000010: 185e acbd 8d11 e2bd 7d50 a9bd 917f 10bc
00000020: cff3 c03c 0d89 7b3d 5633 993d c010 893d
00000030: a328 a0bd 009b 72be 1567 3bbe ddd9 b93d
00000040: 3e14 29be acc1 f0bd 4cf7 b0bd ab27 edbc
00000050: dda4 98bc 1054 7abd e270 55bd ee96 803d
00000060: 6d3b febc 52c3 1d3d 7afe a43a 6335 acbc
00000070: aaf4 a9bd d0e2 4e3d 49c0 4d3c 2ea5 323d
00000080: 966d bbbe 4dfb c3bd caef 05be ad06 83bd
00000090: 05ec 20bd 1ac6 9cbd ed05 a5bd bfb0 e7bd
000000a0: 08ec a3bd 3e81 e8bd 2f7b d5bd 7eee e3bd
000000b0: c112 0c3c d8f0 f03d 8acc d43e 020b d9be
000000c0: 3fcf 08be 1b34 84bd d798 bebd b20d a1bd
000000d0: 3438 25bd 8bff a3bb a09b ab3a ee10 28bc
000000e0: 82a0 cebb cd91 aabc 4292 58bd 625a 17be
000000f0: 15d0 0dbe edf0 9abd dc22 99be 0f15 49bf
00000100: d9c3 863c a58f 173e f15b 043e a861 d73d
00000110: 9d49 8f3c 2046 0cbc 5a9e 62bc bfd2 d13c
00000120: 7477 493d 9a59 f1bc 31cf a03c b3e7 8a3d
00000130: f954 7f3b b886 c7bd 9ad1 84be 0c79 12c0
00000140: 385f 0bbe d6da 22be 7ba7 26be 5b14 19be
00000150: 1e34 cebd 9d5c 33bd 9e27 fdbc 9619 4dbd
00000160: ba7d 04bd 9497 9c3c 7733 6c3c 0184 853c
00000170: 8414 77bc 32c1 e8bc 9001 4bbe 6e1f 0c3d
00000180: b9da 81be 3460 19bb c1f4 06bd ebe2 70bd
00000190: d559 debc f8f8 73bd 0173 28bd 3c12 7fbd
000001a0: 8a5e 1cbd 4566 efbc 11bf 62bc feba cb3d
000001b0: bad2 2b3e 8c68 d9bd caf3 4cba 892e 683d
000001c0: 1499 313e 79eb 003e 28e1 b43d f67e 743d
000001d0: 56c9 1b3d ebe3 c73c e507 fc3d 8652 273d
000001e0: 2c53 2f3d 53c9 5c3d d5f2 d53c e212 803c
000001f0: 2a21 6c3c 8984 733d 6902 07bd 3d78 efbd
00000200: e958 04be 62ea 98bd dd62 c3bd 97da d7bd
00000210: 5262 ccbd b2ee d9bd cea3 e7bd 4a9b fbbd
00000220: d347 d2bd a651 a7bd acf2 12bd d965 103d
00000230: 4992 b83d a88e 273e 3a3f 7c3e e1e8 843e
00000240: 0e71 8fbe 1a66 17be 216f 0cbe c996 c1bd
00000250: c052 1ebe 3888 93bd afa4 0fbd 87b2 39bd
00000260: a70d cebc ca28 183b 2c9d b9ba 5e36 1a3e
00000270: 15f3 293e f518 96bc 543f c5bd ef34 0a3f
00000280: 13ab 4180 80ec bf80 4d37 4682 386c 1702
00000290: bc6e 2d81 182f 1c81 d04e 2181 9868 1802
000002a0: e4a6 3980 783e 0001 484a 1d00 200a 2f81
000002b0: 8836 5b81 7897 8081 2eee 3300 75ce 3180
000002c0: fc0e 2000 39f2 b181 fb6e 8901 6098 2b01
000002d0: 90bc 2f01 d666 6202 060f bc01 42c6 5782
000002e0: 02ab 2080 ae58 3380 f6fd df01 58b9 6c01
000002f0: 2676 2a00 687c 4a81 5a8b 3500 ed4c 4280
00000300: e485 0100 a87f 2c80 845f 4980 906d 1680
00000310: c818 1100 50bb 2f80 72f8 3e82 c7ef 4102
00000320: e03a 3d00 6831 4700 8879 1700 6020 4680
00000330: 964a 3802 f874 4300 a8f5 1b80 5f2f a381
00000340: 7807 2180 240e 2680 d022 3180 6c95 2480
00000350: d4eb 1480 d41d 1380 7437 0880 d850 0580
00000360: d492 0280 682c 0100 3c72 0100 4d71 3002
00000370: 1862 3d00 0c24 4a00 9435 1e00 3838 3500
00000380: 9cf4 1300 f8e7 2480 0df4 1600 1116 0480
00000390: d707 3200 30f0 1d80 1070 0080 90c4 0d00
000003a0: cc7f 1400 2bdc 3c82 86fd 3b80 1854 3800
000003b0: d033 1000 2497 3100 48ad 0401 ac63 3d80
000003c0: faef 0082 f4eb 0d80 2cd1 3900 e434 2800
000003d0: acc4 1b00 e924 2182 b489 3900 1844 a500
000003e0: 65c6 1c82 43f6 1282 d43a 0901 9c3c 1e82
000003f0: 8802 7c00 7879 2800 492a 1882 5818 1a80
0.047508728 -0.19311796 -0.14409399 -0.050007716 -0.084163845 -0.11038504 -0.08267305 -0.008819477
0.023553757 0.06141 0.07480495 0.06692648 -0.07820251 -0.2369194 -0.18301041 0.09074757
-0.16511628 -0.1175569 -0.08640918 -0.02894958 -0.0186333 -0.061115324 -0.052109607 0.062787876
-0.031034196 0.03851635 0.0012588047 -0.02102155 -0.08298619 0.050509274 0.012558051 0.04361456
-0.36607045 -0.09569416 -0.13079754 -0.06397758 -0.039287586 -0.076549724 -0.08057771 -0.113130085
-0.08004004 -0.11352776 -0.10423886 -0.11129473 0.008549393 0.11764687 0.415623 -0.4239121
-0.13360308 -0.06455251 -0.09306496 -0.0786394 -0.040336803 -0.0050048283 0.0013092645 -0.010257943
-0.006305755 -0.020821476 -0.052873857 -0.14780572 -0.13848908 -0.07565484 -0.29909408 -0.7854776
0.01645081 0.1480089 0.12925698 0.10516673 0.017491156 -0.008561641 -0.013831699 0.025613187
0.049186185 -0.02946167 0.019630047 0.06782474 0.003896056 -0.097424924 -0.25941163 -2.288638
-0.13610542 -0.15903792 -0.16274826 -0.14949171 -0.10068534 -0.043789495 -0.03090268 -0.05007323
-0.032346465 0.019115247 0.014416567 0.016298296 -0.015080575 -0.028412435 -0.19824815 0.03420966
-0.25362185 -0.0023403289 -0.03294826 -0.058810156 -0.027142445 -0.059563607 -0.0411253 -0.06227325
-0.038176097 -0.02922357 -0.013839499 0.09947775 0.16779605 -0.10615644 -0.000781831 0.056685004
0.17343551 0.12589826 0.08832008 0.059691392 0.038033806 0.024400672 0.12306193 0.040850185
0.04280393 0.053902935 0.026116768 0.015634004 0.014412204 0.059452567 -0.032961283 -0.116928555
-0.12924542 -0.0746658 -0.09540341 -0.105397396 -0.099796906 -0.10641231 -0.1131054 -0.122854784
-0.10267606 -0.0816987 -0.03587596 0.03525338 0.09012277 0.16363013 0.24633494 0.25958923
-0.2801594 -0.14785042 -0.13714267 -0.09452588 -0.15461254 -0.07203716 -0.035069164 -0.045336273
-0.025152994 0.0023217672 -0.0014161221 0.15059802 0.16596635 -0.018322447 -0.096312195 0.5398702
-6.030677e-39 -1.762542e-38 -1.4562613e-37 1.1124785e-37 -3.185453e-38 -2.8686463e-38 -2.9627575e-38 1.1197213e-37
-5.294492e-39 2.3554706e-38 2.689876e-39 -3.2149688e-38 -4.0263072e-38 -4.723712e-38 4.769053e-39 -4.574002e-39
2.944111e-39 -6.5367104e-38 5.04851e-38 3.1517063e-38 3.227771e-38 1.663337e-37 6.908185e-38 -1.5852603e-37
-3.000082e-39 -4.715423e-39 8.228168e-38 4.3479332e-38 3.899475e-39 -3.7190798e-38 4.917271e-39 -6.088739e-39
1.39866e-40 -4.086556e-39 -6.738256e-39 -2.059685e-39 1.570093e-39 -4.383463e-39 -1.4030296e-37 1.4248213e-37
5.623086e-39 6.538044e-39 2.155814e-39 -6.440099e-39 1.353959e-37 6.194939e-39 -2.567683e-39 -5.994472e-38
-3.03325e-39 -3.494822e-39 -4.512428e-39 -3.35968e-39 -1.921309e-39 -1.755575e-39 -7.54577e-40 -4.88179e-40
-2.36343e-40 1.07765e-40 1.32815e-40 1.2962954e-37 5.637155e-39 6.808758e-39 2.774285e-39 4.887449e-39
1.832624e-39 -3.389293e-39 2.10793e-39 -3.75258e-40 4.594587e-39 -2.749392e-39 -4.02e-41 1.264375e-39
1.882555e-39 -1.3875244e-37 -5.509241e-39 5.172955e-39 1.487955e-39 4.554158e-39 2.4368894e-38 -5.637721e-39
-9.472825e-38 -1.278505e-39 5.30966e-39 3.692393e-39 2.550111e-39 -1.1839005e-37 5.284022e-39 1.5177284e-38
-1.1518006e-37 -1.079706e-37 2.5205133e-38 -1.1625401e-37 1.138851e-38 3.716995e-39 -1.1179332e-37 -2.396456e-39

bias f4 [200]
00000000: 192a 21b7 3ddc 0b82 d979 2702 cd78 4cb9
00000010: fa19 6638 8c1e a18c 2c1f 6b8c fe5d 9981
00000020: e0a7 bab6 4eae 6e2c 96af c101 3426 f936
00000030: db7d 0fb8 0ad6 a838 e422 6c81 64fa 2e02
00000040: 201c fb01 c0b8 2781 800e f234 a81a 9601
00000050: 8836 f4b7 78a6 da81 ad5b 0582 002a 0581
00000060: 80ed 4801 1ec3 5bb9 c8fd 1cb8 58fe 8280
00000070: 2262 ca01 fee8 2d38 0042 d501 bcf3 2382
00000080: ce5d d0b6 0269 9d02 6066 2d02 2d05 4082
00000090: 0193 be02 0cbf 6e01 b0fb 0318 145b 52b7
000000a0: f8fc 9280 701e a680 bc35 3581 0c7f cfb7
000000b0: 2c55 4e01 1fe7 3938 5d8e 34b8 ad6e 2b38
000000c0: 648f 2302 a84b 2301 5035 2438 01bb 6302
000000d0: 834c 10b8 5e15 18b7 6bcc 5237 b86a abb6
000000e0: cc3d 0f82 28de 6800 de0a 95b8 3895 1537
000000f0: 3818 a038 0077 0280 f903 9038 147e 7b38
00000100: bd6d 2438 b3ec 4082 730f 27b7 73a9 3535
00000110: 7008 a200 f77f 50b7 f8e6 5a01 36be 9302
00000120: 044e aa81 93cf 0882 cec8 d18c c06b 60b4
00000130: 8a39 7138 92a5 cf02 2086 5082 456c 0638
00000140: 40db ae02 f182 d837 38e3 0982 feac 0439
00000150: c093 9b01 b87a e081 b0d3 cb80 5b65 0bb7
00000160: 8ada 0802 0190 2302 108d f636 5838 90b7
00000170: 600c 5481 8fd3 0032 de69 6402 b86e c381
00000180: 1348 8e38 80ad 5c01 295e 4302 bbd6 25b7
00000190: 22b1 b2b4 80ab cd01 c899 da81 30fe 4600
000001a0: 6862 d480 0044 97b4 f2dd e8b7 1068 be82
000001b0: fc30 9081 807f a301 6035 2901 200d 2502
000001c0: 747a f796 8c5e 3402 0069 f381 934c a437
000001d0: 9a6c 4a38 68d7 f0b5 fd5c 9238 dcbd 8f01
000001e0: e0cd de00 cc14 a281 203b b8b7 003c 2681
000001f0: 74c9 d901 5ff7 32b7 5800 3800 c091 a381
00000200: e070 6800 2458 1802 189c 7381 3222 b481
00000210: 3af8 b401 98ba 7a80 30df 20b7 b51f 7f9b
00000220: 2e13 dd01 541d b001 206b 2080 a015 9db5
00000230: 9a1f da01 e083 30b9 8e44 f001 624d d538
00000240: 1885 67b7 1028 b739 1c5f 59b7 a4a6 8502
00000250: 4a06 b6b8 0084 6480 9410 6281 9616 1c82
00000260: c0f5 f581 2e8a ac81 3c96 2b81 162e 8f82
00000270: 1003 2f00 136e 1c02 0dce 2c02 e0d2 3d02
00000280: 38c5 9f81 f885 cab8 6ca2 6d01 ec51 6881
00000290: 5e56 a4b8 00a4 7d00 b055 0238 1e02 8f81
000002a0: 30c0 a3b8 c86b 7981 80c0 f2b5 a294 c401
000002b0: 7ea9 a081 6ef4 95b7 959b 131b 201d 0701
000002c0: ec89 fe38 b0fc 1981 cc57 15b8 ec05 b812
000002d0: 991d 1238 0467 5881 e8e7 5601 2448 80b8
000002e0: c01c be80 40dd 8e01 267b f281 4c57 5b8f
000002f0: 8a38 e8b7 ca7d 67b8 f82b eb01 cccf 98b8
00000300: 90e8 02b6 4057 8181 08bf 0701 0d8d c038
00000310: d892 b338 ce1d 3b39 6ba0 2082 0fb4 1138
-9.606149e-06 -1.0275312e-37 1.2304191e-37 -0.00019499958 5.4860466e-05 -2.4824362e-31 -1.8113122e-31 -5.6338196e-38
-5.562775e-06 3.3918593e-12 7.1148956e-38 7.4252257e-06 -3.421107e-05 8.050732e-05 -4.3371387e-38 1.285536e-37
9.2243196e-38 -3.0805607e-38 4.5086563e-07 5.513955e-38 -2.911246e-05 -8.0319424e-38 -9.797606e-38 -2.4458376e-38
3.6904596e-38 -0.00020958154 -3.742965e-05 -1.2029856e-38 7.4343895e-38 4.1463405e-05 7.833855e-38 -1.2045297e-37
-6.2098034e-06 2.3129348e-37 1.2739413e-37 -1.4107418e-37 2.8002367e-37 4.3850766e-38 1.7058423e-24 -1.2538181e-05
-1.349873e-38 -1.5255611e-38 -3.3283002e-38 -2.4735484e-05 3.7897332e-38 4.4322685e-05 -4.304793e-05 4.0872652e-05
1.20165e-37 2.9992652e-38 3.9150298e-05 1.6730994e-37 -3.4403532e-05 -9.064881e-06 1.256457e-05 -5.108621e-06
-1.0523716e-37 9.630586e-39 -7.106898e-05 8.915835e-06 7.6339056e-05 -2.2636e-40 6.867195e-05 5.9960483e-05
3.920285e-05 -1.4173862e-37 -9.957573e-06 6.7674335e-07 1.4880377e-38 -1.242756e-05 4.0205988e-38 2.1708884e-37
-6.2560084e-38 -1.0051273e-37 -3.2322404e-31 -2.0900825e-07 5.7512465e-05 3.051095e-37 -1.5319919e-37 3.2048923e-05
2.5692845e-37 2.581018e-05 -1.0130379e-37 0.00012652946 5.715002e-38 -8.24607e-38 -1.8718545e-38 -8.308644e-06
1.005442e-37 1.2016676e-37 7.347793e-06 -1.7192375e-05 -3.894713e-38 7.4986835e-09 1.6781177e-37 -7.179056e-38
6.7845125e-05 4.0532098e-38 1.435336e-37 -9.884762e-06 -3.3283965e-07 7.55512e-38 -8.030122e-38 6.51967e-39
-1.9504427e-38 -2.8175418e-07 -2.7759907e-05 -2.797772e-37 -5.2967535e-38 6.0059697e-38 3.1078692e-38 1.2126052e-37
-3.998228e-25 1.3251445e-37 -8.941477e-38 1.9585981e-05 4.8261696e-05 -1.7944085e-06 6.979143e-05 5.280234e-38
2.0461334e-38 -5.9539244e-38 -2.1962042e-05 -3.0532433e-38 8.000228e-38 -1.0667222e-05 5.142911e-39 -6.0085884e-38
9.591384e-39 1.1192491e-37 -4.4744043e-38 -6.6170625e-38 6.6477745e-38 -1.1270868e-38 -9.588708e-06 -2.1103351e-22
8.12101e-38 6.4694273e-38 -2.977165e-39 -1.1703705e-06 8.01259e-38 -0.00016833795 8.826045e-38 0.00010171045
-1.3799661e-05 0.0003493433 -1.2956352e-05 1.963824e-37 -8.679608e-05 -9.230902e-39 -4.1521538e-38 -1.1467552e-37
-9.035142e-38 -6.33811e-38 -3.1515528e-38 -2.1038414e-37 4.317367e-39 1.149266e-37 1.2695698e-37 1.3946045e-37
-5.869037e-38 -9.657064e-05 4.3646557e-38 -4.2670446e-38 -7.8362165e-05 1.1538269e-38 3.1074218e-05 -5.253294e-38
-7.8082434e-05 -4.5811406e-38 -1.808643e-06 7.2212307e-38 -5.9017927e-38 -1.7876006e-05 1.2209826e-22 2.481648e-38
0.00012137354 -2.8282956e-38 -3.5606135e-05 1.1613492e-27 3.4836678e-05 -3.9746844e-38 3.9471977e-38 -6.116953e-05
-1.7459058e-38 5.248004e-38 -8.907347e-38 -1.08143464e-29 -2.7682883e-05 -5.5191842e-05 8.638846e-38 -7.28663e-05
-1.9506879e-06 -4.7512314e-38 2.4932642e-38 9.181546e-05 8.562737e-05 0.00017844813 -1.1800981e-37 3.4738387e-05

weight f4 [200]
00000000: 50fc 2e3f 4f74 1780 f16f e93b 5456 3a3f
00000010: 52d1 303f 7ed0 933e 7711 a0bc 6fc4 d7ba
00000020: c436 203f e017 093e 7205 f63b c85c cb3e
00000030: e401 0d3f bea2 313f c308 5bba 79b7 493b
00000040: 1dc5 273b 58c6 d33a 5dba 863e 588c acb9
00000050: 83cf d93e 3e48 9701 7cf7 d81e e0c1 580d
00000060: 6a57 4b00 f644 003f 2978 233f 1cbc acbb
00000070: cd7a c037 7b37 823e 9c36 bc81 0683 5bac
00000080: efd6 003f c813 4500 00fc f880 73ae 1c80
00000090: 8ef1 9a38 0826 323b eb22 1039 48ab 2d3f
000000a0: ae34 bd84 7207 e939 b586 0280 3986 1f3f
000000b0: f9fa 2100 c1da 003f e0d2 f13e 4923 663f
000000c0: 6d18 c139 a088 9a3e 5fc0 3a3f f98c 3082
000000d0: 758e eb3e 1bde b13e 500f e93e 33b8 133f
000000e0: dacd 0b3b 41f3 85b9 e428 0d3f 35e6 d03e
000000f0: 2417 0e3f 0010 ba01 14c0 ed3e 95db e73e
00000100: 919a 293f 68b2 f3ac dae4 133f 6deb f9ba
00000110: 2a44 4139 4264 af3e 876b 3680 c769 1d00
00000120: 6fa7 6d37 8a0f 1137 9a81 bcbb 8b0e 803e
00000130: 405d 043f 4d8c a582 206d 5482 9ab7 3a3e
00000140: 40fe f401 3034 803e 8a66 1f00 358f 3c3f
00000150: c053 fc81 6f05 3c80 6175 1c00 24ee 013f
00000160: 389b 45bc 8b7b 0580 e5f9 303f cb3b 123f
00000170: 7101 e7ba a685 4b38 4d51 0000 7430 25b9
00000180: 222f 123f c09f ea01 7225 3e80 e615 8a3e
00000190: 6c51 8e3e e012 8182 00a6 1380 f968 1e30
000001a0: ba7e 1300 b186 223f 7c61 cf3e a0d0 4a82
000001b0: 8f89 0c00 184e 0520 70d7 1627 00a4 c781
000001c0: 23c8 c53c ee62 cdb9 aa32 0e01 7565 153f
000001d0: be5e 733e d8e6 fa3e 6267 fe3e 935d 2500
000001e0: e2f2 fb3a b959 2600 8720 d63e 8046 6b81
000001f0: e13f 3ebb e3f2 3b3e 3f9c 7099 80af 7281
00000200: bb58 4380 d056 8239 5ffb 84ba b2c0 4a80
00000210: f5ea 113e 46cd 4129 6365 113f bfaa 40ba
00000220: ef0b ef3d 5d2f 6f3a e446 c3ba 1064 ee3e
00000230: 1d61 8fbb 12e8 1e3f 579b 02b6 912d 5b3f
00000240: 72db ac3e 5e3c 373f f825 8b3e ae58 77b9
00000250: eadf 063f 71bc 82b4 ac78 0480 1c80 2db9
00000260: c0da d301 b047 4900 fe88 34ba 1d24 1a80
00000270: 49c4 2e3b 38ba 3700 0f99 1b00 6009 0e02
00000280: e78f 1500 c8d7 0d3f 5d70 7189 f19a be3b
00000290: 9dbc 313f 9fc3 7eb8 ecb0 f83e 956d 83bb
000002a0: 5a89 e73e 24c6 3b3c 44a1 ac3e 72ff 0c80
000002b0: 326f a3b6 fa2f 643e 465b 963d 1906 2b80
000002c0: af72 e83e 1d52 5a3d f344 693e fba8 1b21
000002d0: cd76 f53e f2f2 c43b 671d 2200 159e 213f
000002e0: ef21 4380 48f4 d880 2f7c f824 25f5 053d
000002f0: cd14 043f 7561 053f a4aa cfb9 e4f9 e23e
00000300: 51ab ca3e 02ae d981 bf23 3880 3f33 0e3f
00000310: 715d e33e 9463 3c3f 03cc 46b7 b560 333f
0.6835375 -2.15394e-39 0.00712394 0.72787976 0.690694 0.28870004 -0.019539578 -0.001646174
0.62583566 0.13388014 0.0075079734 0.39719224 0.5508101 0.6938895 -0.00083554926 0.0030779524
0.0025599666 0.0016157134 0.2631406 -0.0003291096 0.4254113 5.55723e-38 2.2972247e-20 6.6793507e-31
6.91902e-39 0.50105226 0.63855225 -0.005271448 2.2945367e-05 0.25432953 -6.9138654e-38 -3.1194504e-12
0.5032796 6.343745e-39 -2.2865604e-38 -2.633974e-39 7.388285e-05 0.0027183313 0.00013745918 0.6783948
-4.4482065e-36 0.0004444677 -2.31995e-40 0.6231418 3.120603e-39 0.5033379 0.47231197 0.8989759
0.00036830027 0.30182362 0.72949785 -1.2970895e-37 0.46007124 0.34739766 0.45519495 0.5770294
0.0021332414 -0.00025548975 0.5514052 0.40800634 0.5550406 6.834857e-38 0.46435606 0.45284715
0.66251475 -6.9262825e-12 0.57771075 -0.0019067355 0.00018431307 0.34256178 -4.99769e-39 2.701175e-39
1.41652845e-05 8.6462915e-06 -0.0057527544 0.25011095 0.5170479 -2.43251e-37 -1.5606617e-37 0.18234101
8.9996275e-38 0.25039816 2.883684e-39 0.73656017 -9.2690355e-38 -5.512079e-39 2.613502e-39 0.50754
-0.012060933 -5.03496e-40 0.6913131 0.57122487 -0.0017624331 4.852344e-05 2.9165e-41 -0.00015753676
0.5710317 8.6187254e-38 -5.707234e-39 0.26969832 0.27796495 -1.896568e-37 -1.804424e-39 5.762924e-10
1.790335e-39 0.6348677 0.40504062 -1.4900489e-37 1.151373e-39 1.1291377e-19 2.093347e-15 -7.3336383e-38
0.024143284 -0.00039174355 2.611763e-38 0.58357936 0.2376661 0.49004245 0.4968825 3.431481e-39
0.0019222165 3.521935e-39 0.4182169 -4.3213264e-38 -0.0029029774 0.18354373 -1.2439263e-23 -4.4574295e-38
-6.184809e-39 0.00024860213 -0.0010145715 -6.864953e-39 0.14249785 4.3032655e-14 0.5679533 -0.0007349662
0.11672198 0.0009124184 -0.0014898446 0.46560717 -0.0043755905 0.6207286 -1.946193e-06 0.85616404
0.33761173 0.7157649 0.27177405 -0.00023588791 0.52685416 -2.4351496e-07 -4.10631e-40 -0.0001654629
7.782305e-38 6.729708e-39 -0.00068868685 -2.400678e-39 0.0026667288 5.117755e-39 2.534465e-39 1.0435203e-37
1.980168e-39 0.5540738 -2.9062153e-33 0.0058168103 0.69428426 -6.0740505e-05 0.4857248 -0.004010866
0.45221978 0.011460815 0.33716786 -1.193662e-39 -4.8707234e-06 0.22283927 0.07341628 -3.951114e-39
0.45399997 0.053300966 0.22780208 5.2739687e-19 0.479422 0.0060104067 3.132954e-39 0.6313184
-6.165151e-39 -1.9924099e-38 1.0776323e-16 0.03270449 0.5159424 0.5210183 -0.00039609254 0.44331276
0.3958383 -7.99629e-38 -5.155611e-39 0.55546945 0.44407228 0.73589444 -1.184922e-05 0.7006944

bias f4 [200]
00000000: c3d5 82be 4901 298e 696f 92bc b7d4 e9be
00000010: cd1b a0be 052d a1be a7d4 0dbd e935 c8bb
00000020: 9789 83be 8be6 c9be 9c94 f7bc 7cc0 5e3e
00000030: 7d29 3abf 2c8c cebe 3ca6 a5bc a2b1 46bd
00000040: 939f 9bbc 73de c3bb 605d 9c3d 7127 50bb
00000050: 1620 4e3e 1af3 3eb5 bd9f 30a5 87e3 bebc
00000060: 4c3d 1abc 0af1 a3be e1f7 9e3e ba8b 22bd
00000070: 5eb1 36b9 4d48 013e 23a7 3bb6 ddb3 5eba
00000080: 35ac 64bf 6c06 54ad 645a c4bc 51f7 d5b6
00000090: 490a bcba 3ecb b3bc 533b 36bc 7ad1 3a3e
000000a0: 1e82 109b ccce 12bb 2551 d5bc 8625 193f
000000b0: 1b05 f5b0 82e1 c6be b661 d43e c6e7 523e
000000c0: 90dc cbbb 9c55 ebbe f3ba 38bf 8814 c0b7
000000d0: 20ea fcbe 55a6 95be 7b5e 21bf 86f3 87bd
000000e0: e9f8 81bc 83ca 31bb 9cb3 d5be 7825 8abe
000000f0: b3c4 2bbf fbc7 bbaf 8597 4f3e e65f c73e
00000100: 6631 09bf 9cf7 17b2 4e06 abbe 24b8 9f3e
00000110: 3474 80bc 516c 82be 70ca 539d d834 10b2
00000120: b2af 57ba 6a73 36b8 ae41 10bd a7ee 58bf
00000130: eef2 12bf a203 27b5 edbb c1bc a5ea 51bd
00000140: 053d 17ba a1cf 02be e631 3abc a8d1 38bf
00000150: 04eb 81bc 2486 90b8 dba4 8d9c 8c47 f3be
00000160: 699d 65bd 3664 ddb7 6884 b1be fb42 85be
00000170: 211a 09bd afd2 10bd 24c9 e9ba 94c9 34b8
00000180: 5859 1abe a4a3 81b0 02c9 2bb8 8b79 ecbc
00000190: ce9d 8fbe e078 2ab2 61aa e8b4 b46a 97ab
000001a0: 0eb3 40bc 7b59 8dbe d719 e9be 5601 ffad
000001b0: 9799 b0ad 4660 cc9f af40 9fbb d220 b9b9
000001c0: bc59 47bd 7b92 40bb daaf 50bc bdc1 d33e
000001d0: c8d9 6c3d 8103 68be 753b 6f3e 5eda 0bb9
000001e0: 93cd c2bb 8446 b8a6 a0b3 8ebe 61ad bba7
000001f0: 1f0a bfbc 7519 0abe ff36 92ac 8f61 8cbc
00000200: 16a8 76a6 30d1 dbb9 c52a edbc 52ac 5eb1
00000210: 52a8 90be 34a9 1e97 60ad d9be 02da 53bd
00000220: 407c 58be a836 93bc 4f6c 52bc d5e2 0ebf
00000230: 2567 83bc f9d4 793e 41eb 5abb 09c1 27bf
00000240: 5d6c 57bf c227 d4be c9b2 72be 62ce 55b8
00000250: 0c43 b8be 512f e1b6 d1db 8bb8 6fd7 53b9
00000260: 0e00 16ac a762 17bb a95f 88ba 6ad6 1db5
00000270: 9ee8 37bc 26b2 1aa1 20ec 57a1 608e 76a1
00000280: ff35 03a6 b1d4 613e a7e1 7aa9 8bdc c5bc
00000290: e7bc e73d 0ca6 8abc 5901 e8be be97 a1bc
000002a0: e3f9 813e 5191 b0bc 38c8 11bf a433 98b7
000002b0: f36b 92b9 348c 643e c74f 8dbe 5476 a7b1
000002c0: 7eff 4fbd 6f4e 0ebe 83b8 2c3e 6db2 b6bc
000002d0: 9f5d d1be 51b6 2fbd feb5 cfaf 45b6 973e
000002e0: 9248 69a5 db30 6ebc 1f4c 1faa cef0 dfbd
000002f0: e2fb 03bf b815 8d3e 1768 5bbc bfea a0bd
00000300: 472d 1dbe 71f2 0180 8e70 6dba a205 e13d
00000310: 43dd b2be 6213 7c3e e67f 97ba 756c 15bf
-0.25553712 -2.0831477e-30 -0.01787539 -0.456701 -0.3127121 -0.3147966 -0.03462663 -0.006109942
-0.2569091 -0.39433703 -0.03022223 0.21753114 -0.72719556 -0.40341318 -0.020220868 -0.048509248
-0.01899699 -0.0059774457 0.07634997 -0.003176179 0.20129427 -7.1134275e-07 -1.5319688e-16 -0.023301853
-0.009414028 -0.32019836 0.31048492 -0.039684035 -0.00017422947 0.12625237 -2.7962458e-06 -0.00084954296
-0.8932527 -1.2052231e-11 -0.023968883 -6.376686e-06 -0.0014346327 -0.0219475 -0.011122542 0.18243971
-1.1953444e-22 -0.0022401093 -0.02603967 0.5982288 -1.7827547e-09 -0.38843924 0.41480798 0.20596227
-0.0062213615 -0.45963752 -0.7216026 -2.2897744e-05 -0.49397373 -0.29228464 -0.6303479 -0.06638245
-0.01586576 -0.0027128763 -0.41738594 -0.2698171 -0.67097014 -3.4157197e-10 0.20272644 0.38940352
-0.53591 -8.845657e-09 -0.33403248 0.31195176 -0.01568041 -0.25473264 -2.8030275e-21 -8.3939184e-09
-0.000822778 -4.349967e-05 -0.035218887 -0.84739155 -0.5740193 -6.2217634e-07 -0.02364918 -0.051249165
-0.00057692855 -0.12774517 -0.011364436 -0.7219491 -0.015859134 -6.891441e-05 -9.373211e-22 -0.47515523
-0.05605832 -2.6391917e-05 -0.3467133 -0.26027665 -0.033472184 -0.035357174 -0.0017836434 -4.310308e-05
-0.15073144 -9.432495e-10 -4.095678e-05 -0.02886655 -0.28050083 -9.922786e-09 -4.3337334e-07 -1.0758811e-12
-0.01176144 -0.2760733 -0.45527527 -2.8990737e-11 -2.0077091e-11 -8.655663e-20 -0.004860006 -0.00035310403
-0.04866956 -0.0029384184 -0.012737239 0.41358748 0.05782488 -0.22657587 0.23362525 -0.00013337421
-0.0059449165 -1.2786678e-15 -0.27871418 -5.2090904e-15 -0.023320256 -0.13486274 -4.1556754e-12 -0.017136363
-8.5576194e-16 -0.00041926792 -0.028951058 -3.2403205e-09 -0.28253418 -5.126612e-25 -0.42515087 -0.05172158
-0.21141148 -0.017970398 -0.012843206 -0.5581487 -0.016040394 0.24397649 -0.0033404382 -0.65528923
-0.84149724 -0.41436583 -0.23701014 -5.0975366e-05 -0.35988653 -6.711031e-06 -6.6689805e-05 -0.00020202783
-2.1316312e-12 -0.0023099573 -0.0010404486 -5.879907e-07 -0.011224894 -5.2413007e-19 -7.315734e-19 -8.3536474e-19
-4.5522933e-16 0.22053792 -5.5706873e-14 -0.024153015 0.11315327 -0.01692488 -0.45313528 -0.019725677
0.2538596 -0.021553667 -0.56946135 -1.8143859e-05 -0.00027927718 0.22319108 -0.27599928 -4.873792e-09
-0.050780766 -0.13897108 0.1686726 -0.022301877 -0.4089174 -0.04289848 -3.7782394e-10 0.29631248
-2.0234116e-16 -0.014538015 -1.4148447e-13 -0.10934602 -0.5155622 0.27555633 -0.013391516 -0.07857274
-0.15349303 -1.78807e-40 -0.00090576045 0.109874025 -0.34934434 0.24616769 -0.0011558502 -0.5836862

running_mean f4 [200]
00000000: af36 18c0 66f0 1d00 8efa 96bd b11f 5dc0
00000010: 5ed9 c2bf ca34 63bf 86f5 3e3e 9fcd 369e
00000020: 8faf e0bf 4362 b4bd a2f7 42bc 5625 313e
00000030: cbf8 7bbf 739c 1f3f 25dd 4333 e09d 873b
00000040: d6cd b33d a522 0bb3 608c a7be 2f17 55ae
00000050: 3fcc c63f bd8c 8301 39d7 2f00 1da1 920d
00000060: f8ca 3580 0bfb 22bf 928f 29bf 7a52 11bd
00000070: 3dd2 2a83 20f3 f7bd 1814 1001 ea5d 1381
00000080: 8781 a63e 5d91 2881 ce3c 9e81 fc44 a080
00000090: 54a1 29a7 abcc 893b 4067 27be b0cc 57be
000000a0: 24bd 3d80 c892 cc83 92c5 5c00 992d 443e
000000b0: 1241 e700 1ae0 46bf d98c adbf 80e4 3cbe
000000c0: 44cd a83c 0291 14bf 7f00 833d edab 5900
000000d0: d289 ac3e fec9 37bf 8ece 613e 6ef6 0a40
000000e0: 1ef3 6439 1638 6d80 d666 18bf 0050 983f
000000f0: 2c14 473d dff7 ac81 77ec c53e 6d9b 69be
00000100: 7bb3 343e 121a 6f00 fca5 c9be c4cd aa3e
00000110: 4a74 f13a 3f37 3cbf 8e94 0681 2fb2 8080
00000120: 3c30 2c00 2887 6500 be3b 51bc 4dd0 c43e
00000130: 8f67 d53f 2978 c280 6be9 a580 1718 a8bf
00000140: fe82 6c81 c73b 7fbf 34e8 3080 f9c1 2e3f
00000150: db2b 2b01 4bc6 5280 dfde 1f80 e2c5 053f
00000160: abcf 133d e2c5 b180 9a54 0d3f c37f 5cbf
00000170: fbad be3d ef5b 88be 88cc d580 6820 3c00
00000180: 7c61 cbbf c8dc 3401 1c6b f280 17cb 803e
00000190: b8bc ffbe f659 6880 0bf4 fb00 7b06 1281
000001a0: 7ce0 5f00 5e89 0bbf 3e37 3fbf 2cab 9881
000001b0: 2c1e 9000 09c4 ee00 9613 be00 0dfc 0881
000001c0: 2e22 9cbe d8fc d6a4 dd63 0b80 caec 8abf
000001d0: e60f 063f e486 e2bf 0b16 18c0 5fa3 7381
000001e0: 43f1 d72a 9c53 1f80 f1a1 02bf 6871 5f00
000001f0: 352d 92bc 635d 763f e6b0 1a80 18e4 2281
00000200: ccc7 9400 0eb2 3300 4403 c6b8 726a 7b00
00000210: 7dde a7bd 13e3 1ba2 61d4 ba3e 4d60 ec3d
00000220: 454c 6ebe 9712 a038 614b 94b3 40a4 5cbf
00000230: aac9 4e2d 8008 a6bd b9d6 5980 8834 a0be
00000240: 136f 7c3d fd40 12c0 749b 25be 7db1 2280
00000250: 376d 90bf 7599 7780 773a 0b81 33d4 d980
00000260: fb27 d081 389c 6100 b42e f62c d974 0f80
00000270: 6abe b7b9 0423 c300 855d 6a80 c6d8 1101
00000280: 5806 4f00 5b1e 803f 79b4 1a01 85e2 703b
00000290: 37ed 663e 7262 f031 5534 3bbf 173c 9eaf
000002a0: 04e8 0b3f 7d85 74b4 7c1f ea3f d347 4300
000002b0: ca25 0a80 7073 36c0 b054 153d 9f46 4201
000002c0: cde1 c6bf 9f49 fbbd 0dfd 683f b288 e81d
000002d0: 2085 6bbf 6df9 d93b 42ee 8280 41be 723f
000002e0: b776 0600 7e7f 7b80 391d 0f00 080a dfbc
000002f0: f19c 4b3f 2d29 10bf cf19 8326 66c2 0ec0
00000300: 746b ab3e 4ee7 2701 9885 0b80 cb19 c23e
00000310: 876e ddbe ea51 d03f a3b3 4019 a901 86bf
-2.3783376 2.749468e-39 -0.07372008 -3.4550593 -1.5222585 -0.88752425 0.18648347 -9.677521e-21
-1.7553576 -0.088078044 -0.011899861 0.17299399 -0.984265 0.623481 4.5603105e-08 0.004138693
0.087794945 -3.239497e-08 -0.32724285 -4.8451184e-11 1.5531081 4.832375e-38 4.393476e-39 9.036731e-31
-4.940093e-39 -0.6366431 -0.66234696 -0.035479046 -5.019985e-37 -0.12106919 2.646304e-38 -2.7067016e-38
0.32520697 -3.096102e-38 -5.8127284e-38 -1.4718426e-38 -2.3540918e-15 0.0042053065 -0.1634798 -0.21074176
-5.669816e-39 -1.2023742e-36 8.51974e-39 0.19158019 2.1237342e-38 -0.776857 -1.3558608 -0.18446541
0.02060569 -0.58033764 0.06396579 8.235035e-39 0.336989 -0.7179259 0.2205145 2.1712909
0.00021834343 -1.0030189e-38 -0.59531915 1.1899414 0.04860322 -6.35385e-38 0.3865697 -0.22813196
0.17646591 1.0203092e-38 -0.3938445 0.33360112 0.0018421498 -0.735218 -2.4718496e-38 -1.1818864e-38
4.058065e-39 9.32387e-39 -0.012770591 0.3844017 1.6672229 -1.7859192e-38 -1.5236591e-38 -1.3132352
-4.3440336e-38 -0.9970059 -4.491403e-39 0.6826473 3.1439204e-38 -7.601645e-39 -2.926851e-39 0.5225507
0.03608672 -1.632587e-38 0.55207217 -0.8613245 0.09310528 -0.2663264 -1.9634333e-38 5.521755e-39
-1.5889125 3.321918e-38 -2.2262614e-38 0.25154945 -0.49948668 -9.583164e-39 2.3138256e-38 -2.6820614e-38
8.804902e-39 -0.5450648 -0.7469367 -5.60816e-38 1.3235135e-38 2.1927172e-38 1.745577e-38 -2.5160093e-38
-0.30494827 -9.323604e-17 -1.046015e-39 -1.0853512 0.5236801 -1.7697415 -2.3763454 -4.4749264e-38
3.835908e-13 -2.876894e-39 -0.5102835 8.765055e-39 -0.017843822 0.96236247 -2.451182e-39 -2.991835e-38
1.3663327e-38 4.747484e-39 -9.441984e-05 1.1333951e-38 -0.08196733 -2.112663e-18 0.36490157 0.115418054
-0.23271282 7.632857e-05 -6.9054984e-08 -0.86188126 1.1754523e-11 -0.0810709 -8.250387e-39 -0.31290078
0.061629366 -2.2852166 -0.16172582 -3.186078e-39 -1.128333 -1.0983474e-38 -2.5572214e-38 -2.0004425e-38
-7.64645e-38 8.964084e-39 6.9969256e-12 -1.41945e-39 -0.0003504635 1.7920483e-38 -9.768111e-39 2.678782e-38
7.25728e-39 1.0009264 2.8414816e-38 0.003675611 0.22551428 6.9961112e-09 -0.7312673 -2.878273e-10
0.546509 -2.2772834e-07 1.8290858 6.178744e-39 -9.31911e-40 -2.8507957 0.036457717 3.568284e-38
-1.5537659 -0.122699015 0.91011125 6.155123e-21 -0.9200001 0.0066520483 -1.2024085e-38 0.94821554
5.936e-40 -1.1341502e-38 1.388016e-39 -0.027226463 0.7953635 -0.5631283 9.096946e-16 -2.2306151
0.33480418 3.083901e-38 -1.058115e-39 0.37910303 -0.43248388 1.6274998 9.962445e-24 -1.0469257

running_var f4 [200]
00000000: e2c6 6341 0400 0000 d4b4 0c3e 371e 7841
00000010: 4f5f d840 6b8e 8040 fa80 343e 2669 0400
00000020: 2619 2941 8ae2 223f a991 b83a 4a76 4141
00000030: dfda 3a40 bf4c ff40 363f 2128 5768 0e39
00000040: cfb0 063c 992b 7327 1fcf 1741 ffda 411e
00000050: bad8 e940 0400 0000 0400 0000 0400 0000
00000060: 0400 0000 1510 c940 d115 5941 06fd 033c
00000070: 0400 0000 3f69 6240 0400 0000 0400 0000
00000080: 9a72 e040 0400 0000 0400 0000 0400 0000
00000090: 7566 e50f 2754 bb38 1e69 8c3d d060 4841
000000a0: 0400 0000 0400 0000 0400 0000 fc36 9141
000000b0: 0400 0000 b316 9a40 d74b 3c41 2fc6 8841
000000c0: d534 1f3c a136 2840 aa51 7e41 0400 0000
000000d0: 2c7a fa40 6d93 7d40 fc4e 3f40 5954 6841
000000e0: 18bb 0e35 0400 0000 0e2e 2041 c0a2 2641
000000f0: 2f2b ee40 0400 0000 e249 3241 db71 d940
00000100: 0962 6c41 0400 0000 4e4a fd40 ffc8 a23f
00000110: fffb 0138 f387 4b40 0400 0000 0400 0000
00000120: 0400 0000 0400 0000 2a80 ce3a 5c6f ef3f
00000130: ba9b b540 0400 0000 0400 0000 161a 0340
00000140: 0400 0000 2007 8f40 0400 0000 510c 1341
00000150: 0400 0000 0400 0000 0400 0000 b586 df40
00000160: f5e2 1a3c 0400 0000 a828 e940 e8ec 3741
00000170: 65cd 5a3d 4a27 cc3e 0400 0000 0400 0000
00000180: d4c4 2141 0400 0000 0400 0000 0442 9640
00000190: f086 7c40 0400 0000 0400 0000 0400 0000
000001a0: 0400 0000 ed69 5341 c62f 0140 0400 0000
000001b0: 0400 0000 0400 0000 0400 0000 0400 0000
000001c0: 4d1e 613e 01d4 300c 0400 0000 763e 1941
000001d0: 35cc 8140 aef9 a940 a1ee 4841 0400 0000
000001e0: 5f32 3617 0400 0000 36ed 3140 0400 0000
000001f0: c9f5 b83a bc22 9940 0400 0000 0400 0000
00000200: 0400 0000 0400 0000 005d b932 0400 0000
00000210: d549 a03d dd94 c605 72bf 7940 ff88 d23d
00000220: 309d a63e cd75 1233 9637 f12a 37db 2b40
00000230: 65e0 261c c27b 8541 0400 0000 e847 2741
00000240: 4fc2 d040 df74 ab40 700b 0740 0400 0000
00000250: abe2 de40 0400 0000 0400 0000 0400 0000
00000260: 0400 0000 0400 0000 1ed0 811b 0400 0000
00000270: cb7c 8d35 0400 0000 0400 0000 0400 0000
00000280: 0400 0000 99f6 1841 0400 0000 517d 223b
00000290: c4b6 5e41 b927 2525 5c25 7b40 cdb8 d520
000002a0: 381b 9c40 cfc5 5e2a 0a40 a040 0400 0000
000002b0: 0400 0000 cd2b df40 d821 973c 0400 0000
000002c0: d3a2 c240 ae19 093f 3977 3c40 88f3 ca00
000002d0: 7acc fa3f 3c53 9c39 0400 0000 ac68 f840
000002e0: 0400 0000 0400 0000 0400 0000 f8b8 483c
000002f0: 9456 ce40 21c0 7741 5f9b 890e a644 0b41
00000300: 45b0 de40 0400 0000 0400 0000 b714 3e41
00000310: 4dde 6740 2301 4941 0400 0000 4e6d 3741
14.236055 6e-45 0.13740855 15.507377 6.7616343 4.017385 0.17627326 4.05062e-40
10.56864 0.6362692 0.0014081496 12.091379 2.9196088 7.9781184 8.951002e-15 0.00013581045
0.008220865 3.3746659e-15 9.488067 1.0262622e-20 7.307706 6e-45 6e-45 6e-45
6e-45 6.283213 13.567826 0.008055931 6e-45 3.5376737 6e-45 6e-45
7.0139894 6e-45 6e-45 6e-45 2.2620608e-29 8.9325295e-05 0.06855987 12.523636
6e-45 6e-45 6e-45 18.151848 6e-45 4.815271 11.768516 17.09677
0.009717186 2.6283343 15.8949375 6e-45 7.8274136 3.9621232 2.9891958 14.520593
5.317138e-07 6e-45 10.011244 10.414734 7.4427714 6e-45 11.143038 6.7951484
14.773934 6e-45 7.9153204 1.2717589 3.0990686e-05 3.1801727 6e-45 6e-45
6e-45 6e-45 0.0015754749 1.8705859 5.6752596 6e-45 6e-45 2.0484672
6e-45 4.4696198 6e-45 9.190507 6e-45 6e-45 6e-45 6.9851937
0.009453525 6e-45 7.286213 11.495338 0.053418536 0.39873725 6e-45 6e-45
10.110554 6e-45 6e-45 4.6955585 3.945736 6e-45 6e-45 6e-45
6e-45 13.213361 2.0185409 6e-45 6e-45 6e-45 6e-45 6e-45
0.21984215 1.3622344e-31 6e-45 9.577749 4.0561776 5.3117285 12.558259 6e-45
5.887095e-25 6e-45 2.7801032 6e-45 0.0014111336 4.78549 6e-45 6e-45
6e-45 6e-45 2.1579126e-08 6e-45 0.07826582 1.8674514e-35 3.90231 0.10280036
0.325418 3.4100413e-08 4.284877e-13 2.6852548 5.5214816e-22 16.685429 6e-45 10.455055
6.5237193 5.3580165 2.110073 6e-45 6.9651694 6e-45 6e-45 6e-45
6e-45 6e-45 2.1475752e-22 6e-45 1.0541638e-06 6e-45 6e-45 6e-45
6e-45 9.5602045 6e-45 0.0024793933 13.9196205 1.4324927e-16 3.9241552 3.6205894e-19
4.8783226 1.978619e-13 5.0078173 6e-45 6e-45 6.974097 0.018448755 6e-45
6.082376 0.5355481 2.9447768 1.8638133e-38 1.9593651 0.00029816653 6e-45 7.7627773
6e-45 6e-45 6e-45 0.012251131 6.4480686 15.484406 3.3922724e-30 8.70426
6.9590173 6e-45 6e-45 11.880057 3.6229432 12.5627775 6e-45 11.464186

weight f4 [4, 200]
00000000: c411 7abc ccad af8a bb18 a53c cd1a aa3d
00000010: a49a ebbd 5c72 783d 9adb 0a3d af3e b1ba
00000020: cf31 03be 6933 f1bc 494a 95bc 5721 51bd
00000030: a6e7 ed3d 6448 6cbe fa10 a039 40f4 6f3b
00000040: c790 fe3d 2f91 a33b 2b84 f93d 6458 cd39
00000050: 54cb 2b3e 7188 47b4 f3f2 e2ad a255 ecbc
00000060: 2532 0ebc c16e fd3d 0265 6f3e 093a bebb
00000070: e5ea 1fb7 20d9 16bd e83c f8bb 143c 0339
00000080: b2cf 673e e3d7 9829 d1ee a3a0 7987 472d
00000090: 9aa1 25bb 106a d4bc bb27 29bb 3b17 43be
000000a0: 71a7 9f9f f6d7 4aba 53c5 14bc 5166 43bd
000000b0: 7e16 2322 9e81 253d cc7a bcbb ac0c b3be
000000c0: 9ad5 b03a 76f5 8c3d 1ff2 7b3e b576 6939
000000d0: c661 65bd d6e8 e8bd a064 b73d 2eee 1e3e
000000e0: d7ff 45bb eb0b a63b d5d9 19be 3ae8 b13d
000000f0: e1d5 803e 7868 bdb6 6d79 793e 3ae4 7cbd
00000100: 0cb7 ff3d 7999 fb31 83a2 373d a210 99bb
00000110: 17c1 203c 9dda 633a d2a6 1900 60f7 822d
00000120: f3d0 3e3a 644b 1b39 9633 f2bb 37bf 8d3d
00000130: 954a 2cbe d991 0e80 a236 e03c 92e7 2b3d
00000140: 2fd8 6936 f8ee e1bd c7ef 113b dca4 a7be
00000150: 24bd 622d 7601 5a26 51fd 0a80 0b6d 88be
00000160: b08d 9e3b bece 84b3 479c 85be b8f9 053e
00000170: 0bbd 8dbc 4fbe 43bc dcde 9f37 f9e2 da39
00000180: 49fe b73c eef2 b93b e169 4d34 8bfe e1bc
00000190: 76ea 883b c2e3 ab26 33db 2c80 fdaa 8da9
000001a0: 487a 463a 4538 0d3e d71b 303e a667 9b31
000001b0: ec8c 692a 3437 b22c d136 5d3b 1830 f5b8
000001c0: 7ee7 8abb dc59 053a 8567 c4bb 3074 f5bc
000001d0: 9536 343e fdf1 773e 5a22 7ebd fb51 3937
000001e0: 77e8 cbb9 cad8 bf24 f215 86ba 8c9d 5127
000001f0: 459a 2cbb 6d6b 1bbd 5680 292f 498c 0a3d
00000200: 43c4 1600 8b29 3ab8 0f60 d83b dac0 8eaf
00000210: 6c86 a6bc 6f6d 44b1 0da1 fbbc a58a 953c
00000220: 3c9d e13c 1693 8cbb d18f b637 09e3 333d
00000230: e317 01bb 2e6a 1dbe 5528 5abb be19 b0be
00000240: 9a15 c03e 3514 0ebe ecb6 a637 b8a9 07ba
00000250: ec79 103e 92c9 0035 8e4d 0f80 bf9c 7db7
00000260: 59e8 2a80 d232 b2b1 ee4d 113b 2873 3e30
00000270: 0ba4 0cbb 8702 99a9 52db f1a3 bec9 2d16
00000280: 1e65 bea4 2c1f a63e fded 8923 d712 b73b
00000290: 4a51 35be db44 613c 276f 0abd 91ec 0ebb
000002a0: ee2b abbd 171e 523b 0708 dbbd c8bb 90b8
000002b0: 3d33 5eb5 2937 dbbd 3775 80ba a509 0e30
000002c0: b73c 5e3d 3675 103c d161 1bbc eefe e13c
000002d0: 82de 433c 0057 d2bc 5541 0880 392d 43be
000002e0: e25c ee20 ba6f 21bc 4722 099b 21b9 9ab9
000002f0: 7841 d4bd e5e7 563e 2e3d d53a a199 d8bd
00000300: 8f57 e3bd 2833 0480 16a8 2c80 a172 f2bd
00000310: 8ce0 453e 0cf7 b23e 5d71 973a ee7d b4be
00000320: 4cf4 1ebf 88c5 bb0b 07f7 aa3c d821 41bf
00000330: 0292 09be 9c9c 6a3d f8c6 fbbb b68a b434
00000340: dfe7 5a3e 6fa0 24bb 6a81 2ebd 0c2c 133e
00000350: 5cb7 0ebe c184 1bbe f89c 48ba a65e 75bb
00000360: 82f2 e239 7e09 913a 0396 993d 0601 a33a
00000370: 692b e7bd c94e 239b e7f4 2f80 c08b ee3c
00000380: f9d7 24b3 e4b4 893d 0324 febd 6e29 c9bc
00000390: 4ea8 3eb0 ae88 123f e894 2036 caba b32d
000003a0: a68b 15be 601a 3a80 396b 4d03 fa2b d9ad
000003b0: 260e 95ad 3341 45bc 23f8 9fbc c1cc 8a3c
000003c0: 008a 4c00 7a7b 5eae 47d3 0436 4389 e83c
000003d0: bea3 2e00 2ed3 9abe 9db9 bbbe 6bff dcbd
000003e0: 718e 073c be4e 09be bb7f 2d3e 7ee4 02b0
000003f0: 3063 0abe aed9 383d 4a49 65be 2c7f ad3d
-0.015263025 -1.6917262e-32 0.020153394 0.08305893 -0.11504105 0.060655937 0.033900835 -0.001352271
-0.12811969 -0.02944346 -0.018223898 -0.051057186 0.11616449 -0.2307449 0.00030530227 0.003661409
0.12429958 0.0049916725 0.12183412 0.00039166503 0.16776782 -1.8582956e-07 -2.5801116e-11 -0.028849427
-0.008678948 0.1237464 0.23378375 -0.005805258 -9.531829e-06 -0.03682816 -0.00757562 0.00012515514
0.22637823 6.7876064e-14 -2.777131e-19 1.1341921e-11 -0.0025273324 -0.02592948 -0.0025811035 -0.1905183
-6.761613e-20 -0.0007737869 -0.009080249 -0.047705 2.2102527e-18 0.040406816 -0.005751943 -0.34970605
0.0013491393 0.068827555 0.2460408 0.00022264833 -0.056001447 -0.11372535 0.089547396 0.15520546
-0.0030212307 0.0050673387 -0.15024503 0.08686872 0.25163177 -5.6448007e-06 0.24362727 -0.06174109
0.12486085 7.3225093e-09 0.044832718 -0.0046711722 0.009811661 0.0008691939 2.355731e-39 1.4889145e-11
0.00072790607 0.00014810037 -0.0073914034 0.06921237 -0.16825326 -1.338017e-39 0.027369801 0.04196889
3.484554e-06 -0.11031908 0.0022268163 -0.32742965 1.288861e-11 7.5635923e-16 -1.009228e-39 -0.26645693
0.004838668 -6.184335e-08 -0.26095793 0.13083541 -0.017302057 -0.011947229 1.9058054e-05 0.00041749308
0.02246012 0.0056747114 1.9130631e-07 -0.027587196 0.0041783405 1.1927242e-15 -4.119396e-39 -6.2913196e-14
0.0007571322 0.13790996 0.1719812 4.522877e-09 2.0743449e-13 5.065193e-12 0.0033754597 -0.000116914685
-0.004239022 0.00050869375 -0.005993786 -0.02996263 0.17598946 0.24213405 -0.06204448 1.1045947e-05
-0.00038892377 8.32003e-17 -0.0010229929 2.9089983e-15 -0.002633707 -0.037944246 1.5416055e-10 0.033825193
2.090786e-39 -4.4384546e-05 0.006603248 -2.596668e-10 -0.02032777 -2.858396e-09 -0.030716443 0.018254587
0.027540796 -0.004289995 2.176306e-05 0.04391769 -0.0019698075 -0.15372536 -0.00332882 -0.3439464
0.3751648 -0.13874896 1.9873922e-05 -0.00051751314 0.1410901 4.797704e-07 -1.405354e-39 -1.511647e-05
-3.940441e-39 -5.1862594e-09 0.0022171694 6.9285244e-10 -0.0021460082 -6.795003e-14 -2.6222158e-17 1.4038487e-25
-8.2570664e-17 0.32445657 1.4954362e-17 0.0055869627 -0.1770679 0.013749327 -0.03379741 -0.0021808485
-0.08357988 0.0032061392 -0.106948905 -6.901432e-05 -8.2776006e-07 -0.1070388 -0.0009800558 5.1673005e-10
0.05425712 0.008817008 -0.0094837705 0.02758738 0.011954905 -0.02567625 -7.5812e-40 -0.1906022
4.0380233e-19 -0.009853298 -1.134345e-22 -0.000295111 -0.1036405 0.20986898 0.0016268843 -0.105761774
-0.11100685 -3.85693e-40 -4.10106e-39 -0.1183827 0.19323939 0.34954107 0.0011554171 -0.35252327
-0.6209152 7.232699e-32 0.020869745 -0.75442266 -0.13434604 0.05727826 -0.007683631 3.3628538e-07
0.21377514 -0.002512004 -0.042603888 0.14372271 -0.13937134 -0.1518736 -0.00076527847 -0.0037440448
0.00043286762 0.0011065451 0.074993156 0.0012436218 -0.11287577 -1.3508501e-22 -4.404123e-39 0.029119372
-3.838065e-08 0.06723955 -0.124092124 -0.024555888 -6.936077e-10 0.57239807 2.3928533e-06 2.0432895e-11
-0.14604053 -5.33592e-39 6.036717e-37 -2.4689573e-11 -1.6945622e-11 -0.0120394705 -0.0195275 0.016943337
7.029003e-39 -5.0586625e-11 1.9792512e-06 0.028385764 4.283172e-39 -0.30239242 -0.3666505 -0.107909046
0.008273707 -0.13408944 0.16943257 -4.761843e-10 -0.135144 0.04512947 -0.22391239 0.08471522

bias f4 [4]
00000000: ac11 073d b167 bf3c 6779 94bf fd35 d4be
0.032975838 0.023364874 -1.1599549 -0.4144744
