experiments/synthetic_data/model_synthetic.pth (torch, 817104 bytes, 27 tensors)

weight f4 [10, 1, 10]
000000 21 30 7b 3d f0 2f 83 3d b0 e4 8d bd 47 c8 0a be
       0.061325196 0.06405628 -0.06928384 -0.13552962
000010 25 83 9d bd 8a 4b 2c be 12 fe 03 be 4e 48 34 bd
       -0.076910295 -0.16825691 -0.12889889 -0.044014268
000020 41 6e ae be 06 b2 65 be 40 35 e3 3d 00 12 ac 3e
       -0.34068492 -0.22431192 0.11094141 0.33607483
000030 ab 8d bb 3d 3e 47 ef bd 63 3b bf bc 67 ff 15 be
       0.091578804 -0.1168351 -0.023343747 -0.1464821
000040 68 1b bb bc 7a 4d d1 3d 7e 8e 02 be 58 04 31 3c
       -0.022840217 0.102198556 -0.12749669 0.010804258
000050 89 d8 fd be 87 6d c6 be 6d e4 91 3d a9 90 ee 3c
       -0.49579266 -0.38755438 0.07123647 0.029121714
000060 4f af ef be f7 4c 57 be da ec 10 bd 0f d0 b6 bc
       -0.46813437 -0.21025454 -0.03538213 -0.022316007
000070 89 b0 b4 bb 41 86 8e 3c c5 5e 11 3e be 6f 20 3e
       -0.0055142087 0.017398002 0.14196308 0.15667626
000080 b4 0b f8 3d 9d dd 37 3e c6 79 12 3e 68 ea 24 3e
       0.12111607 0.17955633 0.14304265 0.16105044
000090 0b 39 07 3e 25 85 03 3e c3 59 08 3e 46 f4 d6 3d
       0.13205354 0.1284376 0.13315491 0.1049581
0000a0 49 1e 67 be a9 f5 f4 bd e5 3f 08 3e 05 07 84 3c
       -0.22570147 -0.119609185 0.13305624 0.016116628
0000b0 6f 92 70 bd ed bb 1b be 4d 82 a2 3c 4f 41 1e be
       -0.0587334 -0.15208407 0.019837523 -0.15454601
0000c0 04 10 bd bd a4 1c 1c be ec f4 7c be 6f bd 3b be
       -0.0923157 -0.152453 -0.24702805 -0.18333982
0000d0 77 c8 33 be c8 c2 bf 3d 06 19 e0 3d 3f c1 9e bd
       -0.1755694 0.093633235 0.10942273 -0.077517025
0000e0 ef 19 ae 3d 40 17 fb bc 58 17 0c 3e 3e 61 38 3e
       0.0850104 -0.030650735 0.1368078 0.18005845
0000f0 05 1b 3c 3e 4b dc 40 bb fe c7 08 be bf ea 77 3e
       0.18369682 -0.002942818 -0.13357541 0.24210642
000100 7f b7 54 bd 36 5b a7 bd 98 65 43 3e bc 0e b3 bd
       -0.051932808 -0.08171694 0.19081724 -0.08743045
000110 5d 92 13 bd 8e 90 a6 bd e5 f6 ce 3d 98 5c e1 3d
       -0.036028255 -0.0813304 0.10105685 0.11003989
000120 81 7f a5 bd dc 7a 8f bd 05 39 85 bd b2 e9 58 3e
       -0.0808096 -0.070058554 -0.06505016 0.21182898
000130 e8 71 19 be bb 43 3a bd ef 46 75 3e f7 87 a0 bd
       -0.14984858 -0.04547475 0.2395284 -0.07838433
000140 73 1b bb be 80 91 a2 be 18 91 92 3d ee fe 34 3d
       -0.3654438 -0.31751633 0.07156581 0.044188432
000150 56 6f ea be 3f 87 80 be 65 a8 66 3c 9f 04 1b 3a
       -0.45788068 -0.25103185 0.014078234 0.00059134694
000160 64 28 98 bd 61 ff bc bc 93 5f 42 3d d4 09 fb 3c
       -0.07429579 -0.023070993 0.047454428 0.030644335
000170 9f 9c b0 be e5 cf 9c be f1 f4 7b 3d 0d 7d d2 3b
       -0.34494492 -0.3062736 0.06151289 0.0064235986
000180 e0 32 ac be fd 9d 36 be 74 43 30 be 16 32 f3 bd
       -0.33632565 -0.17833705 -0.17213231 -0.118747875

bias f4 [10]
000000 4e f6 c1 b9 89 86 ed b9 ba 41 f0 b8 7a e6 c2 b9
       -0.0003699534 -0.000453044 -0.00011456334 -0.00037174282
000010 5a c7 8e b7 1f f6 1f ba 08 69 7a ba 3e 84 b0 b7
       -1.702055e-05 -0.00061020436 -0.0009552394 -2.1042415e-05
000020 24 b2 27 ba 38 9f 4a ba
       -0.00063970895 -0.0007729414

weight f4 [10]
000000 71 cd 88 3f d7 9a 75 3f 60 40 9f 3f 17 f6 6a 3f
       1.0687696 0.9593939 1.2441521 0.91781753
000010 b0 20 6d 3f d0 2c 11 3f e6 84 76 3f 70 2a 78 3f
       0.92628 0.56709003 0.96296537 0.96939754
000020 c9 d9 a9 3f 8d 4a 94 3f
       1.3269588 1.1585251

bias f4 [10]
000000 16 27 42 be a0 41 35 3d 0c f9 46 3c 72 a4 fa bd
       -0.18960223 0.044252038 0.012144338 -0.12238397
000010 cf 1b 84 be 34 dd 92 3d 79 0c 8d 3d f3 3e e7 bd
       -0.25802466 0.071710974 0.068871446 -0.112913035
000020 49 de 38 3d 54 61 cf bd
       0.045133863 -0.10125986

running_mean f4 [10]
000000 b4 bd fa 3b 46 b6 60 bb d8 e4 3a 3c ca 80 3d bc
       0.007652009 -0.003428833 0.0114071 -0.01156635
000010 5e 18 c4 3b 64 3e 6a 3a 3e 7a e4 ba c2 1a 8f ba
       0.00598435 0.00089356885 -0.001743145 -0.0010918009
000020 b6 01 1f 3c 5f 21 14 3c
       0.009704998 0.009041159

running_var f4 [10]
000000 d7 89 38 3f f5 27 c6 3d 57 05 c1 3f c8 e4 94 3f
       0.72085327 0.0967559 1.5079755 1.1632318
000010 34 bc cc 3e a7 31 a8 3d 51 f5 a0 3d f8 d5 a2 3d
       0.39987338 0.082125954 0.078592904 0.079509676
000020 de d4 9b 3f 2c 91 8d 3f
       1.2174337 1.1059928

weight f4 [10, 10, 9]
000000 57 98 61 be 43 76 02 be 96 e9 cd bd e8 62 45 be
       -0.2203077 -0.12740426 -0.100543186 -0.19276011
000010 1d 85 f2 bd 63 e2 79 bd 43 a9 69 be 75 23 85 be
       -0.118417956 -0.061006915 -0.22818474 -0.26003614
000020 48 b4 83 be 41 82 95 3d cd 09 8c bd a5 db 54 bd
       -0.2572348 0.073002346 -0.06837807 -0.05196728
000030 ce 31 0f 3e fd 5b 58 bd 21 2e af 3d aa cd 77 3e
       0.13983843 -0.0528221 0.0855372 0.24199548
000040 fc 2e fd 3d 74 77 d3 bd 8f cb 1d be 95 3f 83 be
       0.12362477 -0.10325518 -0.15409683 -0.25634447
000050 b5 67 04 be e4 d9 d3 bd b9 e3 ca bd c6 06 30 be
       -0.12930186 -0.10344294 -0.09906716 -0.17190084
000060 5d 43 94 bd 58 9f 22 be 37 a0 ac bd 1d d8 8a 3d
       -0.07239411 -0.15881097 -0.08428996 0.067795016
000070 f9 e4 ce 3d 51 81 c3 3d 1f 93 f9 3d 22 da 8e 3d
       0.10102267 0.095461495 0.12186264 0.06975199
000080 d2 2e 8c 3d 15 52 fd 3d 34 6a d8 3d c5 3d 1f 3d
       0.06844868 0.123691715 0.10567132 0.038877267
000090 aa 34 41 be a3 60 33 be 2d 5f 52 be d5 52 38 bd
       -0.18867746 -0.17517333 -0.20544119 -0.04500087
0000a0 96 ab 7b be 99 d6 0d be 77 f4 21 be c5 ba 3c be
       -0.24577174 -0.13851394 -0.15815912 -0.18430622
0000b0 79 ff 83 be 69 a4 ab bd 95 86 c4 bd bf d6 c6 bd
       -0.25780848 -0.08380968 -0.09595982 -0.09708928
0000c0 ed ed 66 3d e2 5a bc 3d 88 cf 07 3e a0 93 e1 3d
       0.056379247 0.09197022 0.1326276 0.11014485
0000d0 70 03 e2 3d 33 e9 3b 3e 49 5e 19 3e 7d 43 5c bc
       0.11035812 0.18350677 0.14977373 -0.013443825
0000e0 18 40 74 3e 75 e9 30 3e 4f 58 ab 3b 3d 3a 89 3e
       0.23852575 0.17276557 0.005229033 0.26802245
0000f0 41 ce c5 3d 2c b2 20 3d 2a d9 2c 3d 8d 99 26 3d
       0.096584804 0.039232418 0.04219929 0.04067378
000100 d0 88 48 3e 62 4d 10 3e bb 0e 94 3d 13 5b f3 3d
       0.1958344 0.14092019 0.07229372 0.118826054
000110 38 fe 98 3d 93 6f cb 3d 9a e0 96 3d 1e 57 0f be
       0.074703634 0.099333905 0.07367058 -0.13998076
000120 10 4f 0c be b4 cb 34 be d7 10 bb bd aa d4 1e be
       -0.13702035 -0.17655832 -0.09134071 -0.15510812
000130 90 46 9a bd a4 da 45 be 4b 5d ab bd ea cc 2e be
       -0.0753299 -0.19321686 -0.083674036 -0.17070356
000140 62 41 17 be 25 6b 55 be dd e4 2b be 05 19 bd bd
       -0.14771035 -0.20841654 -0.16786523 -0.09233288
000150 17 39 11 be 9a 04 e9 bd 75 7c f4 bd 34 2a 2c be
       -0.14181934 -0.11377831 -0.11937801 -0.16812974
000160 14 d4 30 be 1f 13 7e be f6 28 17 bc d2 7b 66 be
       -0.17268401 -0.24811982 -0.009226074 -0.22508171
000170 4b 94 6d bd bb 7e 33 bf ae 0d 60 bd 0f b0 88 3d
       -0.05800275 -0.7011525 -0.054700546 0.066742055
000180 ae c8 02 3e 46 2c 86 3e 22 91 3c 3e f1 73 ab bd
       0.12771866 0.26205653 0.18414739 -0.083717234
000190 77 db 09 3e e6 e3 a6 3d 03 f4 57 be 22 64 58 bd
       0.13462625 0.08148937 -0.21089177 -0.05282987
0001a0 39 9c a8 3d 9b 12 51 3e 6d eb c8 3d ca 53 3a 3c
       0.08232922 0.20417254 0.09810529 0.011372516
0001b0 6b 5d 0d 3e e8 c9 15 3e 61 d1 9c be 00 b1 84 3d
       0.13805167 0.14627802 -0.30628493 0.064790726
0001c0 b8 f2 a0 bd ee 05 c8 be 5e 7c 17 3e 62 47 33 be
       -0.07858795 -0.39067024 0.14793536 -0.17507699
0001d0 6c 30 2f 3e 6a 23 20 bd 8f 05 0e ba 82 ae cc 3c
       0.17108315 -0.039096273 -0.00054176984 0.024985556
0001e0 52 88 d2 3b 0f 52 91 bc 88 ac 94 bc 85 21 89 b9
       0.006424942 -0.017739324 -0.018148676 -0.0002615565
0001f0 4d e3 ab 3c a3 f9 7f 3d 48 ba ed 3d 08 4b 39 bb
       0.020982409 0.06249393 0.11607796 -0.0028273482
000200 82 95 31 be 59 7b d6 bd e9 16 fe bc fc bb 19 be
       -0.17342189 -0.104727454 -0.031016784 -0.15013117
000210 21 3e 4d 3e d3 07 10 3d fa 3b 0f 3e ca 6e 8f bb
       0.20043232 0.03516371 0.13987723 -0.0043772208
000220 4d 94 c5 bd e5 4a 2a bd 15 55 c1 3d c2 9c ac 3d
       -0.09647427 -0.04157533 0.09440056 0.08428337
000230 74 08 23 be e0 f8 a1 bd 11 a5 76 3b 3f 81 ba 3c
       -0.15921193 -0.07908797 0.0037635008 0.022766707
000240 c0 85 a0 3c f8 65 50 be 52 b5 8c 3d b5 83 2b be
       0.019595027 -0.20351398 0.068705216 -0.16749461
000250 fd fa 85 bc ab 30 a1 3d f6 49 95 3d a5 2a f9 bd
       -0.016355032 0.07870611 0.072894976 -0.12166337
000260 05 a0 f3 3c 9b 1e 31 bd 52 2c 17 be bf c3 e9 3d
       0.02973939 -0.04324208 -0.14763 0.11414289
000270 9b 98 5e bd 53 bf e8 bc 7e e8 dd 3d 79 21 f8 bd
       -0.054344755 -0.028411543 0.1083536 -0.121157594
000280 71 79 1c 3e 4b c1 a8 bd 9d 39 ba 3c 13 9d eb 3d
       0.15280701 -0.08239993 0.02273255 0.11504569
000290 4e 5c a6 be 06 e4 8a bd ee 91 96 bd 7e dc 02 bf
       -0.32492298 -0.06781773 -0.07352053 -0.51117694
0002a0 23 f3 2e 3e bf 91 1f be 58 03 86 3e 94 5a 05 3e
       0.17084937 -0.15582941 0.26174426 0.13022834
0002b0 25 cf cf be b2 94 e6 3c d9 22 83 be 82 54 8d be
       -0.40587726 0.028147075 -0.25612524 -0.27603537
0002c0 9f 28 f8 3d 16 69 fe bc e6 76 38 3e 7c 22 06 3e
       0.12117123 -0.031055968 0.18014106 0.13099092
0002d0 ed 15 46 bd bd f8 39 3e 40 9b f5 bc ba 05 43 3c
       -0.048360754 0.18161292 -0.029981256 0.011903221
0002e0 23 b1 09 3e 83 ac 2b 3e b6 d4 01 3e e7 92 2b 3e
       0.13446479 0.16765027 0.12678799 0.16755258
0002f0 b2 03 4e 3e 24 0a c1 3c 54 6a 0f 3e 72 a6 c5 bd
       0.20118597 0.023564406 0.14005405 -0.096508875
000300 1c 5b e2 be c9 f7 02 3e 6d a3 74 bd 05 75 3d be
       -0.44210136 0.12789835 -0.059726167 -0.1850167
000310 32 ea 16 3e 23 43 01 3e 4b bc cf 3d 46 fe 4b 3e
       0.14737776 0.12623267 0.10143336 0.19921216
000320 b9 16 c2 3d 21 37 92 3d 53 83 d8 3d e7 4c 45 3d
       0.0947699 0.07139421 0.10571923 0.048169043
000330 e7 1c 0b 3e 3a b2 dd 3d 02 0b bc 3d c1 9a 98 bd
       0.13585244 0.1082501 0.09181787 -0.07451392
000340 3d 9d 38 bd 41 aa a8 bd 72 52 be bd 97 5d da bd
       -0.04507183 -0.08235598 -0.09293069 -0.10662382
000350 7b 22 bb bd 11 49 02 be b0 66 a8 bd f5 30 51 bd
       -0.09137436 -0.12723185 -0.08222711 -0.05107208
000360 2f e9 c6 bc 2d f3 12 3e 8d 89 fd 3d a8 7f db 3d
       -0.024281112 0.14350577 0.12379751 0.10717708
000370 05 29 dd 3d 61 17 bb 3d 61 33 d3 bc b7 46 16 3d
       0.107988395 0.091353185 -0.025781335 0.036688533
000380 34 fd fc 3c 3e 2c 54 3e b9 be b4 3c 0f 23 1d 3d
       0.030882455 0.20720002 0.0220636 0.038363513
000390 c4 cc 51 bc 5c 9f a8 bd 59 91 f2 bd f9 52 f7 ba
       -0.012805168 -0.082335204 -0.11844129 -0.0018869332
0003a0 29 24 68 3e f8 55 d4 3d 29 5f 86 3e e3 7a 0d be
       0.22670044 0.1036796 0.26244476 -0.13816409
0003b0 19 7a 11 be d7 af 9b 3c 1e 76 82 be dc 4e d4 bd
       -0.14206733 0.019004745 -0.2548074 -0.10366604
0003c0 f0 a6 ab 3d 6c a5 a5 3c d0 50 bc 3c 6e 8d 24 bd
       0.0838145 0.02022048 0.022987753 -0.04017394
0003d0 f4 16 95 bd 48 56 56 3d 7b 47 5e be 27 0b 1b be
       -0.072797686 0.052328378 -0.21706955 -0.15140973
0003e0 a5 ef d6 3d a2 3f 9e bd 36 ed b5 3d 2e bc 19 be
       0.10494927 -0.07726981 0.08883135 -0.15013191
0003f0 5a 5d e7 3d 26 2c 28 3e ae 81 d9 3d c2 dd 18 3e
       0.11297102 0.16423091 0.106204376 0.14928344

bias f4 [10]
000000 77 69 24 ba ab b4 aa b8 3e b2 0c b8 70 44 49 37
       -0.0006271819 -8.139884e-05 -3.3544602e-05 1.1996468e-05
000010 34 f7 e6 38 f5 22 8c 39 a1 93 66 ba a7 a2 cb 39
       0.000110133 0.00026728926 -0.0008795802 0.00038840363
000020 d4 5c 85 b9 3f c8 ee 38
       -0.000254369 0.00011386023

weight f4 [10]
000000 70 85 40 3f 8e 7f 92 3f ad 1d 7a 3f 4a ae 9e 3f
       0.7520361 1.1445177 0.9770153 1.2396939
000010 75 e1 86 3f 9e e5 76 3f 2f 80 59 3f 49 48 3a 3f
       1.0537554 0.9644412 0.8496122 0.7276655
000020 7f 16 62 3f 8b 8a 3b 3f
       0.88315576 0.73258275

bias f4 [10]
000000 75 10 e9 bd 3c 75 af bd cb c0 31 3b 57 78 e1 bd
       -0.11380092 -0.085672826 0.002712297 -0.11009281
000010 f8 21 84 be c4 2e 83 bd 93 5e 2b be b5 d1 eb bd
       -0.25807166 -0.06405404 -0.16735296 -0.11514608
000020 6c c3 5e bd 4a ec db bd
       -0.054385588 -0.10738428

running_mean f4 [10]
000000 fb f6 c2 bf 39 47 44 bf e5 76 b3 3f 22 b6 07 be
       -1.5231622 -0.7667118 1.4020659 -0.13253072
000010 b6 b0 fd bf 04 04 56 3f 05 85 5d bf c8 1b 36 c0
       -1.9819553 0.8359988 -0.86531097 -2.8454456
000020 9f 6b 11 bf 33 1e 4a c0
       -0.5680484 -3.1580932

running_var f4 [10]
000000 c4 de 0c 41 b3 83 9b 3f bc 84 93 40 b5 d5 98 3f
       8.804386 1.2149566 4.609953 1.1940218
000010 e7 60 f6 3e 07 d9 e2 40 94 4d 00 3f ea 27 36 40
       0.48120806 7.0889926 0.50118375 2.8461862
000020 1b 45 d2 40 86 4f 99 40
       6.5709357 4.7909575

weight f4 [200, 490]
000000 65 3f 62 be 13 34 3c bd d6 de ae bd 63 da 5c bc
       -0.22094496 -0.0459481 -0.08538596 -0.013479802
000010 15 22 17 bd 23 a8 34 bd 01 9c 81 bd 3f 66 88 bd
       -0.036897738 -0.04410566 -0.063285835 -0.06660127
000020 c5 c7 aa 3d 31 6c 81 bd 0d 58 0d be 6c 56 fe bc
       0.08338884 -0.06319464 -0.1380312 -0.031047069
000030 b9 a5 c0 bd df 17 ef bd f5 2c 92 bc 72 46 36 be
       -0.09406609 -0.11674475 -0.017843703 -0.1780031
000040 f9 c7 62 3d ec 94 30 bd 7e 0f d8 bc ef 26 2e be
       0.05536649 -0.043110773 -0.026374575 -0.1700704
000050 2f 10 3e be 2d 60 1c be b4 42 dd bd 4d ea 56 3b
       -0.18560861 -0.15271063 -0.10803738 0.0032793463
000060 de 77 53 be 62 d3 fc bd 03 ac 49 bd 37 bc 1e 3d
       -0.20651194 -0.123450056 -0.04923631 0.038753714
000070 87 c0 75 bd 79 f1 c0 bd 1f 98 2f be b5 8d 51 3d
       -0.05999806 -0.09421057 -0.17147873 0.051160533
000080 f0 29 0c be 7d d9 8b bd 33 54 e6 3c b0 38 e3 bd
       -0.13687873 -0.06828592 0.028116321 -0.11094797
000090 7f d5 48 bd 3f 44 c1 3c 1f e7 83 bd f6 ec ed bd
       -0.04903173 0.023592113 -0.06440567 -0.11617462
0000a0 a2 4d 81 bd 2a 22 27 be f1 73 31 bd fd bc a4 bd
       -0.063136354 -0.16321626 -0.04332346 -0.08043859
0000b0 ea 1d 63 3d 4b 31 bb bc 4f f3 dd bd 0b a7 37 bb
       0.05544845 -0.022850653 -0.10837423 -0.002802315
0000c0 51 11 41 3c b2 8c 98 bd af cb a3 3e 04 50 ed bd
       0.011783914 -0.074487105 0.31991336 -0.115875274
0000d0 c1 8e 5f 3e 9c 1c 17 3e 81 85 e3 3b 02 94 1a bd
       0.218318 0.14757007 0.006943405 -0.037738807
0000e0 06 6c f8 3c c7 a2 20 bc 01 45 79 3e b7 46 51 bd
       0.030324947 -0.009804434 0.24342729 -0.05109283
0000f0 be ea 38 3d a6 e1 fb bc 1a af 87 3d a3 52 3b 3e
       0.045145743 -0.030747246 0.06625195 0.18293242
000100 3c fb 67 3e df 67 ce 3e 81 2e 41 3d 57 83 07 be
       0.22654432 0.40313622 0.04716349 -0.13233696
000110 0b a1 76 3e ac bc 47 be fa ba 1a be 93 21 85 3e
       0.2408487 -0.19505566 -0.15110388 0.26002178
000120 a2 9b e8 bd a4 30 1e be dd 39 66 3e ed 0b 65 be
       -0.113578096 -0.15448242 0.2248301 -0.2236783
000130 07 74 bc 3d 16 0c cc bd 27 d8 61 3e 0f bd e4 3d
       0.09201818 -0.09963243 0.22055112 0.111688726
000140 95 a5 c9 3e 90 d9 fb bd 19 1f 95 bd c6 dd 0b 3e
       0.39384142 -0.12297356 -0.07281322 0.13658819
000150 7e 94 2e 3e 69 13 8e bd 54 e8 90 bd 84 9c 51 3e
       0.17048833 -0.06937296 -0.07075563 0.20469862
000160 b5 4f 40 3e 3c 59 9e 3d 35 17 72 3e a5 ed 93 3d
       0.18780406 0.07731864 0.23641665 0.072230615
000170 39 01 cd bd 91 91 26 3d 30 59 b8 3e ae 5c 9f be
       -0.10009999 0.040666167 0.36005545 -0.31125396
000180 83 b8 f3 3d 1f c4 09 3e 80 88 d2 bc f6 0e 48 3d
       0.11900427 0.1345372 -0.025699854 0.048842393
000190 83 20 12 3d 9d 1f 37 be 36 0b bd 3d 2b 8b 5c bc
       0.035675537 -0.17883153 0.09230654 -0.013460915
0001a0 d2 bc 96 3d 3f 19 1b 3e 47 11 f1 bc 4e 64 81 bc
       0.07360233 0.1514635 -0.029427184 -0.0157949
0001b0 e2 56 6d bc 85 ff 59 3d 33 23 46 3d 45 63 da 3c
       -0.0144860465 0.053222198 0.048373412 0.026658664
0001c0 4c ea fb 3d 2f 39 28 3e 8f bb cb 3b 17 1c 15 bd
       0.12300548 0.16428064 0.006217427 -0.03640374
0001d0 5a c6 03 3d 0a 3d b5 3c a7 a0 26 3d 6e eb 54 bd
       0.032171585 0.022123832 0.040680554 -0.051982336
0001e0 da 94 bb 3a d8 9a e2 3c 06 e8 08 3e db f7 9e 3d
       0.0014311329 0.027661726 0.1336976 0.077621184
0001f0 7c e2 0a 3e a8 df 23 bc 2b 4c 91 3d 08 3d 9b bc
       0.1356296 -0.010002054 0.07094606 -0.01895
000200 b9 d5 68 3c c4 ea 84 3b c0 95 08 bc d5 0a 57 3e
       0.014211112 0.0040563066 -0.008336484 0.21000226
000210 18 c2 a8 3d a8 e9 14 3c 1d 85 c3 3d 58 67 27 3d
       0.082401454 0.009088911 0.09546874 0.04087004
000220 b3 0f 9f 3c 82 0d 0c 3e 60 b0 09 3e 5a a3 2d bd
       0.019416666 0.13677028 0.13446188 -0.042392112
000230 97 00 54 3e 89 8b 76 3e 70 1b 83 3d 40 af bd 3d
       0.2070335 0.24076666 0.06401718 0.09261942
000240 7a 1d 2d 3e 98 42 59 3d d1 c6 2f 3e 69 5f a2 3e
       0.16905776 0.053042024 0.17165686 0.31713417
000250 50 60 a9 3e 82 52 ce 3e 90 33 2b 3e 4b f0 4a 3e
       0.33081293 0.40297323 0.16718888 0.19818227
000260 4d fa 59 be 3e 9f 66 bd fd 11 94 3d 26 21 ce 3e
       -0.21286888 -0.05630421 0.072299935 0.40259665
000270 98 2f 43 3e c3 f9 f3 3e 1a ce 17 3e 77 68 23 3e
       0.19061124 0.4765149 0.14824715 0.15957819
000280 e5 c1 c7 3d a2 6c 19 3f a9 12 b6 bc 15 6a 48 3e
       0.09753779 0.59931386 -0.022225695 0.19571717
000290 14 d6 3d 3d 84 20 46 3e d6 4b 42 3e f4 9b c3 3e
       0.04634674 0.19348341 0.18974242 0.3820492
0002a0 0a e1 4e be 9d 99 9c bd 15 60 62 3e 63 aa a3 3d
       -0.20203033 -0.07646487 0.22106965 0.07991483
0002b0 2e a4 79 3e 9b 08 18 bd c7 76 9e 3e 5c 56 65 3e
       0.24379036 -0.03711758 0.30949995 0.22396225
0002c0 1d 83 35 3e 48 b8 91 bb d2 f3 11 3e 8e eb 72 3e
       0.17725797 -0.004447017 0.14253166 0.2372267
0002d0 34 5c 93 bd c5 a6 34 be 28 d1 84 3e 13 b4 1e 3d
       -0.07195321 -0.17641743 0.25940824 0.03874595
0002e0 c9 e6 db 3c 9c ee d8 bc 00 9d b5 3e c4 07 cf bd
       0.026843445 -0.026480965 0.35471344 -0.10108903
0002f0 30 fe 8f 3d c0 a5 5c be b7 5a 96 3e 6a ee 3b 3e
       0.07030904 -0.21547604 0.29366085 0.18352666
000300 2d e4 54 bb e1 80 7a 3e 6c a2 1a 3c 3c e4 3d be
       -0.0032484636 0.24463226 0.009438138 -0.18544096
000310 f4 6d f3 bd fb a4 10 3e 62 81 59 be 77 44 66 bd
       -0.11886206 0.14125435 -0.21240762 -0.056217637
000320 8f 90 b1 3d 37 7c 67 be f2 ce d0 bc d4 bf d3 bc
       0.086701505 -0.22605978 -0.025489304 -0.025848307
000330 b1 a8 64 bd 69 1a f9 3c 9e 33 10 bf a5 5f 15 bc
       -0.05582494 0.030408101 -0.5632876 -0.009117042
000340 6d cc eb 3d d5 35 a6 3d ca 12 4e be c5 d4 c2 bd
       0.115136005 0.081157364 -0.20124355 -0.09513239
000350 77 76 9d be cb b7 1e 3e a2 63 13 bd 03 04 38 3e
       -0.30754444 0.15499799 -0.03598369 0.1797028
000360 58 e8 b9 bd 33 4f 19 bd 6e 62 87 bd f5 2c bb 3b
       -0.09077519 -0.037429046 -0.06610571 0.0057121464
000370 b9 d8 f8 bd f9 1e e1 bd 74 80 c6 3d d2 68 76 be
       -0.121507116 -0.10992236 0.09692469 -0.24063423
000380 4a 0d 32 3e 32 73 7f 3d 1c e7 f2 bc fa a1 8d bc
       0.17387882 0.06236572 -0.029651217 -0.01728915
000390 f6 b9 c2 3d 37 cb b6 bd 34 a5 8d 3d d2 73 cb bb
       0.095081255 -0.08925479 0.069162756 -0.006208875
0003a0 1c 9f 46 bd 6e 89 89 3d 5f 3f 02 3e 66 44 24 be
       -0.048491582 0.06715666 0.12719487 -0.16041717
0003b0 82 e8 30 be 09 df 96 3d ba 73 54 3b 22 65 46 be
       -0.17276195 0.07366759 0.0032417611 -0.19374517
0003c0 27 1e 8f be 95 73 b0 3d 44 e9 07 be a8 28 25 be
       -0.27952692 0.086157955 -0.13272578 -0.1612879
0003d0 79 2b ac bd 5f 4a bc bd 96 60 56 3d 57 04 64 bd
       -0.08406729 -0.09193873 0.052338205 -0.0556682
0003e0 9d d0 ce 3d 86 8e 63 bd de 40 dc 3d 52 a8 b4 3d
       0.100983836 -0.055555843 0.1075456 0.08821167
0003f0 ab 2f 1e 3e fc 2a cc 3d e7 ea d3 3d e4 00 45 3d
       0.15447871 0.09969136 0.103475384 0.048096552

bias f4 [200]
000000 51 8d 2e 39 d7 51 b1 37 ef f9 1c b7 9c d2 51 b8
       0.00016646578 2.1138154e-05 -9.356517e-06 -5.002563e-05
000010 35 88 dc b8 dd 92 1e 36 4e 87 81 37 00 84 ad 99
       -0.00010515788 2.362932e-06 1.5441005e-05 -1.7941095e-23
000020 35 53 50 b7 fa da 0a b7 2e ce f4 37 a8 63 78 b7
       -1.2417139e-05 -8.276425e-06 2.9183077e-05 -1.4805155e-05
000030 8a 8a 1d 38 ac ec da 37 d6 a6 89 39 50 71 9d b6
       3.756074e-05 2.6097834e-05 0.0002625498 -4.692156e-06
000040 04 6e 84 36 66 86 8d b1 e5 44 8f 36 e4 d5 15 b6
       3.946714e-06 -4.1189194e-09 4.2697525e-06 -2.232723e-06
000050 c5 b4 cc b5 42 e1 ae b7 84 dc 86 b8 ac e1 8b b7
       -1.5251795e-06 -2.084731e-05 -6.430692e-05 -1.6675178e-05
000060 2c 49 75 38 30 e2 8b b1 c6 04 0b 38 6a ba 7c 36
       5.84807e-05 -4.071147e-09 3.3144628e-05 3.7659433e-06
000070 fe 01 16 b7 0a f8 4f b7 66 bc 00 b8 3c 37 8d 38
       -8.941161e-06 -1.2395913e-05 -3.0693038e-05 6.733692e-05
000080 a0 da 3a b7 8d dc 0f 37 0c 7e 55 b6 ea 59 1e b8
       -1.11373665e-05 8.574815e-06 -3.1812842e-06 -3.7753874e-05
000090 c0 0c 26 b5 ba e9 5d b6 0d 9b 6e 38 89 4d 47 b6
       -6.185837e-07 -3.3067613e-06 5.6888024e-05 -2.9698442e-06
0000a0 8d e3 4f b5 0d 37 66 b9 0c 07 89 b7 80 e8 c9 35
       -7.744464e-07 -0.00021955017 -1.6334954e-05 1.5043333e-06
0000b0 d8 04 b7 b5 44 35 8b 37 48 31 33 b6 1d bb 3f b9
       -1.3635972e-06 1.6594895e-05 -2.6701764e-06 -0.00018284885
0000c0 4c e0 ca 37 44 b8 8b b4 75 97 af 37 cc 17 11 38
       2.4184723e-05 -2.6024838e-07 2.0932153e-05 3.4592857e-05
0000d0 f5 27 3b b8 ae 5a 32 b8 26 fd dd b7 48 f0 70 34
       -4.4621487e-05 -4.252296e-05 -2.6463134e-05 2.2439156e-07
0000e0 00 60 db 37 e2 25 4b b7 f0 a3 4b b8 fb 5e b9 35
       2.6151538e-05 -1.2108563e-05 -4.855165e-05 1.3811217e-06
0000f0 0a 07 04 38 40 c5 9c 36 cc 62 f1 35 c0 07 4a b6
       3.1477808e-05 4.672125e-06 1.7984653e-06 -3.0104857e-06
000100 d6 f4 1e 37 30 72 89 35 38 eb 1f b8 e0 b3 c9 35
       9.474539e-06 1.0240528e-06 -3.812762e-05 1.5028018e-06
000110 74 5e 7d 35 9d 83 24 37 5a 13 05 b8 4c db a6 b3
       9.438729e-07 9.805805e-06 -3.1727694e-05 -7.769867e-08
000120 fd cc d9 35 bc 98 11 b7 1f 89 88 37 8c 1c 59 b7
       1.6227419e-06 -8.678235e-06 1.6276315e-05 -1.29408545e-05
000130 75 17 98 37 3e ca 49 b7 d8 26 d1 37 46 bb de b4
       1.8130735e-05 -1.2027622e-05 2.493283e-05 -4.1486982e-07
000140 d6 44 f7 35 22 62 e8 37 62 5c 12 b8 05 3e 0c 37
       1.8422968e-06 2.7702252e-05 -3.489515e-05 8.35909e-06
000150 a8 3f 75 b6 6c e0 04 b8 f0 47 2f 32 88 ae 0a 36
       -3.6544898e-06 -3.168026e-05 1.0202697e-08 2.0665193e-06
000160 c9 e8 ed 35 24 d7 3a b8 bb de cc 37 1e 37 28 36
       1.7725625e-06 -4.454622e-05 2.4422412e-05 2.5066033e-06
000170 c9 ee 50 b8 ef 01 08 b6 64 28 70 36 b8 4c 4f b6
       -4.981345e-05 -2.0266705e-06 3.5786297e-06 -3.089006e-06
000180 fe c7 ca 36 5f 9e 04 38 f0 26 1c b8 61 2f 88 b7
       6.0433513e-06 3.1618747e-05 -3.722956e-05 -1.6234526e-05
000190 03 c4 5a 37 d9 11 47 b6 e0 40 ed b6 10 e3 b7 37
       1.303945e-05 -2.96637e-06 -7.070703e-06 2.1921034e-05
0001a0 f4 3a 63 38 bc 1b c7 b6 a2 59 d6 37 f4 8a 1e 32
       5.4175922e-05 -5.933891e-06 2.5552526e-05 9.228405e-09
0001b0 1c f2 9b b6 36 2e a2 b6 de 0a 90 36 40 fd 52 35
       -4.647545e-06 -4.833356e-06 4.2927995e-06 7.8599624e-07
0001c0 ea 6f c3 b6 c0 00 80 37 54 7c e7 b6 50 c6 50 36
       -5.8244814e-06 1.5259138e-05 -6.89881e-06 3.1109848e-06
0001d0 a3 59 5f 37 f6 4c ea b2 e8 08 83 b4 df a4 5d 38
       1.3312706e-05 -2.7276183e-08 -2.4407132e-07 5.2844054e-05
0001e0 76 1e 7e 38 5d 79 d6 b7 e4 ff b9 b4 cd 65 d3 37
       6.0586688e-05 -2.5567302e-05 -3.464512e-07 2.5200565e-05
0001f0 ec 08 65 b5 b7 87 62 37 6b 89 4c b8 d3 f7 af 35
       -8.532213e-07 1.3502248e-05 -4.876537e-05 1.3110642e-06
000200 d7 37 dc b4 2f 46 df b7 44 8c d8 38 26 d4 26 b7
       -4.1018822e-07 -2.6616353e-05 0.00010325809 -9.943766e-06
000210 44 ce 14 37 26 0f 79 38 c9 cc 10 37 82 bb 73 b9
       8.869512e-06 5.9380334e-05 8.630749e-06 -0.00023244138
000220 55 e3 9c b6 bc 10 84 b6 64 62 b6 38 fc 3f f9 36
       -4.675627e-06 -3.9358547e-06 8.696763e-05 7.428227e-06
000230 50 26 0a 38 1b 83 c7 37 c8 ac 12 b8 b0 03 47 b6
       3.2937445e-05 2.37837e-05 -3.4970028e-05 -2.9655457e-06
000240 1e af f3 81 65 40 bd 38 76 a3 df 37 81 0f 8c 36
       -8.9515383e-38 9.024217e-05 2.6659789e-05 4.17413e-06
000250 50 66 86 b6 54 98 92 b5 3e cd 2e b5 e4 4e f9 36
       -4.005422e-06 -1.0922181e-06 -6.511872e-07 7.4299624e-06
000260 58 40 60 b8 b0 d9 86 35 f2 cd 21 37 a3 b2 d7 37
       -5.3465687e-05 1.0047133e-06 9.644298e-06 2.5713181e-05
000270 45 49 03 b9 1e 24 c7 b6 6a 3d 69 37 f3 14 d0 b2
       -0.00012520429 -5.9348667e-06 1.3902181e-05 -2.4223914e-08
000280 1b 46 41 38 5a 7a 0d b8 d0 51 26 b6 ec 7b 41 b7
       4.6080077e-05 -3.373097e-05 -2.4783549e-06 -1.1532549e-05
000290 a0 e6 01 32 90 ef a2 36 7b 97 ac 34 a0 96 45 b7
       7.561226e-09 4.855865e-06 3.2147713e-07 -1.1777185e-05
0002a0 b2 41 94 b7 22 be 47 36 77 ac ed 37 46 22 90 36
       -1.7673567e-05 2.9763983e-06 2.8332912e-05 4.2955244e-06
0002b0 d0 ce 16 b6 48 c2 73 35 dd cc 21 37 e8 3f 54 38
       -2.2472123e-06 9.080727e-07 9.644046e-06 5.0604256e-05
0002c0 c0 e3 83 38 a8 82 ba b6 73 65 a6 36 75 56 22 b6
       6.2889885e-05 -5.5584424e-06 4.9589958e-06 -2.4190206e-06
0002d0 5d 38 2e 37 d9 60 a2 b7 27 f6 7a b6 f6 0a f2 37
       1.0384331e-05 -1.9357003e-05 -3.7396183e-06 2.8853752e-05
0002e0 9b 9c 11 b6 6b 7a a9 37 74 47 75 36 ec 0d 94 38
       -2.169784e-06 2.0203375e-05 3.6549436e-06 7.059783e-05
0002f0 9a de 08 b3 80 90 8d 37 9c f7 ab b8 d3 1e 43 38
       -3.1867422e-08 1.6875798e-05 -8.200036e-05 4.652033e-05
000300 9e 34 8e b7 46 1a eb b7 69 df bf 37 a5 25 1f b8
       -1.695222e-05 -2.8026418e-05 2.2873008e-05 -3.7943613e-05
000310 dc 84 90 37 8b bd 41 b8 01 8d 1f 36 9c df 4d b7
       1.7228005e-05 -4.619131e-05 2.3774921e-06 -1.2271015e-05

weight f4 [200]
000000 7f bf 6e 3f c4 92 3f 3f f6 1e 18 3f 16 5e 0a 3f
       0.9326095 0.7483332 0.5942224 0.54049814
000010 1e 89 62 3f 2c ac 23 3f a2 7f 0e 3f ee f6 a8 3e
       0.88490474 0.6393459 0.556635 0.33000892
000020 74 56 23 3f d0 d2 cf 3e 5a 76 38 3f 0d 95 62 3f
       0.6380379 0.40590525 0.7205559 0.88508683
000030 ed d4 5b 3f bf c6 60 3f 5a b0 90 3f 74 27 eb 3e
       0.85871774 0.8780326 1.1303818 0.45928538
000040 85 59 32 3f 88 36 09 3f 1a e4 ec 3e 85 1f e7 3e
       0.69667846 0.53598833 0.46267778 0.45141235
000050 35 25 01 3f bd 68 62 3f ba f3 62 3f e3 1f 4d 3f
       0.504474 0.8844107 0.8865315 0.8012678
000060 45 39 62 3f 80 cd a9 3e 32 49 52 3f 0b 0e 0f 3f
       0.88368636 0.33164597 0.8214294 0.558808
000070 06 4d 62 3f dd 03 fd 3e c0 e9 18 3f d5 8d 59 3f
       0.8839878 0.4941701 0.59731674 0.84982044
000080 75 cc da 3e 6b 81 44 3f 69 a1 38 3f d7 23 74 3f
       0.42734113 0.76759976 0.7212129 0.9536719
000090 0a fb 36 3f 64 8a 5c 3f 0e e7 37 3f 27 6f 1b 3f
       0.71476805 0.8614867 0.71836936 0.6071648
0000a0 dd 22 0e 3f d8 b6 5d 3f 7f f5 4e 3f 5f c5 e2 3e
       0.5552195 0.8660712 0.8084335 0.44291207
0000b0 48 a5 ca 3e 07 88 4c 3f 03 11 4b 3f c4 11 41 3f
       0.39579225 0.7989506 0.7932283 0.75417733
0000c0 57 ab 8b 3f 26 75 15 3f a6 ae 4a 3f 80 49 45 3f
       1.0911664 0.5838188 0.7917274 0.7706528
0000d0 81 53 48 3f 05 77 e5 3e b2 de 5f 3f 3a 73 ec 3e
       0.78252417 0.44817367 0.8744918 0.4618166
0000e0 1c d0 69 3f 56 89 32 3f db d4 1b 3f 70 0e b8 3e
       0.91333175 0.6974081 0.60871667 0.35948515
0000f0 da 2e 5f 3f 09 e7 44 3f 1b 7a 32 3f b5 5b 43 3f
       0.87180865 0.7691503 0.6971757 0.7631181
000100 e4 e3 4c 3f d3 65 51 3f c1 42 fc 3e 87 80 33 3f
       0.80035233 0.81795996 0.4926968 0.7011799
000110 75 1e 3d 3f 28 c1 3f 3f e2 47 1d 3f 09 80 09 3f
       0.738746 0.7490411 0.6143781 0.5371099
000120 89 1f 13 3f 66 36 41 3f bc c3 45 3f 8f f2 38 3f
       0.57469994 0.7547363 0.7725179 0.72245115
000130 03 e9 2c 3f eb dc a6 3e e1 c0 6a 3f 1e 2b fa 3e
       0.6754305 0.32590422 0.9170056 0.4886102
000140 f4 53 9e 3e b4 41 6c 3f 96 49 28 3f d1 a5 4d 3f
       0.30923426 0.92287755 0.65737283 0.8033114
000150 fe a7 1e 3f d4 ad 56 3f 3a ae ab 3e 12 e8 5d 3f
       0.61975086 0.8385899 0.33531362 0.86682236
000160 7e 92 4f 3e c6 b9 4b 3f 36 58 3a 3f 4a d7 f3 3e
       0.20270726 0.7958034 0.7279085 0.4762519
000170 cb 6d 62 3f dc e7 2c 3f 5a 6f b5 3e 4f 0b 33 3f
       0.8844878 0.6754129 0.35436517 0.6993913
000180 65 cc b6 3e 10 24 47 3f ff 21 40 3f e9 f2 4b 3f
       0.35702816 0.777894 0.75051874 0.79667526
000190 84 da 40 3f a8 0f c9 3e e3 9d 2c 3f eb a1 1a 3f
       0.7533343 0.39269757 0.67428416 0.6040332
0001a0 ee 95 64 3f a0 78 2f 3f 9a 8a 08 3f a8 5f b6 3e
       0.89291275 0.68543434 0.5333649 0.35619855
0001b0 35 35 ab 3e ff 7e ff 3e ff 81 1b 3f 83 2c 1d 3f
       0.3343903 0.49901578 0.60745233 0.61396044
0001c0 61 c5 2d 3f c4 b5 4b 3f 10 3b d8 3e ca 31 46 3f
       0.678793 0.7957423 0.4223256 0.7741972
0001d0 70 02 2b 3f af d3 af 3e 4b 9b e2 3e 92 fe 58 3f
       0.66800594 0.3434119 0.44259104 0.84763443
0001e0 aa de 43 3f 50 10 56 3f 1a a0 e5 3e 86 5a 5a 3f
       0.76511633 0.8361864 0.4484871 0.8529438
0001f0 8b 68 29 3f ca 8d 11 3f 4e 05 53 3f f5 b8 d1 3e
       0.66175145 0.5685698 0.8242997 0.40961424
000200 a2 c5 0b 3f c6 73 48 3f f6 26 7f 3f 92 6b 7b 3f
       0.5459844 0.78301656 0.99668825 0.98211014
000210 5c 67 49 3f 1e f0 33 3f 5b 83 27 3f 0a 39 64 3f
       0.7867334 0.70288265 0.6543481 0.89149535
000220 5a aa 2c 3f 70 41 05 3f af 88 51 3f cc 7c 2b 3f
       0.67447436 0.52052975 0.8184919 0.669873
000230 0a a8 1e 3f 96 a7 34 3f 1f c5 21 3f 3a 1d 50 3f
       0.6197516 0.70568216 0.6319141 0.81294596
000240 62 33 d2 3e e7 cf 61 3f dd 36 09 3f 16 26 64 3f
       0.41054827 0.8820786 0.5359934 0.89120615
000250 65 88 59 3f de 80 a0 3e 70 16 14 3f 3d 1e 45 3f
       0.84973747 0.31348318 0.57846737 0.76999265
000260 f9 6e 54 3f 80 a5 41 3f c1 82 5b 3f 67 eb 56 3f
       0.8298183 0.7564316 0.8574639 0.83952945
000270 cd 75 41 3f b9 cb 17 3f 19 c1 4a 3f 1c de d3 3e
       0.75570375 0.5929523 0.79200894 0.41380394
000280 04 ab 5e 3f c8 8c 00 3f 08 5f 49 3f e9 7e 01 3f
       0.869797 0.50214815 0.7866063 0.50584275
000290 51 e6 f4 3e 4b 3a db 3e f9 3e 90 3e 42 32 27 3f
       0.47831967 0.42817912 0.28173044 0.6531106
0002a0 8f 04 73 3f d8 ad 47 3f 97 05 58 3f 4e f3 23 3f
       0.9492883 0.7799964 0.8438353 0.6404313
0002b0 9e d7 43 3f d1 35 43 3f 76 1d bd 3e 9b a6 5c 3f
       0.7650088 0.7625399 0.3693654 0.8619172
0002c0 3e e8 4d 3f e8 29 23 3f f9 37 5f 3e b9 86 3a 3f
       0.804325 0.6373582 0.21798696 0.7286182
0002d0 e2 1f d0 3e 2d b3 f8 3e 9a ce 51 3e 41 66 61 3f
       0.40649325 0.485742 0.20488968 0.8804665
0002e0 32 da 03 3f ba 7b 36 3f 31 ab 34 3f ad 11 7a 3f
       0.51504815 0.7128254 0.7057372 0.9768322
0002f0 5f 90 e3 3e dd 44 8d 3f a9 48 5f 3f 6a bf 68 3f
       0.44446084 1.103664 0.87220246 0.90917075
000300 14 f0 24 3f 98 61 38 3f a3 bc 19 3f 4c 90 d4 3e
       0.6442883 0.72023916 0.6005346 0.4151634
000310 32 87 37 3f 97 8d 67 3f 0b ea 32 3f 6b 26 49 3f
       0.71690667 0.90450424 0.6988837 0.78574246

bias f4 [200]
000000 67 27 ab 3e c9 9c 63 3e 34 47 71 3d 5e 71 cd 3e
       0.334285 0.22227778 0.058905795 0.40125555
000010 29 74 30 3e de e5 04 bf c2 0e d4 be e8 59 c6 be
       0.17231812 -0.5191325 -0.4141751 -0.38740468
000020 e4 e1 c2 be 82 24 8f be c5 87 82 3e a7 b6 bd be
       -0.38062966 -0.2795754 0.2549421 -0.37053415
000030 55 89 3c be 86 b1 1f 3d d9 d9 1b 3e d8 28 02 bf
       -0.18411763 0.03898766 0.15219821 -0.5084357
000040 cf 42 58 3c c9 3e f3 be 81 e1 45 be e8 5e 16 bf
       0.013199522 -0.4750884 -0.19324304 -0.58738565
000050 61 e0 0f bf af 1e b5 be 57 1c a6 3c ce 4e 55 3e
       -0.5620175 -0.35374972 0.020277185 0.20830843
000060 21 0d b8 3d 3c 4d a4 be 82 1b 23 3e 3f 44 e4 be
       0.08986879 -0.32090175 0.15928462 -0.44583318
000070 26 f5 55 be df 54 c6 be 90 9e d3 ba 12 16 95 be
       -0.20894298 -0.38736627 -0.0016145278 -0.291184
000080 3f 55 7b be 76 d4 a4 be 91 41 9b 3b 9c cb 46 3d
       -0.24544238 -0.32193345 0.0047380407 0.04853402
000090 37 57 8b 3d 90 75 b5 be cf 91 67 3e 05 70 e8 be
       0.06803744 -0.35441256 0.22614215 -0.45397964
0000a0 69 d2 d2 be 13 35 45 bc 2f 2a 64 be 9e df 11 bf
       -0.41176155 -0.01203658 -0.22281717 -0.5698184
0000b0 e0 21 cb be 22 8d dd be ae f9 89 be ef 5c 4c 3d
       -0.39674282 -0.43271738 -0.26948303 0.049893316
0000c0 9b b1 7b bc 39 4b 20 bc a3 8a eb be a3 35 06 bf
       -0.015362169 -0.0097835595 -0.4600421 -0.52425593
0000d0 b1 0c 33 be f0 03 9b be c6 fb 47 3e fe 8e 37 be
       -0.1748531 -0.30276442 0.19529638 -0.17925641
0000e0 4c 54 35 be 58 74 a9 bd ba 33 04 3f 31 2c 0b bf
       -0.17707938 -0.08274144 0.5164143 -0.54364306
0000f0 57 4a bf 3d 41 b2 4f 3e 91 83 93 ba 58 d1 97 be
       0.09340351 0.20282842 -0.001125442 -0.29651904
000100 10 99 a5 be 35 49 0d 3e 6c dd 3b bf 63 51 9c bd
       -0.3234334 0.13797458 -0.7338474 -0.07632711
000110 a9 dc b6 be d0 5f 3a 3d cc 4a 1a be 33 06 f3 be
       -0.35715225 0.04550153 -0.15067595 -0.47465667
000120 d1 99 cc be 5c 1d 25 3e d8 2f f8 be 07 79 63 be
       -0.39961103 0.16124481 -0.48474002 -0.22214137
000130 20 f2 18 3e dc 68 f4 be b7 37 18 be fc 0c d7 be
       0.14936113 -0.4773625 -0.14865004 -0.42002094
000140 56 fa c4 be 48 c3 7e be 03 f1 82 be 05 bc cb be
       -0.3847224 -0.24879181 -0.25574502 -0.39791885
000150 1b bb f5 be 66 5d 88 be 2f f7 97 be 9b 5e 6a be
       -0.47994313 -0.26633757 -0.29680774 -0.22887652
000160 43 01 0a bf 2e 24 9c be 9c f4 b8 be 5e cb cb be
       -0.53908175 -0.30496353 -0.36124122 -0.39803594
000170 02 36 bb 3d 2b ae da be 4c c3 1e bf 82 c2 0c 3e
       0.091411605 -0.42711005 -0.6201675 0.13746074
000180 18 d2 21 bf f0 0c 72 bd 3c a7 fb bd de 5c f9 be
       -0.632112 -0.05909437 -0.12287757 -0.48703665
000190 38 8d 0a be 31 c1 2c bf 6e 0b 6c be b7 89 9a 3e
       -0.13530433 -0.67482287 -0.23051235 0.30183193
0001a0 2a 6f 08 3e 41 74 c2 be 3f 19 a0 be d4 3f d8 be
       0.13323656 -0.3797932 -0.3126926 -0.42236197
0001b0 39 34 c9 be 3a 4a 35 bd 40 aa 29 3e f5 0e df be
       -0.39297655 -0.04426024 0.16568851 -0.435661
0001c0 20 9d 9a be 07 fd a4 be 85 ce e2 bd d8 46 d4 bc
       -0.30198002 -0.32224295 -0.11074547 -0.025912687
0001d0 a8 5f 97 be 24 30 ba be 23 7f d4 be 9d fb 63 3e
       -0.29565167 -0.36364853 -0.41503248 0.22263952
0001e0 ab 98 a8 be e3 68 3b 3d 3e 30 c4 be ae 72 2c 3e
       -0.32928976 0.045754325 -0.38318056 0.16840622
0001f0 fc 85 ec be 3a 9d f1 be 6e a0 57 3e 43 36 99 be
       -0.46195972 -0.47190267 0.21057293 -0.2992421
000200 19 c4 f0 be 25 9d ba be 13 64 ae be 7b c2 fa 3e
       -0.4702461 -0.36448017 -0.34060726 0.48976502
000210 59 58 a6 be 57 e4 0d 3e 1b e3 9c bd ab 1c 55 3d
       -0.3248928 0.13856636 -0.076605044 0.052029293
000220 17 a1 32 3c 96 34 01 be 37 92 a9 be a6 d4 17 be
       0.010902665 -0.12617716 -0.33119366 -0.14827213
000230 83 c3 cf be 6a 16 99 be 1d 40 1d be 29 61 cb bd
       -0.4057885 -0.29899913 -0.15356489 -0.09930641
000240 1c 87 15 bf 6d 36 f4 3d 15 22 b2 be 45 4e 56 be
       -0.58409286 0.119244434 -0.34791628 -0.20928295
000250 b7 83 57 3e c5 39 8f be 3c ed eb be 28 ca 9f 3e
       0.21046339 -0.27973762 -0.46079433 0.3120892
000260 dc dc b6 be 57 9b 02 bf 09 ba 99 be 50 e1 94 3d
       -0.35715377 -0.5101828 -0.30024746 0.072695374
000270 c7 ec 0d 3e 70 b6 46 bd 17 c1 fb 3d 8e ef b7 be
       0.13859855 -0.04851383 0.12292688 -0.35924953
000280 71 9b 8f be e6 57 06 bf 06 98 83 3e d1 69 21 bf
       -0.2804828 -0.5247787 0.25701922 -0.6305209
000290 29 9d 04 bf da 2d 20 bf 39 bf 17 bf 0a 09 84 bd
       -0.5180231 -0.62569964 -0.5927616 -0.064470366
0002a0 39 3f 21 be 32 a7 77 3d 92 c9 aa be 37 33 c9 be
       -0.15746774 0.060462184 -0.3335691 -0.39296886
0002b0 0b 89 a0 3d c1 aa 9e bd e4 78 2c bf a8 fe 29 3e
       0.07838639 -0.077474125 -0.67371964 0.1660105
0002c0 7d d7 97 be 2f 03 1e bd 7f 85 04 bf 5a 65 ea be
       -0.29656592 -0.038577255 -0.517662 -0.4578045
0002d0 40 5d 60 be ca 1b ac 3d c6 ec ee be bb 21 c8 3d
       -0.21910572 0.08403738 -0.4666502 0.097720586
0002e0 47 49 de be fc 23 5f 3e 0a 4b 0b bf a0 37 c1 bd
       -0.4341528 0.2179107 -0.54411376 -0.09434438
0002f0 51 a6 f8 be fc 36 96 3e db f8 9f 3d 1f bd 7c be
       -0.4856439 0.29338825 0.07811137 -0.24681519
000300 1a c2 11 be b2 a3 2b 3e d1 fc 7e bd 08 6a 1a bf
       -0.142342 0.16761664 -0.062252823 -0.6031804
000310 64 3c c3 be 47 b2 02 3e f3 02 57 be c7 07 62 be
       -0.38132012 0.1276332 -0.20997219 -0.2207328

running_mean f4 [200]
000000 48 55 0d 40 55 91 e2 bf 93 97 f0 be c1 f3 90 c0
       2.2083302 -1.7700602 -0.46990642 -4.529755
000010 1a d0 80 3f 3c 43 66 c0 8d 4c c6 c0 a6 a3 d3 bf
       1.0063508 -3.5978537 -6.1968446 -1.6534317
000020 c4 cc f8 3e 55 0e 07 40 16 f8 e6 c0 d5 ab d4 c0
       0.48593724 2.1102498 -7.217784 -6.6459756
000030 80 12 50 40 4a 21 26 41 47 b6 3b c0 d4 98 2f 40
       3.2511292 10.383127 -2.9330003 2.743703
000040 b5 c8 11 bf b9 fc b2 bf e8 75 85 c1 ae d6 c6 40
       -0.5694688 -1.3983375 -16.682571 6.213706
000050 06 59 82 40 5e e5 c5 c0 55 db 3e 41 9a b1 34 c1
       4.073367 -6.184249 11.928548 -11.29336
000060 ae 6f 0a 41 c3 30 ae c0 54 38 0c 3e 8b 56 27 c0
       8.652266 -5.4434524 0.13693362 -2.6146572
000070 b4 f5 13 41 e0 14 56 c0 60 e4 8f bf 9c bd 7e c1
       9.247486 -3.345024 -1.124157 -15.921291
000080 50 75 ae c0 1d 7e 18 c1 9c 8a 81 bf 66 c0 df 3e
       -5.4518204 -9.530789 -1.0120425 0.43701476
000090 82 52 5e c0 4e 85 be c0 65 33 a7 3f 5e 1e 2d c0
       -3.4737859 -5.9537725 1.3062559 -2.7049785
0000a0 50 68 06 c0 c0 82 79 41 84 1e b5 c0 d9 9e ae 3f
       -2.1001167 15.594421 -5.659975 1.3642226
0000b0 cb 44 d5 c0 5a 75 a5 c0 ec f0 66 c1 56 1b 7a c1
       -6.6646476 -5.170575 -14.433819 -15.631674
0000c0 fb a6 f9 3f 77 b0 ea c0 34 48 4d 41 50 73 63 41
       1.9504083 -7.334041 12.830128 14.215652
0000d0 1f d3 76 40 d8 0c fc bf b5 e3 12 40 2c 5b 58 c0
       3.8566358 -1.969142 2.2951481 -3.3805647
0000e0 14 17 09 41 6f 4d e3 40 5b ee 1c c0 49 e6 37 40
       8.568134 7.1032023 -2.452048 2.8734305
0000f0 2c 5f a6 40 f0 17 67 c0 01 4f af c0 c4 f8 85 c0
       5.1991177 -3.610836 -5.478394 -4.186617
000100 89 f0 0b 41 a6 f8 e4 c0 5e 8a 18 41 85 f1 c3 40
       8.746224 -7.1553526 9.533781 6.1232324
000110 3e 2d c7 c0 66 cb 46 40 7b 38 56 c0 c7 d8 4d c0
       -6.2242727 3.1061645 -3.3471973 -3.216356
000120 68 5c 79 c0 9d 2f 19 c1 96 bf b5 c0 8b bd cc c0
       -3.896265 -9.574124 -5.679637 -6.3981376
000130 77 aa 26 c0 6b 69 1c c0 dc fe 8b bf f8 c0 2c c0
       -2.6041543 -2.4439342 -1.0937152 -2.6992779
000140 1e c9 f9 3f 7d 4f c2 c0 f6 95 d0 3f b1 7e f3 c0
       1.9514501 -6.072203 1.6295764 -7.6092153
000150 4b 4f dc 40 94 89 d2 40 2e 88 f0 bf 58 4b f3 40
       6.8846793 6.579294 -1.8791559 7.602947
000160 ce 45 c8 40 81 92 09 c1 05 c0 c9 c0 05 42 6a 40
       6.258521 -8.598268 -6.30469 3.6602795
000170 5a 56 20 41 89 47 f0 c0 2b cf f1 3f 72 ea 0c c1
       10.021082 -7.5087323 1.8891348 -8.807238
000180 5a 2c 20 c0 f7 4a 34 41 46 2e e5 c0 51 7c ab c0
       -2.502707 11.268302 -7.1618986 -5.3589253
000190 3e 64 10 41 32 53 01 40 6f 63 99 c0 cc 0d 28 bf
       9.024473 2.0207028 -4.793388 -0.6564605
0001a0 dc d8 6d 40 77 de 41 c1 a3 5f ba bf a2 4e bc c0
       3.716361 -12.116813 -1.4560436 -5.8845987
0001b0 c8 65 00 40 92 87 f4 3e b4 10 e2 c0 12 03 a7 40
       2.0062122 0.47759682 -7.064539 5.219125
0001c0 24 07 6d 40 80 83 5e c1 be 52 0d c0 5b 1d cd 40
       3.7035608 -13.9071045 -2.2081752 6.4098334
0001d0 22 b9 8c c0 5f 30 a8 bf 75 20 04 3e f0 fd 40 40
       -4.397599 -1.3139762 0.12903006 3.015499
0001e0 70 7f 5b c1 2e 53 4e 40 a5 65 f7 bf 7f c9 05 c1
       -13.718613 3.223827 -1.9327894 -8.361693
0001f0 8e 98 9a c0 90 9e 14 c0 27 87 b9 c0 a4 cb 96 c0
       -4.8311224 -2.322178 -5.797748 -4.7123585
000200 8f 27 8e bf e2 bf b3 c0 25 9c b5 c0 60 71 f0 be
       -1.1105822 -5.617173 -5.6753106 -0.46961498
000210 cc e3 36 c1 e4 a9 82 c0 1b e1 59 c0 f2 de 1b 41
       -11.430614 -4.0832386 -3.4043643 9.74193
000220 72 82 a0 c0 26 0c f2 c0 8a 3d 40 c1 e4 fb 3e c0
       -5.0159235 -7.563983 -12.015024 -2.9841242
000230 25 18 c4 bf 45 85 ac c0 2a 7f 6b c0 0e 88 46 40
       -1.5319868 -5.3912683 -3.6796365 3.102054
000240 6a 2f 8f bf 36 e6 cc 40 a9 45 25 c1 1f 4d 33 41
       -1.1186345 6.403102 -10.329507 11.206328
000250 a6 91 25 c0 ed 0e 83 c0 3f 40 3e c0 23 11 a4 c0
       -2.5870147 -4.095572 -2.9726713 -5.127092
000260 3f 55 ac c0 63 e0 bf c0 ae ac 41 41 52 f1 8a 40
       -5.385406 -5.996141 12.104658 4.341958
000270 c5 ee e6 3d 68 90 5b c0 ad 85 dd c0 c7 80 4f c0
       0.112760104 -3.4306889 -6.922568 -3.242235
000280 a9 75 88 c1 73 ce e8 40 24 f9 7a c0 6d b5 e5 3f
       -17.057451 7.2752013 -3.9214563 1.7945992
000290 b3 9b 8f bf 1e 44 db bf ed bc ad 3f 6b 94 39 bf
       -1.1219391 -1.7130163 1.357328 -0.7249209
0002a0 c2 7a 03 41 16 c4 b6 3f af ec 1c c1 74 f4 a2 c0
       8.21747 1.4278591 -9.807784 -5.0923405
0002b0 54 4f f1 bf 5c 65 de bd 76 ae 96 bf e0 1d 05 c1
       -1.8852334 -0.108591765 -1.1771991 -8.319794
0002c0 2b 8d da 40 ba 3a 52 bf 4a 21 d6 40 b4 11 93 c0
       6.8297324 -0.8212086 6.6915636 -4.595911
0002d0 13 51 b4 3f 74 14 39 bf 8a f3 9a 40 fb 30 64 40
       1.4087242 -0.72296834 4.842229 3.5654895
0002e0 9b 33 6b c0 d5 69 df bf 3c c0 a0 c0 50 c8 87 c0
       -3.6750247 -1.7454172 -5.023466 -4.243202
0002f0 e8 bf ab 3e 6a 5c 27 bf 66 18 06 41 28 1f 14 41
       0.3354485 -0.6537539 8.380957 9.2576065
000300 aa eb 2e 40 f7 71 fe bf 68 bd 59 3d f5 55 c1 bf
       2.7331338 -1.9878529 0.053159148 -1.5104357
000310 83 6c de 40 2e 56 7f 40 bc 29 6b c0 87 fd b4 c0
       6.950746 3.989635 -3.6744223 -5.655948

running_var f4 [200]
000000 f3 30 84 42 e5 fe 47 43 12 ba c1 42 ae 73 63 42
       66.095604 199.99568 96.86342 56.86297
000010 c5 63 d8 43 3c be 3b 42 27 14 2d 42 bc 02 0a 41
       432.77945 46.935776 43.26968 8.625668
000020 3c 9c 2c 42 3d 4f 14 42 67 67 99 43 1c 0f 04 43
       43.152573 37.07738 306.80783 132.05902
000030 29 5d b1 43 01 06 aa 43 66 ed 81 42 2e bc 01 43
       354.7278 340.0469 64.96367 129.73508
000040 59 3e 6b 43 3f 52 24 41 ce 9b 72 42 f1 76 20 43
       235.24355 10.27008 60.652153 160.46461
000050 7c 52 6e 43 53 a1 4a 43 08 55 ac 43 a6 5d 04 44
       238.3222 202.63017 344.6643 529.46326
000060 85 7c 07 44 7e b8 f2 41 17 3e a5 43 30 82 3e 42
       541.9456 30.340084 330.48508 47.627136
000070 84 05 e6 43 88 9f 04 42 56 19 cd 42 cd 4c a5 43
       460.0431 33.155792 102.549484 330.6
000080 09 ee 55 42 94 2e 27 43 e2 56 8c 43 22 e2 8b 42
       53.482456 167.18195 280.67877 69.941666
000090 d1 07 42 43 18 85 16 43 f6 06 70 42 aa 3b 9b 41
       194.03053 150.5199 60.006798 19.404133
0000a0 6b fb 15 42 c0 1a c4 41 66 29 6e 42 9a 85 17 43
       37.495525 24.513062 59.54043 151.52188
0000b0 58 02 29 42 a4 cb 8e 42 a3 cd 13 43 7c 56 f0 41
       42.25229 71.397736 147.80327 30.042229
0000c0 d1 96 80 42 43 97 8c 42 77 fe d1 43 95 32 83 43
       64.29456 70.29543 419.988 262.39517
0000d0 be f4 97 43 9f 53 f9 41 2f cd fb 43 2f 83 41 42
       303.91205 31.16583 503.603 48.37811
0000e0 3e 62 ec 43 b3 b1 a5 43 6d 6d 27 42 e9 e1 2d 41
       472.76752 331.38828 41.85686 10.867654
0000f0 db 12 fd 43 24 f0 6c 43 3a 69 66 43 de bc bf 42
       506.1473 236.93805 230.41104 95.86888
000100 10 4d 4b 43 7f 35 d6 43 7d 0a 60 43 00 9b 90 43
       203.30103 428.41794 224.04097 289.21094
000110 41 b0 ab 42 7f d1 c3 43 e9 6e 9d 42 04 1c 02 42
       85.844246 391.6367 78.71662 32.52736
000120 be a5 1f 42 98 e7 ae 43 56 4c 85 42 3f ef 01 42
       39.911858 349.80933 66.64909 32.48364
000130 8f a0 3c 42 d3 95 ef 40 01 5a 75 43 4e 9b d0 41
       47.156796 7.487039 245.35158 26.075832
000140 b7 66 a3 42 e5 2f cf 42 1c 1a f7 41 cb 72 4c 42
       81.700615 103.593544 30.887749 51.112103
000150 f6 94 9c 43 76 fe 64 43 1b d8 cd 40 8c 24 b4 43
       313.16376 228.99399 6.43263 360.28552
000160 6e 2f eb 42 1a 45 21 42 d8 32 7a 42 68 15 6a 42
       117.592636 40.317482 62.549652 58.520905
000170 4d 43 0a 44 b3 c9 74 42 21 66 eb 42 b8 ed 95 43
       553.0516 61.19697 117.69947 299.85718
000180 29 78 0c 42 1a 51 ec 43 3f 3f 40 42 7e d3 e5 42
       35.117344 472.6336 48.061764 114.91307
000190 00 38 9b 43 02 eb a2 42 8e 49 89 42 27 10 e7 42
       310.4375 81.459 68.64366 115.53155
0001a0 7a 0e ef 43 34 28 ec 42 cb 74 40 42 b3 22 18 42
       478.1131 118.07852 48.114056 38.033886
0001b0 9d 7d 32 42 96 9e 84 42 4b e4 51 43 7e b8 14 43
       44.62267 66.30974 209.89177 148.72067
0001c0 35 fb 7b 43 2d 88 4b 43 e2 fd 83 42 92 b7 af 43
       251.98128 203.53194 65.995865 351.43414
0001d0 13 f7 30 42 20 68 08 41 6c 2d 52 41 95 34 39 42
       44.241283 8.525421 13.136089 46.30135
0001e0 f8 7c 35 43 98 30 de 43 9f 88 e4 41 9c bf e2 43
       181.48816 444.37964 28.56671 453.49695
0001f0 51 01 06 42 b0 82 ab 41 c3 2a a4 43 c6 cb d5 41
       33.501286 21.438812 328.33408 26.724499
000200 99 6b 1e 41 db d1 40 42 c8 14 88 42 3e 2b 9d 42
       9.901269 48.204937 68.04059 78.58446
000210 4a fc 52 43 7d 4c f1 42 50 93 b6 42 4b eb c1 43
       210.9855 120.64939 91.28772 387.83823
000220 53 74 0d 43 1d f2 66 42 4a 86 89 43 04 a3 e5 42
       141.45439 57.73644 275.04913 114.81839
000230 ef fc b8 41 5b bf 8d 41 1d 90 b9 42 63 17 e0 43
       23.123503 17.718435 92.78147 448.1827
000240 00 3c 5a 41 c6 dd 04 42 73 7f 6e 42 3f f9 eb 43
       13.639648 33.216576 59.624462 471.94724
000250 0b f4 94 42 bc 9e d4 41 8f 97 ba 41 19 95 84 43
       74.47665 26.577507 23.324003 265.16483
000260 51 07 92 42 bd fc ae 42 52 63 b1 43 6f dc c8 43
       73.01429 87.49363 354.77594 401.72214
000270 eb d4 84 42 a9 0b f6 42 0a 6f b4 43 21 97 c0 41
       66.415855 123.02277 360.8675 24.073793
000280 af 19 f4 43 0b dc 91 43 70 4e 73 43 da c7 09 43
       488.20065 291.7191 243.3064 137.78067
000290 7d 2d 8b 41 0f 8b 4a 42 ef f8 05 42 3d 24 4c 43
       17.397211 50.6358 33.4931 204.14156
0002a0 62 96 01 44 ff e1 a5 43 f5 2e 7e 43 87 3e cc 41
       518.34973 331.7656 254.18343 25.53053
0002b0 6a 73 87 43 37 51 05 43 14 20 35 42 be fb e8 43
       270.90167 133.31725 45.281326 465.96674
0002c0 b8 93 73 42 71 9b 6e 42 b0 14 b6 42 07 fa 7e 42
       60.894257 59.6518 91.040405 63.744167
0002d0 63 50 01 42 cc da d7 42 e2 17 bd 42 ed 8c d9 43
       32.328503 107.92734 94.546646 435.10098
0002e0 36 2e b1 41 53 c6 f5 42 ff 21 38 42 74 9e 84 42
       22.147564 122.88735 46.0332 66.30948
0002f0 65 7f 9e 42 e6 ae a9 42 10 6c d3 43 35 32 a3 43
       79.24882 84.8416 422.84424 326.39224
000300 0f 9a 94 43 05 5c b9 41 9d 54 a0 42 1d b0 99 42
       297.20358 23.169931 80.16526 76.84397
000310 75 a1 c7 42 ca 11 f4 43 53 c6 0e 42 ec e9 ce 42
       99.815346 488.13898 35.693676 103.45688
