experiments/synthetic_data/model_synthetic.pth (torch, 818961 bytes, 27 tensors)

weight f4 [10, 1, 10]
00000000: ffca 96bd 004f 9ebe 7819 15be d254 40be
00000010: bd46 cfbe 69f5 77be 571d 573c 76c1 d7bb
00000020: 8b54 8fbe c6aa 153e cedb 31bd e166 69bb
00000030: ae37 19bd 235b 0f3f d31a 343e 36c6 1abe
00000040: 7d6f b5bd 7862 63bd 3054 21bb 33e8 90bd
00000050: 77cf ae3d 599e 773e 2feb 213e eb8c a33e
00000060: bb75 b53d 1535 7c3e 287f 453e 6546 153e
00000070: 6571 203e 9b37 c73d b750 d8bd 6283 d1bc
00000080: 0bba 493e 96dd 98bd 844d 1b3c 4ff5 2d3e
00000090: 0c23 99bd 67c7 a7be f20a 063e 126d 693e
000000a0: 934a 2b3e dc09 4f3e bdf6 353e 143b 553e
000000b0: 81ee 5d3e f3bf 3f3e c527 403e cec8 353e
000000c0: 64be 5e3e 9035 043e f146 88be 00bf a7bd
000000d0: 698d e8bd d20b 99bc 6ace 0c3d f32a b43e
000000e0: 05a1 f93d 4509 103e 544a 27be c5c1 89bd
000000f0: a196 a53d 4f1d cd3d 2a45 4c3d fe69 d0bd
00000100: 0233 b83e e7f9 55be ecae ec3d cb0d f13d
00000110: 5c34 4bbe 1e1d a6bd 805b 693e b578 75bd
00000120: 573b 603d 56af 88be 064b 85be 9d29 913d
00000130: 7efc 603d 782a 1d3e bbdc 983c 26aa 243e
00000140: bed3 00be 7a14 a53d 4d3c 653e 96a0 553e
00000150: eaca 2abe e585 183e b00d fd3c fd89 013e
00000160: 9dfb 7ebe 148a 09be 3dda 6cbe 7e7f ccbe
00000170: 1d44 e8bd ed4c 28be 4fd2 bfbe 8ab8 4bbe
00000180: f58c 503c 6108 cfbc 5b1d aebe 87a1 84bc
-0.07362937 -0.30919647 -0.14560497 -0.18782356 -0.40483657 -0.2421471 0.013129554 -0.0065843416
-0.2799419 0.14615926 -0.043422513 -0.00356143 -0.037406616 0.5599844 0.17588358 -0.15114674
-0.08859155 -0.05551383 -0.002461683 -0.070755385 0.085356645 0.24181499 0.15812372 0.3194345
0.08860346 0.24629624 0.19286788 0.14577635 0.15668257 0.09727403 -0.1056227 -0.025575344
0.19699876 -0.07464139 0.00947893 0.16988109 -0.07477388 -0.3276932 0.13090113 0.22795513
0.16727667 0.20218605 0.17769904 0.20823318 0.21673013 0.18725567 0.18765171 0.17752382
0.21752316 0.12911057 -0.26616624 -0.08190727 -0.11355097 -0.018682394 0.03437654 0.35189018
0.12188915 0.14066036 -0.16336948 -0.06726412 0.08085371 0.10015356 0.049870647 -0.101764664
0.35976416 -0.20896111 0.11556801 0.11770209 -0.19844192 -0.081110224 0.2278881 -0.05992957
0.05474409 -0.2669627 -0.260338 0.07088015 0.054928295 0.15348232 0.01865994 0.16080531
-0.12580773 0.08060546 0.22386284 0.2086204 -0.16678968 0.14894827 0.030890316 0.12650295
-0.2490067 -0.13431579 -0.23130126 -0.3994102 -0.113411166 -0.16435595 -0.3746514 -0.19894615
0.012728919 -0.02527255 -0.3400677 -0.016190303

bias f4 [10]
00000000: cb58 a13a 43aa cd3a dd9b 39b9 c863 cf39
00000010: 1529 68b9 8b94 383a eae0 78ba d81c 0139
00000020: 0455 6139 804b 3738
0.0012309788 0.0015691001 -0.00017701038 0.0003955646 -0.00022140548 0.00070411776 -0.0009493964 0.00012313144
0.00021489343 4.3700915e-05

weight f4 [10]
00000000: bbc9 e43f 6a81 713f bc8f 2f3f 0011 2e3f
00000010: ce52 703f cbf8 373f 77f9 833f d4a0 5d3f
00000020: 237b 773f a8a4 a63f
1.7874063 0.94338095 0.68578696 0.6799469 0.9387635 0.71864 1.0310506 0.8657353
0.96672267 1.3018999

bias f4 [10]
00000000: 3fea 85bb 5c10 173e c2b7 93be 66d9 abbd
00000010: 8dc9 e939 e887 bebe 04c8 eb3d 24a5 d7bd
00000020: 8e41 74be 0fb6 1dbe
-0.004086762 0.14752334 -0.28851134 -0.08391075 0.0004459139 -0.37213063 0.11512759 -0.10529545
-0.23853132 -0.15401481

running_mean f4 [10]
00000000: 7d56 313c bf5e 05bb 0657 50bc 9831 21ba
00000010: 1af0 63bc 1883 7039 822f 41bb c4c5 86ba
00000020: d363 8cba c4a8 5f3c
0.010823843 -0.0020350663 -0.0127160605 -0.00061490526 -0.013912225 0.0002293702 -0.002947778 -0.0010282327
-0.0010710902 0.013651077

running_var f4 [10]
00000000: bdac b63f cdf8 443e 0633 e43f 3b40 e43d
00000010: 65cc 0440 e52b d33d 373f 053e 9771 dd3d
00000020: 0c37 cb3d 9e8c 0740
1.4271466 0.19235535 1.7828071 0.111450635 2.0749753 0.103111066 0.13012396 0.10812681
0.09922609 2.1179576

weight f4 [10, 10, 9]
00000000: 30ef 4b3c 6cd9 a5bc 7dd8 9f3d d0ae b03d
00000010: f3c2 f9bc e365 003e c383 293d 4f3d 8b3e
00000020: ffec 843e 3ee6 41be 5418 97be 6288 56be
00000030: cdd1 3cbe 257d 49be e9e7 52be 3271 9cbe
00000040: d7ec afbd b69b 2fbe c320 d53d 4606 ad3d
00000050: 6f09 ca3d ebf4 ae3d 81cc ae3d 7f23 2f3d
00000060: 9fed eb3d 325a c83c 3d3b 393d 0dbc bebe
00000070: 1faf 113c 7621 95be b460 8bbd 39c9 8ebd
00000080: 64d7 2bbd 7f13 db3d c4fe 4f3e 3ca4 303e
00000090: 7f89 f53c 944d e63c cfa7 8f3d 0a07 2c3d
000000a0: eb62 ffbb 3060 de3c 48f6 383d e617 9e3c
000000b0: 1b47 2cbc 104e 37bc 93d5 a93d 5062 83bd
000000c0: 6d88 cb3a 4975 dbbd 01a5 96bd 3530 f7bd
000000d0: af9e 1f3e b4da b0be 9268 edbe ff7c a1be
000000e0: 1efa b4be e271 55be 7917 9abe ac3b e9bd
000000f0: 050e 8abe 1277 823d f024 38be e418 e4be
00000100: ddd0 473e 2ef4 f7bc 25ee 18bd 9b72 6fbe
00000110: 005e 2fbe d9c0 bebd 2676 2e3e 3daa a0be
00000120: d419 dfbe 168f edbd 49b3 9ebe 962e 22bd
00000130: 9032 8abe 1f46 cc3d 4141 053e 857e a13e
00000140: d364 21be b600 8c3d 4f38 02bd 5d56 653d
00000150: d147 6b3d 1469 ec3b e943 f23d 82e5 9ebb
00000160: 29b3 4c3e 3c2d a43d aa64 b9bd 1078 ebbd
00000170: d06f b1bd da95 8d3c 61dc 97bb b1a0 7fbd
00000180: d4fc febd 51cd a5bd e33b d5bd 3360 3dbe
00000190: 3593 ae3c 1b67 a3be 3c67 1ebe 9aa6 62bc
000001a0: 109f c5be 6126 73be 3aab ecbe 2853 22be
000001b0: f775 863d 4c9c 393e bf14 a13d f68c c9bd
000001c0: d1f7 713d de39 b33d 0d8d 7a3d a363 7f3e
000001d0: 792d b93e fac1 69be 7acb 63bd fdea eebd
000001e0: 1e0f c5be b0b8 493d 2381 1ebd 6369 85be
000001f0: 02b4 bf3d cf77 09bf 5acf bf3d 56d6 283e
00000200: 8cf7 193e 6802 bfbd ceda cb3d 34a4 b03d
00000210: c9c4 593e 0039 503e d1b0 bb3e 50bf 28be
00000220: 07aa 42be 4f54 84bc c709 6ebe 0d9d 12be
00000230: 21ef 67be 742e 343e 6962 9bbc c485 7f3d
00000240: e663 7fbe 3c9c 30be 886f 31be 5539 10be
00000250: 848f 01bf 4218 bfbe b485 05bd 702a d8be
00000260: 457c 4fbe 74d9 d6be 1bfb 16be 4ce9 503d
00000270: dee9 3cbe 3a06 dcbe 393f 5bbd a05f dd3b
00000280: b5c8 0e3e f59e 923d fad9 2ebe 708b 81bd
00000290: 5569 bbbd 6790 42bd ffd9 19be 6cdf 40be
000002a0: 4a8e d0be 03c3 ad3d 825a 82bc 383a 0cbe
000002b0: ea01 97bd 7903 a4bd 38cd 04be 38df 90bd
000002c0: a1cc 2dbe 6b31 6dbd b607 3ebe 34ea 2ebd
000002d0: 919f d8be f6a5 06bf e515 67be ad63 e1be
000002e0: 79bf a0be 7cf6 8fbe edf3 6cbe 5069 b4be
000002f0: 3754 bdbe af66 dd3c 7042 0e3e 30ab 17be
00000300: e409 3fbd fc22 263d aa80 4fbd d3fd 37be
00000310: a9e2 e9bd 6a11 dbbd d149 713d d99f 5c3c
00000320: 9c01 09bc cfde 083c 53d5 c7bc 35b4 62bb
00000330: 0f0b 0c3d 9f18 b0bc eb81 593c 7a39 ba3e
00000340: 8e14 0e3e dae3 963e 77b4 233e a57f 2a3e
00000350: 181c 6a3e 969b 613e 1a35 bc3e 702f 9a3d
00000360: 0b01 e23d 4c3a 8d3d f749 b63d 144d d23d
00000370: 0e9d 203d f635 be3d 42db c13d 53e9 ac3d
00000380: b6f2 cd3d d60c 99bd f5e0 403e 66df a83e
00000390: a09a 573e b9c1 953e bb1d 5c3e 70e7 043e
000003a0: 9643 ff3d 8d03 9a3e 8e0f 29bc 33d9 9d3d
000003b0: 2614 983c 16ac 0abe 8373 e3bb ae7e 18be
000003c0: 3981 843b faab a93c a156 143e 2b46 1e3e
000003d0: 5b6c 383d 2601 943e cf8e a03e 5bf6 9a3e
000003e0: fe68 553e ca65 1b3d d32d 4f3e 6e1f 593e
000003f0: 25bc db3d 014c be3e 9912 eb3d 31d8 3a3e
0.012447163 -0.020245276 0.07804964 0.08627093 -0.030488467 0.12538867 0.041385423 0.27195212
0.25962064 -0.18935487 -0.29510748 -0.20950463 -0.18439408 -0.19676645 -0.20596279 -0.3055511
-0.085900955 -0.17149243 0.104066394 0.08448462 0.098650806 0.08542808 0.085351 0.04275846
0.11519932 0.024457071 0.04522251 -0.37252846 0.00889185 -0.2912709 -0.06805554 -0.06971974
-0.04195346 0.10697078 0.20312029 0.1725015 0.02997279 0.028113164 0.07014429 0.0419989
-0.0077937744 0.027145475 0.045156747 0.019298505 -0.010515 -0.011188045 0.08292689 -0.06415236
0.0015528329 -0.1071573 -0.07355691 -0.12069742 0.15587877 -0.34541857 -0.46368843 -0.31540677
-0.35347074 -0.20844224 -0.30096033 -0.11388335 -0.2696382 0.06370367 -0.1798284 -0.4455024
0.19513269 -0.030267801 -0.037336487 -0.23383562 -0.17125702 -0.093141265 0.17037258 -0.31379882
-0.43574393 -0.11599557 -0.3099616 -0.03959521 -0.269917 0.09974312 0.13013174 0.3154184
-0.15761118 0.06836073 -0.03179198 0.055990566 0.057441536 0.0072146747 0.11829359 -0.004849137
0.19990219 0.0801644 -0.09052403 -0.114975095 -0.08663905 0.017283369 -0.0046344255 -0.062409107
-0.12450567 -0.080958016 -0.10411813 -0.18493728 0.021310428 -0.319146 -0.15469068 -0.013833666
-0.38597918 -0.23745109 -0.46224385 -0.15852034 0.06565469 0.18126029 0.07865285 -0.09841339
0.059074227 0.08751272 0.061169673 0.24940352 0.36167505 -0.22827902 -0.055613972 -0.11665914
-0.38488096 0.049248397 -0.038697373 -0.26056966 0.09360506 -0.5369844 0.09365721 0.16488013
0.15035838 -0.09326631 0.09953843 0.08625069 0.21266474 0.20334244 0.36658338 -0.1647923
-0.19010173 -0.016153483 -0.23245917 -0.14317723 -0.22649814 0.17595845 -0.018967824 0.06238343
-0.24940452 -0.17247099 -0.17327702 -0.1408437 -0.5060961 -0.37323195 -0.032598212 -0.42219877
-0.20262249 -0.4196278 -0.14744227 0.05100374 -0.18448588 -0.429735 -0.05352709 0.006755784
0.13943751 0.07159225 -0.17075339 -0.06325424 -0.0915095 -0.047500994 -0.15024565 -0.18835229
-0.40733558 0.08484461 -0.015912298 -0.13694084 -0.07373412 -0.08008475 -0.1296891 -0.070738256
-0.16972591 -0.057908457 -0.18557629 -0.042703822 -0.4230924 -0.52596986 -0.22566946 -0.4402136
-0.31396082 -0.2811774 -0.23139925 -0.35236597 -0.36978313 0.027026502 0.13892531 -0.14811397
-0.04664029 0.040560707 -0.050659813 -0.1796792 -0.11420185 -0.10696681 0.058908287 0.013465845
-0.0083622 0.008353903 -0.024393713 -0.0034592275 0.034190234 -0.021496115 0.013275604 0.36371976
0.13875028 0.29470712 0.1598681 0.16650255 0.2286228 0.22032008 0.36759263 0.07528579
0.11035355 0.06895885 0.089008264 0.10268608 0.03921228 0.09287636 0.09465648 0.084429406
0.10056059 -0.074731514 0.18835814 0.3298294 0.21055079 0.2924936 0.21495716 0.12978911
0.12464063 0.30080834 -0.01031865 0.07707443 0.018564295 -0.13542208 -0.0069412603 -0.14892074
0.004043725 0.020711888 0.14486171 0.15456454 0.04502521 0.28907126 0.31358954 0.3026608
0.20840833 0.03793887 0.20232324 0.21203396 0.10729245 0.3716736 0.114781566 0.18246533

bias f4 [10]
00000000: cc4a 8538 b01d 2839 202e 05b7 492d 2fb9
00000010: a9e0 413a d641 9fb8 210d 7cb9 c2f4 9cb8
00000020: 8e04 5bba 490c b939
6.355866e-05 0.00016032788 -7.938157e-06 -0.0001670617 0.00073958427 -7.593974e-05 -0.00024037484 -7.484249e-05
-0.0008354866 0.00035295103

weight f4 [10]
00000000: 9af9 2a3f 7cf6 493f 83b0 673f e5f0 883f
00000010: 6551 823f b0c9 243f ed84 813f 5784 ab3f
00000020: 47c7 693f cd05 133f
0.6678711 0.7889173 0.9050371 1.0698515 1.018109 0.6437025 1.0118691 1.3399762
0.913197 0.57430726

bias f4 [10]
00000000: 100a dfbe 1a28 da3b faae e63c 11bd 3bbe
00000010: eac1 27bf 6ced 78be 5177 abbd 17ed 39be
00000020: 61c1 c5be 6c13 03be
-0.43562365 0.0066576125 0.028159607 -0.18333842 -0.65530264 -0.2430932 -0.08372367 -0.18156849
-0.386241 -0.12800378

running_mean f4 [10]
00000000: 53de 9fbf 603c 35c0 7758 ecbf 7aad 11be
00000010: 6c03 22c0 4da2 c2bf 6c18 0c3f 8b41 6d3e
00000020: ff94 2fc0 76b2 a3c0
-1.2489723 -2.83181 -1.8464497 -0.14226332 -2.5314589 -1.520578 0.54724765 0.23169534
-2.743469 -5.115535

running_var f4 [10]
00000000: 56cb bf40 9fed f63f dd3e 6a41 e3bb 8940
00000010: c9a7 cc3f 25c3 ec40 0757 f940 7b7e ab3f
00000020: 38f1 a33f 7554 1541
5.9935713 1.9291266 14.6403475 4.3041854 1.5988704 7.3988214 7.7918735 1.3397974
1.2807989 9.333119

weight f4 [200, 490]
00000000: 2fb2 24bd 0892 cabc e9e6 1dbd bec6 09bd
00000010: 4456 21bd 26f7 28bd 3452 21bd 7f78 5cbd
00000020: 1233 84bd df82 6bbd 50fc 32bd a1d4 4cbd
00000030: 1921 47bd dac7 0fbd d87f b1bc c758 d3bc
00000040: a482 e7bc 5c81 3fbc 2c5f 54bb 1f02 5abc
00000050: 5971 3dbc c4dc 09bd b4ea f3bc 95d4 51bd
00000060: 9a08 8abd 89c5 9fbd 4c1b a0bd fb28 54bd
00000070: eb4a 8dbc 1d20 b4bb 8f2b a3bb 91c6 873b
00000080: bdad 80bc aa1f a5bc ee32 29bc c252 e5bc
00000090: 4a45 79bc 2733 f5bc 017a 3ebd ef5b 3ebd
000000a0: f7a5 3fbd f804 28bd c635 88bd 2b5d 77bd
000000b0: 479e 72bd 8d3d 42bd 8eb4 2fbd a27e 2fbd
000000c0: b48b 67bd a7cb be3b f376 d03d 07f7 8dbd
000000d0: 6df2 a93d ee9c e3bd 49ca fb3c 46f2 f0bd
000000e0: 55a1 ac3c 6b4c 0f3d 0134 e53d 2ad8 93bb
000000f0: a251 b03d 5818 12bc b660 f13c edb1 76bc
00000100: d329 593d b6c2 523b c7cc 563c 7e84 6e3d
00000110: 006e 25ba 575d 7ebd 827e 5a3c 7d3f 603d
00000120: d4d6 8cbc d669 493d 694c e6bc 7418 30bc
00000130: 2d32 89bd be49 9d3c bc6f 95bc c9ce 033e
00000140: 61a0 82bc cd7d 30bb 758b 57bd beeb c13c
00000150: 952e 053d 75d3 4e3d 2b7f 8fbd 947c 663c
00000160: faf9 923d 9b5f c03d 84ff 943d f996 7c3d
00000170: 1d0f b73d 04aa 90bc 1305 fc3c fd8b dabd
00000180: 6c09 6b3c b821 f3bd 8c79 8c3e 5d7f a93e
00000190: ce84 823e a812 a63e 17f7 b13e 0a2b 773e
000001a0: 6e2d 383e 2bb6 a03e 2429 813e f119 693e
000001b0: 17a5 813e 7bd3 7a3e fc99 893e a60a 953e
000001c0: c813 a83e 29d9 b13e 044f ad3e 170c 5d3e
000001d0: 9f51 1b3e 7fa4 423e 01cf 1b3e a1b1 1f3e
000001e0: 1616 393e 92e9 2a3e 2aa0 913e 4c45 883e
000001f0: 1f72 903e b17d 6b3e 1dba 3c3e 3f07 6f3e
00000200: 5ed6 463e 7569 563e 476b 773e 6ead 7d3e
00000210: de11 673e 0493 923e f088 443e f94a 813e
00000220: 6d98 8d3e d2df 9a3e 72af 883e cd5e 743e
00000230: 366a 9c3e 65da 753e 5701 693e bc7f 7b3e
00000240: 10ba 953e 8456 8b3e e048 633e 2570 b6bd
00000250: 0b74 a5bd 29e9 08bd caf3 07be 1fa9 8cbd
00000260: 2edf 90bd 8b2c 89bd 5f8d 0dbe 5df1 e7bd
00000270: 80e5 22be 0713 1fbe f33b 27be 8e3d 3ebe
00000280: 4588 04be 2c28 01be afcd d1bd f249 ccbd
00000290: d5b3 0ebd 8ce5 85bc d277 93bc 456e b5bd
000002a0: 869a 88bd 37aa c7bd 0866 b5bd 4244 0fbe
000002b0: 3287 38be 1e3f 5abe 9a79 23be eafc 03be
000002c0: d81e 9b3a 3296 d83c a47c 993d c3aa 003d
000002d0: 0823 28bd 2ee2 33bd a194 d0bc 08f7 afbc
000002e0: 47ca 84bd 451d 02be fc3a afbd 978f b9bd
000002f0: b05a 8dbd 9ec2 0ebe d740 5cbe ee0f aebd
00000300: acda 0ebe d91c 19be 4a3a 34be 132a 19be
00000310: d0da 1e3e f35d 043e 1de8 403e 8d2e d23d
00000320: 6884 3a3e 098b 13bd 328a c43d 4966 a63d
00000330: 8c05 92bc c3b5 d83b 8c3b 223d cce2 ee3d
00000340: 9766 943d 37e7 ef3d 5830 90bc 16d5 c83d
00000350: c230 1d3e dc5c c23d 9b6c fc3d 73f2 d23b
00000360: 64a1 963d b891 67bd 4ec1 2b3d 3cdd 443e
00000370: 2300 fc3b 10ed f43d a71b 5d3e 332a 2f3e
00000380: 5947 473a 3227 403d bd0c fc3d 2aa8 953d
00000390: f9bf b3bd f3a2 053d fcb6 073e be8b 813d
000003a0: 56e8 203e 8443 173e b4ea 053d 03f3 603d
000003b0: 2602 eebd 5e0e f23c fd6a 413e 7e5e 68bc
000003c0: 1246 bf3d 6764 af3d c6d8 0e3e 8698 e53b
000003d0: fedf 403e be24 623e a6f9 a63e 8bdb 0b3e
000003e0: e49a 8c3e e5c6 863e 7961 393e c9e5 483e
000003f0: be1a 853e 5e04 363e 79c2 5d3e effa a43e
-0.04020899 -0.024727836 -0.03855029 -0.0336368 -0.03938891 -0.041251324 -0.039385036 -0.05382585
-0.064550534 -0.057497855 -0.043697655 -0.050007466 -0.04861555 -0.035102703 -0.021667406 -0.025799168
-0.028260536 -0.0116885565 -0.003240536 -0.01330617 -0.011562669 -0.033657804 -0.029775001 -0.051228125
-0.06739922 -0.07801349 -0.078177065 -0.051796895 -0.017247638 -0.0054969923 -0.004979558 0.004143544
-0.015707845 -0.0201567 -0.010327084 -0.027993564 -0.015214274 -0.029931618 -0.04650307 -0.046474393
-0.046789136 -0.041020364 -0.066508815 -0.060391586 -0.059232976 -0.04742198 -0.0428968 -0.042845376
-0.056529716 0.005822617 0.10178938 -0.06931882 0.08298192 -0.11113916 0.030736106 -0.1176496
0.021073023 0.034984987 0.111915596 -0.0045118527 0.0860932 -0.008916937 0.02946506 -0.015057069
0.053018402 0.0032159514 0.013110346 0.058231823 -0.0006310642 -0.062100735 0.013335826 0.054748047
-0.017192282 0.0491732 -0.028112607 -0.010748018 -0.066990234 0.019200202 -0.018241756 0.12871851
-0.015945615 -0.0026930452 -0.05262323 0.023671981 0.032515127 0.05049463 -0.07006677 0.014067788
0.071765855 0.09393235 0.07275298 0.061667416 0.089384295 -0.017659195 0.030764138 -0.10671232
0.014345508 -0.11871666 0.27436483 0.33104983 0.25491947 0.3243611 0.34758827 0.24137512
0.1798608 0.31388983 0.252267 0.22763802 0.25321266 0.24494736 0.26875293 0.29109687
0.32827592 0.34735993 0.33849347 0.21586643 0.15167855 0.19008063 0.15215684 0.15595104
0.18074831 0.16690663 0.28442508 0.2661537 0.28212067 0.22997166 0.18430372 0.23342608
0.19417712 0.20938666 0.24162017 0.2477319 0.2256541 0.2862779 0.19192863 0.25252512
0.27655354 0.30248886 0.26696354 0.23864289 0.30549783 0.24009092 0.22754417 0.24560446
0.29243517 0.27214444 0.22195768 -0.089081086 -0.08078774 -0.033425484 -0.13276592 -0.06868195
-0.07073818 -0.06697949 -0.1382346 -0.11325333 -0.1590786 -0.15534602 -0.16331463 -0.18578169
-0.12942608 -0.1261298 -0.10244309 -0.099750414 -0.03483947 -0.016344808 -0.01800147 -0.08858923
-0.06670098 -0.09749263 -0.088573515 -0.13990882 -0.18020323 -0.2131314 -0.15964356 -0.12889448
0.0011834754 0.026438806 0.074944764 0.03141285 -0.041049033 -0.043916874 -0.025461497 -0.021480098
-0.06483894 -0.12706478 -0.08556172 -0.09060591 -0.06902063 -0.13941428 -0.2150911 -0.08499132
-0.13950604 -0.14952411 -0.1760036 -0.14957456 0.15513158 0.12926464 0.18838544 0.10262785
0.18214571 -0.036021266 0.09596671 0.08124978 -0.01782491 0.0066134646 0.03960757 0.11664352
0.0724613 0.117140226 -0.017601177 0.09806268 0.15350631 0.09490368 0.12325402 0.0064375936
0.073550016 -0.056535453 0.041932397 0.19225019 0.007690446 0.119592786 0.2159258 0.17105941
0.0007601879 0.04691238 0.12307117 0.073074654 -0.0877685 0.032626104 0.13253397 0.06325482
0.15713629 0.14771849 0.032694533 0.054919254 -0.116215035 0.029547866 0.18888469 -0.014182685
0.09339537 0.08564072 0.1394988 0.0070067076 0.18835446 0.22084329 0.32612342 0.13657968
0.27461922 0.2632362 0.18103589 0.19618906 0.25996965 0.17775103 0.21656217 0.32222697

bias f4 [200]
00000000: e68f 97b7 400a efb4 eb50 1338 7a42 c6b6
00000010: fa2c 33b8 12c2 60b7 ff4c 90aa e8c9 01b8
00000020: 888c 3237 602b f235 f21d d029 cabb fc33
00000030: 1674 a0b6 6da2 54b8 fee6 d537 5159 fb37
00000040: b0e9 9033 edcc c0b6 b0d8 9ab8 db78 0bb8
00000050: 6ac9 58b7 307b 3f80 9bfc be02 0c2e eab7
00000060: 34e3 03b8 f00b 1536 2082 9434 e0ea 5880
00000070: b0e2 2282 687d d5b7 4d5e cfb6 bb51 7db7
00000080: be23 7738 c0b5 8f81 d4a0 53b5 34a0 efb8
00000090: 96c4 25b8 c2ca 8602 cfb8 1eb8 c42d 2237
000000a0: e83b ed80 b6d0 1234 4401 8a36 8b3f b136
000000b0: a5ac 6395 ec50 b581 b07e 7db6 87bb abb7
000000c0: 32f4 3036 e83a 0038 7ba8 9f35 d25a a1b6
000000d0: 80de 3bb8 6031 51b5 cefb be37 4ead 9e38
000000e0: 405d a335 f8e2 18b3 3c4b 1b37 8322 0fb8
000000f0: dc28 00b9 38fc 25b6 d04a cfb6 78e5 bbb7
00000100: 4fc9 1602 4b1f dfb7 2597 44b7 a8cd 20b7
00000110: fbd7 b2b6 98d0 5034 260b 9737 5978 4437
00000120: eb25 7d38 4b2a 0c37 f891 2db8 0a09 9d81
00000130: 1aff 34b8 00cf a435 acca e837 660b a0af
00000140: 3b0d 8ab6 ad7a 36b4 1c4f 3801 c1b1 55b7
00000150: e0f0 2134 f197 4634 646c a92f e0eb d5b6
00000160: 929b 192c c7e3 e2b7 2f0c 2db9 b4d1 c0b8
00000170: e66f fa36 b1ed 11b8 28e9 2302 acc9 0b81
00000180: eac6 21b8 b2b3 9fb6 8043 3915 61ee 95b7
00000190: 55f9 bcb6 7e83 8136 7a8c d737 3a35 da37
000001a0: 00c0 5736 4872 b800 3c4f 1838 bc6c 14b6
000001b0: e941 64b7 102e de37 8ceb 0ab8 a674 92b6
000001c0: 1774 8436 220c 9fb7 4c07 5817 aeab 3b35
000001d0: 08c4 92b6 bd0c 8338 6474 78b7 c6aa 4ab8
000001e0: d8a8 c936 ed21 82b7 3e8f 8537 144a 3236
000001f0: 0849 4e37 f40b feb6 4023 0c35 e1cf 4b37
00000200: 2e9b 9137 c94c ceb7 81dd 8338 53db f037
00000210: 54b7 6f01 aa14 e6b7 0448 aeb6 c9cc 8638
00000220: 1958 0e02 7bb6 3438 5069 0b38 00ac 70b5
00000230: 9745 1c36 08f9 5a38 30bb 4ab6 c803 1038
00000240: 552c c537 1231 7c37 004f 5180 8090 6a02
00000250: c6fe 7c02 6032 4ab6 b606 43b6 3883 fdb5
00000260: d140 0738 8f43 33b8 2cbc 1c37 a4d3 0d37
00000270: 8479 86b6 f8f3 87b4 fe4c cdb6 b73e 20b6
00000280: 8825 0c37 3222 a1b5 f01e 5c31 3441 5882
00000290: d90e 1638 00f0 ac01 dc69 4eb3 1baf 58b6
000002a0: 74f6 bf36 5bf0 18b7 f819 bdb6 9d8e e736
000002b0: ea9f 93b8 145c 70b8 f3f8 6eb8 fdc7 de36
000002c0: 2e74 44b7 67e0 9b37 d506 0182 b09e aa00
000002d0: 82b6 97b8 0235 9b37 dca1 b4b7 bfd2 53b7
000002e0: a439 80b6 e819 3136 56e3 f412 6a71 2b37
000002f0: 4faa bf37 d463 c0b7 80b7 b4b3 5ea6 1eb7
00000300: 7438 9138 fcf1 7bb7 40a2 a835 00b2 ee00
00000310: 730d 9bb8 6cf9 c401 7805 cbb6 220d df37
-1.806761e-05 -4.4524677e-07 3.5122892e-05 -5.9085987e-06 -4.2718813e-05 -1.3396626e-05 -2.5632965e-13 -3.0944037e-05
1.0642347e-05 1.8043029e-06 9.24225e-14 1.1768823e-07 -4.7818858e-06 -5.069601e-05 2.5499143e-05 2.9963123e-05
6.74803e-08 -5.7459024e-06 -7.3836534e-05 -3.3252738e-05 -1.2921499e-05 -5.829828e-39 2.806298e-37 -2.7916416e-05
-3.1444433e-05 2.2209679e-06 2.7661827e-07 -8.165781e-39 -1.1966936e-37 -2.5449976e-05 -6.180059e-06 -1.50990045e-05
5.8922677e-05 -5.27907e-38 -7.883766e-07 -0.00011426248 -3.952215e-05 1.9805908e-37 -3.7842252e-05 9.666608e-06
-2.1786503e-38 1.3673238e-07 4.112868e-06 5.2824084e-06 -4.5978477e-26 -6.6605016e-38 -3.777368e-06 -2.0472113e-05
2.6368184e-06 3.057244e-05 1.1895457e-06 -4.808747e-06 -4.4791494e-05 -7.793042e-07 2.276702e-05 7.5663076e-05
1.2171586e-06 -3.5596685e-08 9.256237e-06 -3.4126e-05 -0.00012222253 -2.4733727e-06 -6.17779e-06 -2.2398992e-05
1.1078032e-37 -2.6598243e-05 -1.1717701e-05 -9.584626e-06 -5.329957e-06 1.9447396e-07 1.8005794e-05 1.1710531e-05
6.0355214e-05 8.354497e-06 -4.1382358e-05 -5.768566e-38 -4.3152926e-05 1.2279197e-06 2.7750932e-05 -2.911193e-10
-4.1142607e-06 -1.69947e-07 3.385222e-38 -1.2737176e-05 1.5081923e-07 1.8495463e-07 3.0817937e-10 -6.375354e-06
2.1828967e-12 -2.7047367e-05 -0.00016503104 -9.194334e-05 7.4636073e-06 -3.479206e-05 1.2042261e-37 -2.567496e-38
-3.8570644e-05 -4.7594885e-06 3.74137e-26 -1.7873188e-05 -5.6318627e-06 3.8598073e-06 2.5695412e-05 2.601241e-05
3.2149255e-06 1.6938728e-38 3.6313417e-05 -2.211701e-06 -1.3605205e-05 2.6485912e-05 -3.3121134e-05 -4.3647187e-06
3.947421e-06 -1.8959927e-05 6.9802574e-25 6.9912755e-07 -4.37396e-06 6.2489395e-05 -1.4809051e-05 -4.8319598e-05
6.009923e-06 -1.5513006e-05 1.5921538e-05 2.6567186e-06 1.2295561e-05 -7.5711814e-06 5.220536e-07 1.21481435e-05
1.7357608e-05 -2.459287e-05 6.287825e-05 2.871236e-05 4.40289e-38 -2.7427759e-05 -5.193988e-06 6.427762e-05
1.0457795e-37 4.3085292e-05 3.3238262e-05 -8.965726e-07 2.3286318e-06 5.220718e-05 -3.0209303e-06 3.4335797e-05
2.3504874e-05 1.5031796e-05 -7.467015e-39 1.7233074e-37 1.8587152e-37 -3.0129668e-06 -2.906117e-06 -1.8888159e-06
3.2246873e-05 -4.2739845e-05 9.342137e-06 8.453531e-06 -4.0076575e-06 -2.532322e-07 -6.118439e-06 -2.3878363e-06
8.353389e-06 -1.2005387e-06 3.20318e-09 -1.5887886e-37 3.5776615e-05 6.3527204e-38 -4.805939e-08 -3.2288433e-06
5.7209345e-06 -9.115868e-06 -5.635662e-06 6.900939e-06 -7.0392925e-05 -5.7306213e-05 -5.6975474e-05 6.6393973e-06
-1.1709561e-05 1.8581935e-05 -9.479384e-38 1.566896e-38 -7.234236e-05 1.8502124e-05 -2.1533044e-05 -1.2625648e-05
-3.8214075e-06 2.6390135e-06 1.54546075e-27 1.02188005e-05 2.284828e-05 -2.293467e-05 -8.4152816e-08 -9.456269e-06
6.924654e-05 -1.5017107e-05 1.2564196e-06 2.1920702e-38 -7.393481e-05 7.235693e-38 -6.050508e-06 2.6589787e-05

weight f4 [200]
00000000: a556 233f bee3 3f3f 1d30 293f 74ce d23e
00000010: 1673 4f3f 87bc 373f 0f5d 413e 222a 423f
00000020: 39e6 123f 6c0e a33e 14fc 86bb c354 833d
00000030: 81db 153f 4a67 8b3f b85a 303f 8746 153f
00000040: b5e0 fd3e 846b 133f 2039 803f b872 533f
00000050: 5bf2 0b3f f3d2 d039 b337 1f3e 88bf fa3e
00000060: 6513 153f 9e5f 123f 0087 253f 980d 0780
00000070: 1083 e03d 53d2 843e 3186 383f e062 243f
00000080: 82f4 413f 0014 dd81 2302 263e f32c 3b3f
00000090: 0bda cf3e 0dfd 343d 70c9 e93e caa3 0f3f
000000a0: f782 393b 67e7 9b3e 693e e93e ea8e d43e
000000b0: 89e0 2924 8981 4dbc 2cca 803e 2e6e 653f
000000c0: 0abb 803e 5f32 2e3f f481 5c3e dacb 993e
000000d0: 94bc 173f 1e4f 8e3e be02 353f 149e 503f
000000e0: 4ba0 fc3e 4693 f63e 1afa 3e3f 2674 1f3f
000000f0: b52d 513f fa1b 2d3f 71dc cf3e ff25 3f3f
00000100: a0d4 31bc ea37 4c3f 4278 0b3f 4961 c13e
00000110: e2fe 3c3e 3e46 db3e c189 473f 2216 403f
00000120: f7d3 473f 02f9 f23e 6569 303f 3249 c73a
00000130: cc02 1e3f 4cd1 d93e d91b 383f 5153 813d
00000140: 3829 d73e c98e 213f 8c52 6c3d 5e54 093f
00000150: 4ff5 f93e 1cf4 f03d a57a 973e 8d37 0b3f
00000160: baf8 2c3e 5b7b 2e3f fa32 513f 10b5 7c3f
00000170: 1340 c83e 4950 df3e 3c85 dbba c532 c33d
00000180: 5241 4c3f 636c 413f 0190 1d3d 1b08 cc3e
00000190: 669a 0f3f 134e 173f 8526 033f d2a7 c73e
000001a0: b802 4f3f d78e b73d ff36 483f 50c8 1c3e
000001b0: 5990 af3e a700 4f3f 9b2e dd3e 4a22 f93e
000001c0: 9eeb 033f 4039 063f 890c e639 5217 c13e
000001d0: f344 c43e f63f 833f f3a3 f43e c2bc 3a3f
000001e0: 025c 953e cd39 063f 15ce 8e3e 0122 d23e
000001f0: 6451 513f 06df 7b3e f866 173f 6f0a 383f
00000200: 9ccb 253f 5999 443f ef9d 453f ce72 193f
00000210: ecb3 c13e dcbb 193f cd56 c93e 4e90 833f
00000220: 1991 1d80 b65e 413f 4610 503f b859 f53e
00000230: 2361 a23e 55eb 163f 4d01 103f 6c1f 123f
00000240: faa3 123f 815b cc3e d239 2b07 c3f7 2bbb
00000250: 544f 9d3d e84a 133f 9b3c ae3e 1e9d de3e
00000260: 5090 493f 13bb 433f 1dca 3c3f d6d5 cd3e
00000270: 983f 653f 01f3 193f 5413 143f a9ab ef3e
00000280: e623 343f 7d0d cf3e ccc4 293e 0e72 273d
00000290: a48d c53e cdfb 3d80 8acc 143e 10c0 db3e
000002a0: 436a e63e 3fa9 fc3e 26cc 323f 0742 9f3e
000002b0: 7491 363f cc65 323f 3d16 4a3f d3dd 843e
000002c0: 6172 503f b9c6 3c3f 2819 9b19 bb19 643e
000002d0: 99d5 703f da16 8a3e a661 493f 110e 733f
000002e0: 0587 0e3f 269f ae3e d2e5 583c 8c85 6e3e
000002f0: 7078 b83e bda5 e53e 8c16 fc3e 2b09 e53e
00000300: 9bac 2e3f a93b 133f 7205 523f 2fe5 2e80
00000310: d781 393f 6cdb 1bb9 c784 363f 4468 da3e
0.63804084 0.7495688 0.6608904 0.41173136 0.8103498 0.71772045 0.18883155 0.7584554
0.5738254 0.3184694 -0.0041194055 0.064126514 0.5853806 1.0890896 0.68888426 0.5831074
0.495855 0.5758593 1.0017433 0.8259692 0.5466668 0.0003983002 0.15548591 0.48974252
0.5823272 0.5717715 0.6465912 -6.47725e-40 0.10962498 0.25941715 0.7207976 0.6421337
0.75763714 -8.1211277e-38 0.16211753 0.7311546 0.4059604 0.04418664 0.45661497 0.561093
0.002830682 0.30449983 0.45555428 0.41515285 3.6836222e-17 -0.012543091 0.25154245 0.89621246
0.251427 0.6804561 0.21533948 0.3003834 0.5927212 0.27794737 0.7070731 0.8149121
0.49341044 0.48159236 0.74600375 0.62286603 0.8171037 0.67620814 0.4059787 0.7466735
-0.010853916 0.7977282 0.54480374 0.37769535 0.18456605 0.42827028 0.7794457 0.7503377
0.7805781 0.47455603 0.6891082 0.0015204309 0.6172302 0.42542493 0.7191749 0.063147195
0.42023635 0.631085 0.05769591 0.5364436 0.48819968 0.1176531 0.29585758 0.5438164
0.16891757 0.68156976 0.8171841 0.9871378 0.39111385 0.4361594 -0.0016748081 0.09531168
0.7978717 0.7555601 0.03846741 0.39849934 0.5609497 0.59103507 0.5123065 0.38995224
0.80863523 0.089627914 0.7820892 0.15310788 0.34289816 0.8086037 0.4319962 0.48658973
0.515314 0.52431107 0.00043878358 0.37713104 0.38333854 1.0253894 0.47781333 0.7294427
0.2917176 0.52431947 0.27891603 0.41041568 0.8176482 0.24596795 0.5914149 0.7189092
0.6476381 0.7679649 0.7719411 0.59940803 0.37832582 0.60052276 0.39324036 1.0278413
-2.71528e-39 0.7553514 0.8127483 0.47920012 0.31714734 0.5895284 0.56251985 0.57079196
0.5728146 0.39913562 1.2881602e-34 -0.0026240207 0.07681146 0.5753617 0.34030613 0.43479246
0.7873583 0.7645733 0.737459 0.40202206 0.8955016 0.6013642 0.5784199 0.46810654
0.70367277 0.40439978 0.16578978 0.040880255 0.38584626 -5.692294e-39 0.1453115 0.4291997
0.45002946 0.49347875 0.69842756 0.31105062 0.71315694 0.6968658 0.7894018 0.25950488
0.8142453 0.73740727 1.6036785e-23 0.2227544 0.94075924 0.2697056 0.78664625 0.9494334
0.55674773 0.34105796 0.013238387 0.23293132 0.36029387 0.4485301 0.49235952 0.44733557
0.68232125 0.5751291 0.8203956 -4.306648e-39 0.72463745 -0.00014863693 0.7129635 0.42657673

bias f4 [200]
00000000: 9044 cfbd 8cc3 a3be cca0 02bf cf3c 89be
00000010: 5d51 283e 1138 febe 4457 36bf c4e0 fa3d
00000020: b788 f0bd 3cd5 23be 49b1 58bd 22a6 8dbe
00000030: cb01 133e ba6a d7be d70e cebd 6101 803d
00000040: 6c4d eebe 636e 99be 6834 cfbe 9da1 a93e
00000050: a82d e8be bfa4 08ba 536f 2cbf 1c9a f33d
00000060: f50d ae3e c5d5 f1be b567 a5be cb43 b6bc
00000070: d7b3 04bf 8af0 e4be beb3 f9be 3154 a0be
00000080: 91b8 a7be dcbd 9ab6 a106 08bf 530a ec3e
00000090: 4451 2cbf f46a 91be ad4f c43e b00c bfbe
000000a0: 2dcb 46bb 475f 79be f7f9 81be 3e15 b3bd
000000b0: 0fdf e0bc 963f 37bd effb e3be 87ec d0be
000000c0: 0684 2abf 3d78 5b3c 55b0 26bf 627f 4fbe
000000d0: a679 eabe 0661 04bf e7ed 573e 4573 303e
000000e0: 67fd 06bf 2062 cbbe ace8 afbe fe00 7dbd
000000f0: 1449 f6bd a5a4 f8be ecd9 113b 79fe debe
00000100: 0c41 62bd d7dd c03d b7f7 31bf c9d8 06bd
00000110: e4ce acbe 4166 a7be c9b3 b7be 0524 abbe
00000120: b580 25be 4e4c 09bf ec19 463e 9641 bebb
00000130: cd05 b93e 3271 2abe d275 0ebe 53d6 b9be
00000140: 29ab 9dbe f358 eabe 879d a1be 141e 13bf
00000150: c016 07bf 1b16 a4be 9b05 21bf b9cd be3d
00000160: 63f8 74be d789 8d3e 79a5 1abd b720 c53e
00000170: cc41 493e bfd0 2e3e 07ee 0bbc 5fe2 66be
00000180: a0d6 973c 60cb a5be 9ddd 49be ee33 c23b
00000190: a3fb 3fbe 0bc7 c9be 759f 90be 99a5 13bf
000001a0: 5c18 b4be 804f bdbd deb0 afbe 8bcc 15bf
000001b0: f688 cb3d 953e e5be e8d1 fcbe a290 17bf
000001c0: 47da ddbe d4de babd 9daa f0bc 0b5b 03bf
000001d0: 2f88 41bf 6cbd adbe 1b37 27bf b52c a23c
000001e0: 4cb6 33bf 8960 81be 2e0e 0ebf 4c8c 48bc
000001f0: 0f4c 11bd 8f18 1dbe e7dd a43e cb87 9ebe
00000200: 9d37 a43e 5631 b0be 17f4 2c3d 9eb6 87be
00000210: 831c 00bf 2886 c13e b5d2 b0be 1d11 073f
00000220: a277 11ad 846d 6a3e f39d 9e3d a1ae 8abe
00000230: d8a8 2abf 012d d03e dc57 b7be 99a9 48be
00000240: 8427 813e c427 30bf 7013 b1bc 217f 2dbb
00000250: c945 babe ab7d 413e c8f0 27bf 76b2 b5be
00000260: 0085 60be d5ff 9b3e b963 94be c38f 9dbd
00000270: a6fd c9be 033c f3be 55a9 f0be 3d04 c9be
00000280: 68fb 10bd 3545 c8be 0377 1abf 6cbe 6bbe
00000290: cb52 ae3d c9a9 13bd dfbb debd aa78 21bf
000002a0: 2ccd 24bf fec0 2dbf 4f83 1cbe e2db 58be
000002b0: 45e9 86bd 04f9 643e 9436 f93e ffd6 21bd
000002c0: 0a3f 87be ce7b 023d 6a23 689c 1d73 debe
000002d0: 823f d1be 7cef 96bd 68e2 bfbe e267 37be
000002e0: 349e 38bf 3735 3bbf d8a9 6bbc 4684 f63d
000002f0: 4453 84bd 3a40 18bd 9e1e e6be 4506 38bf
00000300: 64cc 4ebe b83f 1ebf f354 3f3e 268b 37bc
00000310: e409 c83c bb9e 91ba 3db0 4a3e d1d5 31bf
-0.10120499 -0.31985128 -0.51026607 -0.26804206 0.16437288 -0.4965215 -0.71226907 0.12249902
-0.11744826 -0.15999311 -0.052903447 -0.27665812 0.14356153 -0.42073613 -0.10061424 0.06250263
-0.46543443 -0.2996703 -0.4046967 0.33131114 -0.45347333 -0.00052125374 -0.6735737 0.118946284
0.33995023 -0.47233406 -0.32305685 -0.022249123 -0.51836914 -0.44714767 -0.48769945 -0.31314233
-0.32758 -4.61166e-06 -0.53135115 0.46101627 -0.673115 -0.2840191 0.38342038 -0.37314367
-0.0030333505 -0.24352752 -0.2538602 -0.08744286 -0.027450113 -0.044738375 -0.44528148 -0.40805456
-0.666077 0.013395366 -0.6511281 -0.20263436 -0.45795935 -0.51710546 0.21086846 0.17231472
-0.5273041 -0.397233 -0.34357202 -0.061768524 -0.12025657 -0.48563114 0.0022255136 -0.43553522
-0.055237815 0.094173126 -0.6951861 -0.032921586 -0.33751595 -0.326952 -0.35879353 -0.33425918
-0.16162379 -0.53632057 0.19345826 -0.0058061583 0.36137238 -0.16644743 -0.13912132 -0.3629633
-0.30794647 -0.45770988 -0.31565496 -0.5746777 -0.5276909 -0.32048115 -0.6289918 0.09316582
-0.23922877 0.27644226 -0.037755463 0.38501522 0.19654006 0.17071818 -0.008540637 -0.22547291
0.018534958 -0.32381725 -0.19713445 0.0059266007 -0.18748336 -0.3940967 -0.28246656 -0.57674557
-0.35174835 -0.09243679 -0.34314626 -0.5851523 0.099382326 -0.4477431 -0.49378896 -0.5920507
-0.43330595 -0.09124532 -0.02937823 -0.51310796 -0.75598425 -0.3393358 -0.6531846 0.019796709
-0.7020004 -0.25268963 -0.55490386 -0.012240481 -0.035472926 -0.153414 0.32200548 -0.30962977
0.3207368 -0.3441264 0.04222497 -0.26506513 -0.50043505 0.37797666 -0.34535757 0.5276049
-8.2688596e-12 0.2289334 0.0774497 -0.27086356 -0.66663885 0.40659335 -0.3580922 -0.19595946
0.2522546 -0.6881068 -0.021615714 -0.002647348 -0.36381367 0.18895595 -0.6560178 -0.35487717
-0.21925735 0.30468622 -0.28982332 -0.07693436 -0.3945133 -0.47506723 -0.4700419 -0.39261046
-0.03539601 -0.391153 -0.6033785 -0.23021859 0.08511885 -0.03605059 -0.10875677 -0.63074744
-0.6437557 -0.6787261 -0.15284465 -0.21177629 -0.065874614 0.22360617 0.48674452 -0.039511677
-0.26415282 0.03185635 -7.680813e-22 -0.434472 -0.40868765 -0.07369897 -0.37477422 -0.17910722
-0.721164 -0.73128074 -0.014383756 0.12036948 -0.06461194 -0.037170626 -0.44945234 -0.71884567
-0.20195156 -0.6181598 0.1868475 -0.011202609 0.024418779 -0.0011109927 0.19793792 -0.6946688

running_mean f4 [200]
00000000: 68d1 9940 9218 2dc1 b62a 7540 30fc 12c1
00000010: 1085 7c3f 82d9 2cc0 56f8 c2bf 45d3 1a3f
00000020: ccb2 993e 77e7 bb3f ddde 7d3f ce4e c1be
00000030: b8ef 913f a197 54bf 3188 fc40 b947 d6bf
00000040: 378b 23c0 f1a5 c640 f37c dbbf 8262 ac3f
00000050: 9988 0bc0 aee6 a601 26f6 bebe ad11 d83f
00000060: 6f39 b9c0 157d 2ac0 76a3 a0c0 8c91 ea00
00000070: 1880 023d eef8 f1bf aee6 cabf b5f8 13c1
00000080: c041 6540 9c98 4b80 dc44 d7bf 1784 163f
00000090: c9e4 0ac0 8671 61bc 16d0 22c1 515f 633f
000000a0: 0a3d 95aa c446 2a3e dff6 0a3f 0790 3bc0
000000b0: d72b d2a0 886c a63c 11a7 d7bf e91c d43e
000000c0: b99a e13e d221 1540 efe6 2240 fef2 f83e
000000d0: c328 5cc0 71c0 a2bd 1f01 37c0 ca06 793d
000000e0: a454 b740 c2eb 7cbf dc94 d2bf d6ad 6340
000000f0: 567a 07c0 1e9f bcbf 82f6 20c0 885b 0441
00000100: 08b6 4b3f 53b5 9640 23a0 5f40 39be 32c0
00000110: c8a2 84be e55a 8ebf 614d f8c0 efc6 6e40
00000120: 9d02 53be 4d6a debe 1819 e5c0 6af2 64a0
00000130: 681b 99c0 7c9f 89c0 2c15 3ebf 6483 0d40
00000140: 2351 0ec0 5a2b 2bc0 99eb 5b3e 5951 0540
00000150: 1816 82bf 63c5 ad3f bc2a 8dbf 8c52 d83d
00000160: 0274 7dbf 8e4d 2d3f 251b ef3e cc47 63bd
00000170: 7aaa acbf 1846 44c0 9aa7 6837 d99d 15bc
00000180: 02a0 0841 ab35 1ebe 1072 c03d 968f 69c1
00000190: 4e42 cdbf 9cfd b53e 1d02 2ec0 7bde 3cc0
000001a0: d4a8 9540 f59b a334 24d3 223f 4b67 1340
000001b0: 42f4 95c0 d7ee 6ec0 2c20 29c0 81e8 6640
000001c0: 577a eebf eebc bdbf 8ed9 81bd 4552 703e
000001d0: 1307 5340 d548 12c0 9012 ab40 2813 ad40
000001e0: 11c7 8540 701f 58c0 ab4c 30c0 1588 7ac0
000001f0: f2cf 0341 bd38 96be 2c34 6740 8122 d1bf
00000200: c173 da3c c701 11c1 0c6a 293f 6d9b 30c0
00000210: ab74 00bf 9abc 9b3f fe8f 1b40 4312 8fbf
00000220: 24ff 8681 9a06 57bf e13c 9740 d0c8 8840
00000230: fe63 1340 a4c0 4cc0 5014 1bc0 1438 413f
00000240: 2d47 643f 7747 83c0 20a7 b403 a52b f480
00000250: 0835 a33d eee8 b23f e14c 943f c27c cec0
00000260: 77a3 263f 8eb1 9b3f bce7 ed3f 8cba 0fc0
00000270: b815 10c0 e9b0 9abf e1f6 46bf bf59 52be
00000280: 2af3 a4c0 7f5d 35bf 3c6d 3e40 0a6c f23d
00000290: f431 adc0 5093 1000 d0d7 f0ba e171 d7be
000002a0: 5290 d83f af34 6740 e783 fbbf b999 07c0
000002b0: 94e7 bc40 95f9 f9bf aad8 a9c0 45d9 91bf
000002c0: 66c6 f3bf 43ab 8b40 f342 ad00 5865 c3bf
000002d0: c6c2 bbc0 cb5f c8c0 7124 b1c0 ef61 cfbf
000002e0: a6ba 9040 585f 4a40 f03e a6bd c829 78c1
000002f0: 3ad2 87c0 26e2 b6c0 2594 cc3e 65f5 4440
00000300: b2b2 58c0 1260 9140 bb26 b5bc 1412 ac80
00000310: 4061 a83f dee4 7101 4b27 3ebf ea1b e9bf
4.8068123 -10.818499 3.8307319 -9.186569 0.9864054 -2.7007756 -1.5232036 0.6047862
0.30019224 1.4680012 0.9916819 -0.37755436 1.1401281 -0.8304387 7.891625 -1.6740638
-2.555372 6.2077565 -1.7147506 1.3467562 -2.1802123 6.130978e-38 -0.3729717 1.6880394
-5.788261 -2.6638844 -5.0199537 2.1541718e-38 0.03186044 -1.8904092 -1.5851648 -9.2482195
3.582138 -6.942408e-39 -1.6817889 0.58795303 -2.170214 -0.013759976 -10.175802 0.88817316
-2.651007e-13 0.16628557 0.54282945 -2.9306657 -3.5604395e-19 0.020315424 -1.684786 0.41428307
0.44063357 2.3301892 2.545345 0.48622888 -3.439988 -0.079468615 -2.8594434 0.06079749
5.729082 -0.9879724 -1.6451678 3.557485 -2.1168418 -1.4736059 -2.5150456 8.2723465
0.7957463 4.7096343 3.494149 -2.7928603 -0.25905442 -1.1121489 -7.7594457 3.730892
-0.20606466 -0.43440476 -7.159313 -1.9392559e-19 -4.7845955 -4.3007183 -0.74251056 2.2111444
-2.2237022 -2.674521 0.21476592 2.08309 -1.0162992 1.3575863 -1.1028666 0.105626196
-0.9900514 0.67696464 0.46700397 -0.055488393 -1.3489525 -3.0667782 1.38673e-05 -0.009131872
8.539064 -0.1545016 0.09396756 -14.597555 -1.603586 0.3554505 -2.718879 -2.9510791
4.676859 3.047459e-07 0.63603425 2.3031795 -4.6860666 -3.7333276 -2.6425886 3.607941
-1.8631085 -1.4823282 -0.063403234 0.23468883 3.2973068 -2.2856953 5.346016 5.4085884
4.18055 -3.3769188 -2.7546794 -3.9145558 8.238268 -0.29340163 3.6125593 -1.6338655
0.026666524 -9.062934 0.6617744 -2.7594864 -0.5017802 1.2166932 2.4306636 -1.1177448
-4.9589935e-38 -0.8399445 4.7261815 4.2745132 2.302978 -3.1992579 -2.4231148 0.75476193
0.89171106 -4.1024737 1.0617819e-36 -2.2423518e-38 0.07969099 1.3977334 1.1585962 -6.452729
0.6509318 1.216356 1.8586345 -2.245761 -2.2513256 -1.2085239 -0.7772046 -0.20542048
-5.154683 -0.7084579 2.9754171 0.11837013 -5.412348 1.522214e-39 -0.0018374864 -0.4207907
1.6919043 3.6125906 -1.9649628 -2.1187575 5.903269 -1.9529291 -5.3076982 -1.139443
-1.9044921 4.364656 1.5911558e-38 -1.5265303 -5.867526 -6.2616935 -5.5356984 -1.6201762
4.522784 3.1620693 -0.08117473 -15.5102005 -4.2444124 -5.715106 0.39956775 3.0774777
-3.3859067 4.5429773 -0.022113195 -1.580219e-38 1.3154678 4.4428913e-38 -0.74278706 -1.8211644

running_var f4 [200]
00000000: f61a 9143 ebe2 1843 2a32 9443 8f4f 8042
00000010: ce37 e243 37e9 9f42 f6da 0340 a4df d643
00000020: 760f e442 b70b ce41 ed8a f040 5fbf 0e3e
00000030: 55bf d542 71b1 0943 27db 9043 600e 4e43
00000040: 9d32 9e41 9e9f 9843 c1f6 6442 eb70 c042
00000050: 26e1 8442 0400 0000 6471 073f e99c 6a42
00000060: 8820 7e43 060d 7441 28be 2843 0400 0000
00000070: 6310 3d3c 1ff1 0e42 0b87 c742 59aa f542
00000080: 0a35 8c43 0400 0000 2a1b c941 67d9 7542
00000090: 95da b441 e1a9 7b3a 2699 a742 f1d1 a241
000000a0: 2e45 4e16 13b4 e241 0846 0b42 99a8 a942
000000b0: 581e 9307 07f2 7e3a 6364 de41 738b 3043
000000c0: b909 7242 1653 8343 2b13 1a42 2b7f a841
000000d0: 81e9 9942 cac3 dc41 b8cf 8542 3615 d443
000000e0: 1aa0 8242 0d2c 0c42 259a 4442 5724 7f43
000000f0: 946a 0243 c620 2942 0606 d242 6b44 cf43
00000100: ffff 4b40 f5fe ac43 dbc4 8143 0a9c a642
00000110: d4f4 8d42 dac8 cf41 29f4 3e43 1e62 be43
00000120: b9fe c943 de4f 0d43 0ef6 8742 3270 c402
00000130: e093 8843 5039 4142 54b7 a342 7d35 a23f
00000140: d2a1 b841 9c46 e841 cea3 823e b155 4641
00000150: 09fd 7441 59b9 c741 cb54 b040 8de6 c142
00000160: 8ee8 6a40 1978 2343 624d 4a42 4545 8642
00000170: 1ed4 f242 2d07 0843 eb39 2430 d362 3539
00000180: 1eff a543 166b de42 cb7d e240 a235 3742
00000190: 8dd6 8042 c191 8241 fe74 f341 1b86 ea41
000001a0: 8e31 a643 e236 702b 35f2 a743 0658 f841
000001b0: 1734 b342 7174 5942 2113 ec41 ff12 7843
000001c0: a08d 5f41 c5be e141 4441 773f 14d6 8840
000001d0: bd78 1343 74ce 8842 bb1c 4e43 e707 bb43
000001e0: 1aa6 7c42 c979 f642 fa8c a441 25c2 a642
000001f0: 973b 8243 abd3 c841 a137 9042 b11f c342
00000200: a83e 1243 f902 1343 d98b a242 b20b 7542
00000210: 7764 1240 edfc 0943 f605 0a43 2b20 b342
00000220: 0400 0000 929b 8a43 b12a 8d42 b2e5 3e43
00000230: 97ec b542 a1a1 5b43 ee0c 0942 1f9e 6943
00000240: 7932 db42 f247 8642 0400 0000 0400 0000
00000250: 213d ca3e 8097 b442 4078 4542 0060 9a42
00000260: 1de9 4643 b49a 1143 5ed0 ad43 2674 6b42
00000270: afbc ea42 99bd bf41 0171 ee41 6b3e d441
00000280: 5808 da41 9987 2143 6a72 3c42 1f03 423d
00000290: 093a 8242 0400 0000 f4d4 f741 d785 9842
000002a0: e78c 3842 43b8 4d43 c506 c142 85fa 9c42
000002b0: 0cc0 b843 dd53 7743 7ac5 d142 1618 3542
000002c0: db6c bf42 a384 b043 0400 0000 b0b5 5740
000002d0: 0409 8442 2590 4242 0808 6043 400d 2b43
000002e0: 1f50 8743 1a98 fb42 f981 7d3c 5070 3f42
000002f0: 489b 8a42 c5b7 4d42 ce4b 2541 5c98 2843
00000300: b344 ea41 c04c 9143 dd80 9743 0400 0000
00000310: 0130 ec41 0400 0000 e97c 8d43 8891 7242
290.21063 152.8864 296.3919 64.15539 452.43597 79.9555 2.0602393 429.7472
114.0302 25.75572 7.5169587 0.1394019 106.873695 137.69313 289.71213 206.05615
19.774714 305.247 57.24097 96.22054 66.43974 6e-45 0.52907395 58.653233
254.12708 15.25318 168.7428 6e-45 0.011539551 35.73547 99.763756 122.83271
280.41437 6e-45 25.138264 61.462307 22.60673 0.0009600204 83.79912 20.35251
1.6662377e-25 28.337927 34.81839 84.82929 2.2135936e-34 0.0009725396 27.799017 176.54472
60.509495 262.6491 38.51872 21.062094 76.95606 27.5956 66.9057 424.1657
65.3127 35.04302 49.15053 255.14195 130.41632 42.282005 105.011765 414.53452
3.1874998 345.99185 259.53793 83.30476 70.97818 25.973072 190.95375 380.76654
403.99002 141.31198 67.980576 2.8864009e-37 273.15527 48.30597 81.85806 1.2672573
23.079014 29.034477 0.25515598 12.395921 15.311776 24.965502 5.5103507 96.950294
3.670444 163.46913 50.57557 67.13529 121.41429 136.02803 5.974516e-10 0.0001729832
331.9931 111.20915 7.0778556 45.802376 64.419044 16.321169 30.432125 29.315481
332.38715 8.5341293e-13 335.89224 31.04298 89.60174 54.363712 29.50934 248.0742
13.972076 28.21815 0.9658396 4.2761326 147.47163 68.40323 206.11223 374.06174
63.16221 123.23786 20.568836 83.37919 260.46555 25.103354 72.10865 97.5619
146.24475 147.01161 81.27314 61.26142 2.287382 137.98799 138.02328 89.56283
6e-45 277.2154 70.58338 190.89725 90.96209 219.63136 34.262627 233.61766
109.59858 67.14052 6e-45 6e-45 0.39499763 90.2959 49.36743 77.1875
198.9106 145.60431 347.62787 58.863426 117.36852 23.967577 29.805178 26.530478
27.254074 161.52968 47.111732 0.047366258 65.11335 6e-45 30.978981 76.261406
46.1376 205.71977 96.51322 78.489296 369.50037 247.32759 104.8857 45.27352
95.71261 353.03622 6e-45 3.3704643 66.01761 48.640766 224.03137 171.05176
270.62595 125.79707 0.015472882 47.85968 69.30328 51.429462 10.331007 168.59515
29.283545 290.5996 303.00674 6e-45 29.52344 6e-45 282.97586 60.64212

weight f4 [4, 200]
00000000: f02e 473d ef09 2f3e 13d3 6abd 8a4b f1bd
00000010: 7f8c f83d 4dd6 283e 7b41 a3bc 2233 ad3d
00000020: e617 e43b 0c76 cbbd 56b8 febc 9bf8 a6bc
00000030: 9b47 cfbd d127 8b3e 3b66 8e3d dc22 103d
00000040: 9c08 d43c 1d6a 063d 9f33 713e 5ef8 243e
00000050: d18a c93d b23c 39b9 0326 22bd eeb2 f2bd
00000060: bf2c a3bd d0b8 093d 60e6 e7bc 6ca1 3fba
00000070: 2cf6 2f3c 33ac 4f3d 47aa 033e 6915 ed3d
00000080: 5a9a e0bd 4048 3a80 b3a9 7e3d b045 3a3e
00000090: e8a6 ef3b 1914 873a a710 a53d 27ec 12bd
000000a0: a011 1439 ffd0 24bc 8ff2 f1bd 3d51 163c
000000b0: 2b96 b63c 7539 aebc 57bd d93c abc6 6f3e
000000c0: 9855 6c3c 97b8 6c3d dbd2 e23c 5f3c 02be
000000d0: f60e bdbd b890 30bb 66a6 bb3d f3b1 4b3e
000000e0: 495f 13bc fc6b e43c bf1d 46be 92f1 453d
000000f0: 37f6 d5bb 82db f33d 1bfe 463c c920 d2bd
00000100: bfd9 8abc 6f38 f63d 0ab2 90bd 8e59 063c
00000110: 51cf 0fbb 84e0 cfbd 8e6d 8fbd 7d67 9fbd
00000120: e427 a3bd 8397 0dbc df9e 8d3d 8295 b6ba
00000130: 2e30 03be a229 edbc 7a1c ca3d 8232 a1bb
00000140: 00c0 fabd e202 0fbd 2c00 5ebc 263c b13c
00000150: 77c3 a23b 2209 53bb 3038 91bb 72ed 23bd
00000160: 63c2 d3bc 041d 5ebe 5dcd e83c c93d 6d3c
00000170: cc3f acbd b9d1 903c a0f5 893a b9db 0c37
00000180: d8a5 143e ea19 463e 808c 81bc d89d 18bd
00000190: 68ff 783d bece 06be 75f4 ab3d cb7e 623c
000001a0: 2369 22be 96c0 1e3b ed7b eebd 093e 24bd
000001b0: 6db2 dbbb 0b22 223e 4785 cebc e792 94bc
000001c0: 37f4 f4bd e9bc a83d ac13 fbbb b9f7 5a3b
000001d0: 2b1c 32bd 426f babc 8abc 1fbd d79b a03d
000001e0: 5237 0dbd 2097 87bd cef2 e1ba 8010 99bb
000001f0: 6ec6 153e 4f83 b5bd 9509 63be de1d f5bd
00000200: 3315 3ebe 3510 6c3d 7866 e23d 12e7 febc
00000210: 507b 033d 82e3 83be b964 ab3b 4704 843d
00000220: 3f5a ed3b 92a2 9f3d 36cf 0a3e fadd 9a3c
00000230: 955f ecbc c69d 1bbe 8b18 d03d ac41 c63c
00000240: 3ed5 12be 1c7c 123e 02e3 f9bc 5c02 cd38
00000250: 067c 24bc 2aa4 2dbe 1133 143c 888e 28bc
00000260: 4873 cdbd 8b3e 9abe c456 8ebd 0e9f 9e3c
00000270: 90c5 423e c5f9 c53d 56ea f4bd f864 2dbe
00000280: e65d e8bd 14a1 56bc 0c1d b9bd d249 c53b
00000290: 3a94 c8bb 1945 bb3c 77a0 753c cb50 af3a
000002a0: 660d 763c 00bb 25bd a99a bb3c 8a46 b938
000002b0: cec1 a13d ddc8 44be 3748 a03d b76e 483c
000002c0: 3762 223e 74e7 d13d 8e6f 2b00 6e6b f33c
000002d0: 1571 89bd 6bad 853d ce01 cf3d 8156 ca3c
000002e0: 5707 81bd e8ca 23bd 4d42 a0bb f90e 273d
000002f0: be50 bd3b 54c0 923d 7ae5 a0bd ce7c adbc
00000300: 5b1f dfbd 3519 35bd db3c 083e ba0d f1bb
00000310: 75ac cd3d 2758 283a 6453 823d 94f0 00bd
00000320: 274c 043d a7bf 1cbd 9d6e acbb d028 483d
00000330: 0eb0 f63d d4b0 1dbe d018 f0bb 466f d23d
00000340: e4b8 82be 804f cabd bc6f f83b 2739 79bb
00000350: 12cb 84be 6045 d53d 87b9 303d 9403 f3bc
00000360: db6d 84bc 0f09 5c3d 5d9c a03e cb08 87bd
00000370: fd82 203d 64a0 1c2b f84c 0ebc 7512 49be
00000380: 32da a9bd 358d 943d 9343 5cba b195 133c
00000390: 43cc 13bb 169d c53d 3a96 be3b f4e3 2b3c
000003a0: 2d12 07bd a248 3900 8e53 a23c d479 143d
000003b0: 9796 6ebc 108c 813c 6c4f b33c e89b 55be
000003c0: 7ff6 8828 3a13 1f3e 41bc 6dbe c1d1 123b
000003d0: 377b e2bc fab3 d93b 5243 d6bb 5c6c 5dbd
000003e0: 35cb af3d 1bd8 08bc d79e d4bb 1227 3fbe
000003f0: d553 413c bbcb 83bc e4c8 003d c06d abbd
0.048628747 0.17093633 -0.057330202 -0.11781986 0.121361725 0.16488 -0.019928684 0.084570184
0.0069608567 -0.09934625 -0.031093758 -0.020382216 -0.101210795 0.27178815 0.06953093 0.035189494
0.025883012 0.03281604 0.23554848 0.1611037 0.0984093 -0.00017665586 -0.039587032 -0.118505344
-0.07967519 0.033623517 -0.028308094 -0.00073101255 0.010739844 0.05070133 0.12857924 0.11576349
-0.1096694 -5.352377e-39 0.062173557 0.18190646 0.007313598 0.0010305672 0.08059817 -0.035869744
0.00014120946 -0.010059594 -0.118138425 0.009174642 0.022288403 -0.021267632 0.026579542 0.2341563
0.014424704 0.057793226 0.027688434 -0.12718342 -0.09231369 -0.0026941728 0.09162597 0.19892101
-0.008994886 0.027883522 -0.19347285 0.048326083 -0.0065295952 0.11907102 0.012145544 -0.102601595
-0.016949533 0.120224826 -0.07065208 0.008200062 -0.0021943639 -0.10150245 -0.07003318 -0.07783411
-0.07966593 -0.00864208 0.06915068 -0.0013930055 -0.12811348 -0.028950516 0.09868713 -0.004919351
-0.12243652 -0.03491486 -0.013549846 0.021635126 0.004967149 -0.0032201489 -0.004431747 -0.040021367
-0.025849527 -0.21690756 0.028418237 0.014480063 -0.08410606 0.017678129 0.0010525472 8.395808e-06
0.1451639 0.19345823 -0.015814066 -0.037259907 0.06079045 -0.13164803 0.08396236 0.013824175
-0.15860419 0.0024223677 -0.11644731 -0.040098224 -0.0067046196 0.15833299 -0.025210036 -0.018136455
-0.11960643 0.08239157 -0.007662257 0.0033411814 -0.043483894 -0.02275813 -0.038998164 0.07842224
-0.034476586 -0.06620622 -0.0017238499 -0.0046711564 0.14626476 -0.08862936 -0.22171624 -0.11968587
-0.18562774 0.057632644 0.110547006 -0.031116042 0.03210002 -0.25759512 0.005230513 0.06446128
0.007243424 0.0779468 0.13555607 0.018904675 -0.02885417 -0.15196905 0.10160931 0.024201237
-0.14339158 0.14305156 -0.030503754 9.775601e-05 -0.010039335 -0.16957155 0.009045378 -0.010287888
-0.10031754 -0.30125841 -0.06950143 0.019362953 0.19020677 0.096667804 -0.119587585 -0.16933048
-0.11346035 -0.013099927 -0.090387434 0.006020763 -0.0061211856 0.022860097 0.014991871 0.0013375519
0.015017843 -0.04046154 0.022900896 8.834626e-05 0.078982934 -0.19217248 0.07826274 0.012233428
0.15857778 0.10249224 3.988945e-39 0.029714312 -0.06711022 0.065272175 0.10107766 0.024699451
-0.06300228 -0.03998843 -0.004890716 0.040785763 0.0057774475 0.0716559 -0.07856269 -0.021177676
-0.108946525 -0.044213492 0.13304465 -0.0073563727 0.10042659 0.0006421827 0.06363562 -0.031479433
0.032299187 -0.03826871 -0.0052622096 0.048867047 0.120452985 -0.15399486 -0.0073271766 0.1027513
-0.25531685 -0.09878445 0.007581679 -0.003802845 -0.2593618 0.10413623 0.043145683 -0.029664792
-0.016165664 0.053719576 0.31369296 -0.06593474 0.03918742 5.564492e-13 -0.008685343 -0.19635947
-0.082935706 0.072534956 -0.00084024033 0.009007857 -0.002255217 0.096491024 0.0058162482 0.01049136
-0.03297632 5.260679e-39 0.019815233 0.036248997 -0.014562271 0.015813857 0.021888457 -0.20860255
1.5205934e-14 0.15534678 -0.23216344 0.0022402855 -0.027646644 0.0066437693 -0.006538787 -0.054058418
0.085836805 -0.008352305 -0.0064886617 -0.18667248 0.011799772 -0.016088357 0.031441584 -0.083705425

bias f4 [4]
00000000: d61a d1bb 9fdf 8cbc 6d0f 1dbf d871 0ebf
-0.006381373 -0.017196475 -0.6135166 -0.5564246
