experiments/synthetic_data/model_synthetic.pth (torch, 818961 bytes, 27 tensors)

weight f4 [10, 1, 10]
0	0xbdab474f	-0.083632104
1	0xbda4d513	-0.08048453
2	0xbd42e6fb	-0.04758356
3	0xbd02615e	-0.031831138
4	0xbdeec770	-0.116591334
5	0xbdae61d8	-0.08514756
6	0x3d20fc0b	0.039302867
7	0xbc0ddfc4	-0.008659307
8	0xbdc78d49	-0.09743745
9	0x3daff65d	0.08591912
10	0xbc47c037	-0.012191824
11	0xba09881d	-0.0005246418
12	0xbbd133bd	-0.0063843415
13	0x3e370b70	0.17875457
14	0x3dba37a8	0.09092647
15	0xbd4fb6f6	-0.050711595
16	0xbd1a69ef	-0.037698682
17	0xbc685211	-0.014179722
18	0xbc4af4d1	-0.01238747
19	0xbceabb81	-0.028653862
20	0x3d00654a	0.031346597
21	0x3d48226c	0.048860952
22	0x3d61eb1e	0.055155866
23	0x3d20b871	0.039238397
24	0x3c8dccf6	0.017309647
25	0x3d1f345e	0.0388683
26	0x3cb8f46b	0.022577485
27	0x3d0c8edc	0.03431593
28	0x3d0c57bc	0.034263358
29	0x3cd50b29	0.026006298
30	0xbd0e033a	-0.034671046
31	0x3c25ae2e	0.010112328
32	0x3d80625d	0.06268761
33	0xbd00dc08	-0.03145984
34	0x3a9efcc8	0.0012129778
35	0x3d708ad3	0.058726143
36	0xbc892f51	-0.016746195
37	0xbdabfe5c	-0.083981246
38	0x3b58383b	0.00329925
39	0x3dcf1880	0.10112095
40	0x3d641d23	0.05569185
41	0x3d6aa2fd	0.057284344
42	0x3d6b90d6	0.057511173
43	0x3d41fc21	0.04735959
44	0x3d817e2b	0.06322893
45	0x3d6060e4	0.054779902
46	0x3d157df6	0.03649708
47	0x3d3a52f5	0.04548927
48	0x3d7d9fef	0.061920103
49	0x3cf711de	0.030159887
50	0xbda59016	-0.08084123
51	0xbcb4086a	-0.021976668
52	0xbce57cd0	-0.028013617
53	0xbc086526	-0.008324897
54	0x3babda79	0.00524455
55	0x3e3d04fd	0.18458934
56	0x3cf97519	0.030451344
57	0x3d291591	0.041280333
58	0xbd515745	-0.051108617
59	0xbc8a5478	-0.016885981
60	0x3d346cfe	0.044049256
61	0x3d4b07ed	0.049568105
62	0x3cd9f2f8	0.026605114
63	0xbd4a3b4a	-0.04937295
64	0x3e0f0e83	0.1397038
65	0xbdc4642b	-0.09589418
66	0x3d1d3f9c	0.03839074
67	0x3d695afc	0.056971535
68	0xbdb79ba4	-0.08965233
69	0xbcaf3e25	-0.021391938
70	0x3d92ad2f	0.071619384
71	0xbc49e1a8	-0.012321867
72	0x3d50e370	0.05099815
73	0xbdc10bd7	-0.094260864
74	0xbdc8d2f0	-0.09805858
75	0x3c96b5e2	0.018397275
76	0x3c325a77	0.010885826
77	0x3d64058d	0.055669356
78	0x3b95f33a	0.004576114
79	0x3d62c3ad	0.055362392
80	0xbd922d1d	-0.07137511
81	0x3d1ac295	0.037783224
82	0x3d8047c8	0.06263691
83	0x3dd92fcc	0.1060482
84	0xbd724c6a	-0.059154905
85	0x3d76e415	0.06027611
86	0x3ca4d05b	0.020118883
87	0x3d7aafc0	0.061202765
88	0xbdc6b312	-0.09702124
89	0xbd41e938	-0.047341555
90	0xbe24713b	-0.16058819
91	0xbd8837ac	-0.066512436
92	0x3c8a1c4b	0.016859194
93	0x3c5e475d	0.013566819
94	0xbdda4ae9	-0.10658819
95	0xbd83b9fd	-0.06431959
96	0x3d013fca	0.031554975
97	0x3c0ece53	0.008716184
98	0xbdffbb75	-0.124869265
99	0xbd7e32e1	-0.06206024

bias f4 [10]
0	0xbac4cd6c	-0.0015014834
1	0xba5d1ee0	-0.00084350817
2	0xba364125	-0.00069524563
3	0xba01146c	-0.00049240026
4	0xba269536	-0.00063546316
5	0x39b716bc	0.00034921418
6	0xbb5bbfa6	-0.003353098
7	0xba97c88f	-0.0011580157
8	0x39b1ef7b	0.00033938498
9	0x3a3859df	0.0007032435

weight f4 [10]
0	0x3fa5623b	1.2920603
1	0x3f6abfd5	0.9169896
2	0x3f64a830	0.89319134
3	0x3f6519a8	0.89492273
4	0x3f81f01b	1.0151399
5	0x3f78c3de	0.9717387
6	0x3f82b7f9	1.0212394
7	0x3f7b54a8	0.9817605
8	0x3f80313b	1.0015024
9	0x3f8a0cd8	1.078517

bias f4 [10]
0	0x3e0e58b6	0.13901028
1	0x3d4462e9	0.04794589
2	0x3d6a6963	0.05722941
3	0xbe16f6ad	-0.14742537
4	0x3dc4e530	0.096140265
5	0xbe0204bb	-0.12697117
6	0x3c795918	0.0152189955
7	0xbe4e2a89	-0.20133413
8	0xbe255884	-0.16147047
9	0xbd1934a3	-0.037403714

running_mean f4 [10]
0	0x3ac4bfd5	0.0015010784
1	0xbad5eaa3	-0.0016320538
2	0xbb4fd8cf	-0.0031714921
3	0xba9b2e4e	-0.0011839361
4	0xbb97a850	-0.0046282187
5	0x389cc4fa	7.4753494e-05
6	0xba7b1f22	-0.0009579529
7	0xbabb6ab6	-0.001429877
8	0xb91f64bf	-0.00015200952
9	0x3b84e382	0.0040554414

running_var f4 [10]
0	0x3dfae9e4	0.12251642
1	0x3cc21427	0.02369125
2	0x3d92ef54	0.071745545
3	0x3c5beaa1	0.013422639
4	0x3e1e1b68	0.15440142
5	0x3c9c6e67	0.019095613
6	0x3cbd92c1	0.023141267
7	0x3c700941	0.014650644
8	0x3c930b8b	0.01794984
9	0x3e2b456b	0.167257

weight f4 [10, 10, 9]
0	0xbc4ac6ba	-0.012376482
1	0x3ca90259	0.020631002
2	0x3c913aa4	0.017728157
3	0x3cc6f231	0.024285408
4	0xbca437e9	-0.020046191
5	0x3d38cf15	0.045119364
6	0x3d121204	0.035661712
7	0x3d6c4f1a	0.057692625
8	0x3d98b3d7	0.07456177
9	0xbd1afad7	-0.037836876
10	0xbd4fb850	-0.050712883
11	0xbd7ccf78	-0.061721295
12	0xbcc27fdf	-0.023742614
13	0xbd14d57c	-0.036336407
14	0x3ce8fa50	0.02843967
15	0xbd78a382	-0.06070281
16	0xbd52b10f	-0.051438387
17	0xbd21bba0	-0.039485574
18	0x3d031178	0.03199908
19	0x3cb48535	0.022036174
20	0x3cca2ccd	0.024679566
21	0x3ca8138d	0.020517135
22	0x3d197ede	0.037474506
23	0xbc220149	-0.009888002
24	0x3d312bc6	0.043254636
25	0xbce6151f	-0.028086243
26	0xbd2dc58c	-0.042424724
27	0xbd3a2d8d	-0.045453597
28	0xbcd2d69f	-0.025737105
29	0xbcd031c4	-0.025414355
30	0xbd813cc5	-0.06310419
31	0x3ab49270	0.0013776552
32	0xbc49a518	-0.012307428
33	0x3d5bf40d	0.05369954
34	0xbb0f90de	-0.0021906416
35	0x3d61597e	0.055016987
36	0xbd08ff11	-0.033446375
37	0xbcac0b12	-0.021001372
38	0x3a0926c0	0.00052319095
39	0xba7470fa	-0.0009324696
40	0xbd1fb7bd	-0.038993586
41	0xb9baeefc	-0.00035654742
42	0xbb68b1ae	-0.0035506296
43	0xbbeb62db	-0.0071834153
44	0xbd9f8b0b	-0.07790192
45	0xbd8daba8	-0.069175065
46	0xbd03673b	-0.03208087
47	0xbd580278	-0.05273673
48	0xbcdbc428	-0.026826933
49	0x3c2997a0	0.010351092
50	0xbcfe141e	-0.031015452
51	0xbd6cc802	-0.05780793
52	0xbbcec2e4	-0.006309854
53	0xbc2bf9cd	-0.010496569
54	0xbcbda9ec	-0.023152314
55	0xbd8a8db5	-0.0676531
56	0xbc8cce78	-0.017188296
57	0x3b8cd40d	0.0042977394
58	0x3d021ac2	0.0317638
59	0xbc8b5714	-0.017009296
60	0xbd4f54a6	-0.050617836
61	0xbbe6d2bb	-0.007044164
62	0xbd88a03d	-0.06671188
63	0xbda0501a	-0.07827778
64	0x3c2bc563	0.010484072
65	0xbccd65a3	-0.025072878
66	0xbd3d19b7	-0.0461671
67	0x3c9c5d49	0.01908745
68	0xbd019472	-0.03163571
69	0x3d21bb62	0.039485343
70	0x3be5e030	0.0070152506
71	0xbd7d6760	-0.061866164
72	0xba97082a	-0.0011522819
73	0x3b17c3eb	0.0023157548
74	0xbd2141ec	-0.03936951
75	0xbc969fbf	-0.01838672
76	0xbcce8ca9	-0.025213556
77	0xbc9025e7	-0.017596198
78	0x3c2aee35	0.01043277
79	0x3c1fa524	0.009743962
80	0x3c7e25c2	0.015511932
81	0xbbbc6e84	-0.005750479
82	0x3c9834bb	0.018579831
83	0x3d446383	0.047946464
84	0x3c84b242	0.016198281
85	0xbc0358de	-0.008016793
86	0x3d491a63	0.04909743
87	0x3bbdd5bb	0.005793301
88	0x3d4e295a	0.050332405
89	0xb811ef2a	-3.4793433e-05
90	0xbcf2511a	-0.029579688
91	0xbc966095	-0.0183566
92	0xbc4c8c3e	-0.012484608
93	0x3cb7a35d	0.022416765
94	0xbc620ff1	-0.013797746
95	0x3cf19402	0.029489521
96	0xbd2d42de	-0.042300098
97	0x3cf7a0de	0.030228075
98	0xbced8239	-0.028992759
99	0xbcbfdd18	-0.023420855
100	0x3c831a1c	0.01600366
101	0xbe0ec74a	-0.1394321
102	0xbd0d3a7f	-0.034479614
103	0xbc907732	-0.017634962
104	0xbdc0d2a1	-0.09415174
105	0xbd68a037	-0.056793418
106	0xbe06a9e7	-0.1315075
107	0x3b81eeae	0.0039652204
108	0xbd193002	-0.0373993
109	0xbca8cd12	-0.020605598
110	0xbdb7d151	-0.08975471
111	0xbd9d6bb1	-0.07686556
112	0xbcf2be85	-0.029631862
113	0xbca601a7	-0.02026446
114	0xbd671648	-0.056417733
115	0x3d0e6bdc	0.03477083
116	0xbbcb0718	-0.006195914
117	0x3c605a82	0.013693454
118	0xbd3eeda6	-0.046613358
119	0xbd913a15	-0.070911564
120	0xbdd70ec5	-0.10500864
121	0xbcd7e34c	-0.0263535
122	0x3c9a8429	0.018861847
123	0xbd00eb0b	-0.031474154
124	0x3dc0e2c7	0.09418254
125	0xbc32b7b5	-0.010908057
126	0xbd1c5008	-0.03816226
127	0xbcd7a879	-0.026325451
128	0xbc9b2df9	-0.01894282
129	0xbdbf8771	-0.09352005
130	0xbc9de850	-0.019275814
131	0xbd0b93f8	-0.03407666
132	0x3cd7e605	0.026354799
133	0xbcaa3906	-0.020779144
134	0xbcdc6bf4	-0.026906945
135	0xbc4ce901	-0.012506724
136	0x3b49b69f	0.0030779017
137	0x3a4a4308	0.0007715677
138	0x3ce1bf4d	0.02755704
139	0xbd4cbddd	-0.049985755
140	0xbd41bb82	-0.047297962
141	0x3c5ab83d	0.01334959
142	0x3cdd4dab	0.027014574
143	0x3d270be3	0.04078282
144	0xbc5fd3db	-0.01366135
145	0xbcd4e134	-0.025986291
146	0xbd81b73f	-0.063337795
147	0xbdfa3327	-0.12216788
148	0xbdae0db4	-0.084987074
149	0xbc498d9d	-0.01230183
150	0xbbdd16a9	-0.006747086
151	0xbd143ccd	-0.036190797
152	0xbdcd6d8a	-0.100306585
153	0xbd335377	-0.04378077
154	0xbca9d41e	-0.020731028
155	0x3dda2d17	0.106531315
156	0xbd4c90bb	-0.049942713
157	0xbd5d8879	-0.05408523
158	0x3cbce80c	0.023059867
159	0xbba59556	-0.0050532026
160	0x3d19bb70	0.03753227
161	0x3dac01df	0.083987944
162	0x3c968f1d	0.018378789
163	0x3d0af945	0.03392913
164	0xbc879616	-0.016551059
165	0xbc18c5e8	-0.009324528
166	0xbd3c36e1	-0.045950774
167	0x3cac9209	0.021065729
168	0xbc754460	-0.014969915
169	0x3cb8bca5	0.02255089
170	0x3ce27e9e	0.027648266
171	0xbc89d545	-0.016825328
172	0x39b4bcf6	0.00034473062
173	0x3c2557d4	0.010091741
174	0xbbd54fad	-0.0065097422
175	0xbd055012	-0.032547064
176	0xbdc43818	-0.095810115
177	0xbc89d0fa	-0.01682328
178	0xbd2ffdc1	-0.042966608
179	0x3b9b955e	0.0047480306
180	0xbe013cca	-0.12620845
181	0xbe0924ff	-0.13393019
182	0xbcbfbef9	-0.023406493
183	0xbdefe4cb	-0.11713561
184	0xbd6b04fd	-0.057377804
185	0xbcfbe4b7	-0.030748708
186	0xbd470c1f	-0.048595544
187	0xbcf7385c	-0.030178241
188	0xbd177f77	-0.036986794
189	0x3c832d86	0.016012918
190	0x3dab6fbc	0.08370921
191	0xbd6d2bbf	-0.057903048
192	0x3c5e3a2f	0.013563677
193	0x3d8e70c3	0.06955101
194	0xbbe0489c	-0.006844593
195	0xbc7fd508	-0.015614755
196	0x3c5b5552	0.013387041
197	0xbceffdeb	-0.029295882
198	0x3d833634	0.06406823
199	0x3d09f7d5	0.033683617
200	0x3bf161d4	0.0073663983
201	0x3c4d7f9a	0.01254263
202	0x3aaaed01	0.0013040603
203	0x3c9b82ac	0.018983208
204	0x3d6bd3a7	0.057574894
205	0x3c6f85c9	0.014619299
206	0x3cfdd9fc	0.030987732
207	0x3d5ea9c5	0.054361124
208	0xbc831eb2	-0.016005848
209	0x3d2600df	0.040528174
210	0x3c0413a7	0.008061326
211	0x3c9bde9c	0.019027047
212	0x3d2c7b31	0.042109672
213	0x3d2ff1ed	0.042955328
214	0x3d455813	0.048179697
215	0x3bb06790	0.0053834394
216	0x3d4e7b52	0.050410576
217	0x3cc8885c	0.024479084
218	0x3d5017c4	0.050803915
219	0x3d11ac77	0.035564866
220	0x3bd54a8e	0.0065091318
221	0x3d031772	0.03200478
222	0x3d4f6a15	0.050638277
223	0x3d198580	0.03748083
224	0x3d0ec12b	0.034852188
225	0x3b8735cd	0.0041262866
226	0x3cb82fef	0.022483794
227	0x3d841aab	0.06450399
228	0x3d4dab4f	0.0502122
229	0x39b95466	0.0003534883
230	0x3d950525	0.07276372
231	0x3d517dca	0.051145352
232	0xbca06fd5	-0.019584576
233	0x3dbeea26	0.09322004
234	0xbc535c92	-0.012900488
235	0x3d0d45a0	0.034490228
236	0x3ccff48e	0.025385167
237	0xbd83cd09	-0.06435592
238	0x3c7fa862	0.01560411
239	0xbd59de59	-0.053190563
240	0x3d0615bc	0.03273557
241	0x3ca7104c	0.020393513
242	0x3d4cff1a	0.05004797
243	0xbcc79409	-0.02436258
244	0xbc9d4bad	-0.019201124
245	0x3d70706c	0.058700964
246	0x3dd7352d	0.10508189
247	0x3d84366c	0.06455693
248	0x3d272c48	0.040813714
249	0xbb7b8cc0	-0.0038383454
250	0x3b55e361	0.003263675
251	0x3d924791	0.071425565
252	0x3ca78b2b	0.020452103
253	0x3d4cce62	0.05000151
254	0x3cb906ca	0.022586245
255	0x3c5f5239	0.013630443

bias f4 [10]
0	0x3a5e7dd2	0.00084873766
1	0xbaca3ae1	-0.0015428924
2	0xb7c9f3ec	-2.4074652e-05
3	0xba1327f8	-0.0005613561
4	0x399a3b38	0.0002941729
5	0xb874f1b0	-5.8399222e-05
6	0xb83ee68a	-4.5514236e-05
7	0xba3c51b8	-0.0007183808
8	0xba44292e	-0.0007482943
9	0xba025a32	-0.00049725466

weight f4 [10]
0	0x3f6cbc6c	0.9247501
1	0x3f6c7541	0.92366415
2	0x3f813336	1.0093753
3	0x3f803f3c	1.0019298
4	0x3f80eec3	1.0072864
5	0x3f7514da	0.9573494
6	0x3f7f5465	0.9973815
7	0x3f8a5375	1.0806719
8	0x3f66a5e4	0.9009688
9	0x3f78bfb4	0.97167516

bias f4 [10]
0	0xbd148b44	-0.036265627
1	0xbd8414c4	-0.06449273
2	0x3d2eba59	0.042658184
3	0x3bc5b685	0.006033721
4	0xbe32463d	-0.17409606
5	0xbd180d3d	-0.037122
6	0x3c2fae14	0.010722656
7	0xbd39df1d	-0.045378793
8	0xbdb0fe3b	-0.086422406
9	0x3cb64a14	0.02225212

running_mean f4 [10]
0	0xbe3f96a7	-0.18709813
1	0xbf2e4c67	-0.6808533
2	0xbd9f3561	-0.07773853
3	0x3d74ab3c	0.059733614
4	0xbf086f3b	-0.53294724
5	0xbd40e09c	-0.047089204
6	0x3de23b70	0.11046493
7	0x3b36d015	0.0027895023
8	0xbf21da1f	-0.6322345
9	0xbf434c9a	-0.7628876

running_var f4 [10]
0	0x3ec40f85	0.3829309
1	0x3f27a15e	0.654806
2	0x3fb9f166	1.4526794
3	0x3eb95c81	0.36203387
4	0x3e278ef4	0.16363126
5	0x3f28880d	0.65832597
6	0x3f28af95	0.65892917
7	0x3e817cbf	0.25290486
8	0x3e4cb6c9	0.19991602
9	0x3f1fef39	0.624744

weight f4 [200, 490]
0	0xbd688ad0	-0.056773007
1	0xbc530fb1	-0.012882159
2	0xbd08992a	-0.033349194
3	0xbdda0995	-0.10646359
4	0x3d0d78cb	0.034539025
5	0x3bb81ae6	0.005618441
6	0xbd3202d6	-0.043459736
7	0xbcde62f6	-0.027146798
8	0x3bd33814	0.006445894
9	0x3c7648dd	0.01503202
10	0x3d15cd0c	0.0365725
11	0x3ce429ab	0.0278519
12	0xbe2f1632	-0.1709831
13	0xbcb7d5a5	-0.02244074
14	0x3c37f8f7	0.011228791
15	0xbc9a7b2b	-0.01885756
16	0xbd7db886	-0.061943553
17	0xbd21bd82	-0.03948737
18	0xbd39f2ba	-0.045397498
19	0xbd9270d5	-0.07150427
20	0x3cd1432e	0.02554473
21	0xbc590041	-0.013244689
22	0xbc5ba71d	-0.013406542
23	0xbd1d8619	-0.038457964
24	0xbcef84f7	-0.029238207
25	0xbde93f67	-0.11389046
26	0xbd196aa0	-0.0374552
27	0xbdc14883	-0.09437659
28	0xbc9b2267	-0.018937303
29	0x3db7424a	0.089481905
30	0xbcac0604	-0.020998962
31	0x3d31ef0e	0.04344087
32	0x3db9a927	0.090654664
33	0xbc03f3e8	-0.008053757
34	0xbce3f781	-0.02782798
35	0xbdf277d5	-0.118392624
36	0x3c1afa2f	0.0094590625
37	0x3ca424ae	0.020037021
38	0xbc06d74b	-0.008230041
39	0xbd6a4c0b	-0.057201426
40	0x3d4061f6	0.046968423
41	0xbd73a473	-0.059483003
42	0xbd67e77d	-0.05661725
43	0xbd27c59e	-0.040959947
44	0xbe15826f	-0.14600538
45	0x3be5e1e8	0.0070154555
46	0xbcc87396	-0.024469178
47	0x3d536074	0.051605657
48	0xbcf917bd	-0.030406827
49	0xbd7aff26	-0.061278485
50	0x3cc52b6b	0.024068555
51	0xbdaf2714	-0.085523754
52	0xbd21ed34	-0.039532855
53	0xbd88947f	-0.066689484
54	0xbd88af48	-0.06674057
55	0xbd272c39	-0.04081366
56	0xbdcda87f	-0.10041904
57	0xbdb83cdc	-0.08995983
58	0x3d67ae04	0.05656244
59	0x3d55a547	0.052159574
60	0xbd4e0d37	-0.05030557
61	0xbd8982b3	-0.06714382
62	0xbdae8f7e	-0.08523463
63	0xbda0001e	-0.07812522
64	0x3ba5fc6b	0.005065491
65	0xbe0152ce	-0.12629244
66	0xbd9f7275	-0.07785503
67	0x3ca9f3ec	0.020746194
68	0xbd8c6a6d	-0.068562366
69	0xbd8d7bd7	-0.06908386
70	0xbe3b355d	-0.18282075
71	0x3d33e023	0.043914925
72	0xbd75ef34	-0.060042575
73	0xbd102b9a	-0.03519783
74	0x39e3df5a	0.00043463224
75	0xbe071f88	-0.13195622
76	0x3cd23cce	0.02566376
77	0xbd68b626	-0.056814335
78	0xbd9abda5	-0.07555703
79	0x3d92474d	0.07142506
80	0xbd9bda5e	-0.076100096
81	0xbd195dcd	-0.03744297
82	0xbdb6903b	-0.089142285
83	0x3d0d9910	0.0345698
84	0xb966492a	-0.00021961765
85	0x3b7883d4	0.0037920373
86	0x3c8a7bcf	0.01690474
87	0xbe16a4a2	-0.1471124
88	0x3ddd85a5	0.10816506
89	0xbd1b1912	-0.037865706
90	0x38f0217c	0.00011450329
91	0x3d0e59f8	0.03475377
92	0x3c9eccff	0.01938486
93	0x3d10260d	0.035192538
94	0xbd10091d	-0.03516494
95	0xbdd72293	-0.105046414
96	0xbd93c5a5	-0.07215432
97	0xbd0a70e5	-0.03379907
98	0x3d55796e	0.052117757
99	0x3e2e4743	0.17019372
100	0x3e06694f	0.1312611
101	0x3e640bc5	0.22270115
102	0x3e2083e8	0.15675318
103	0x3e16681f	0.14688157
104	0xbcb7731c	-0.022393756
105	0x3e3731bb	0.17890064
106	0x3dfb58c5	0.12272791
107	0x3d525104	0.051346794
108	0x3d87cfe1	0.06631447
109	0x3e1281c7	0.14307319
110	0x3d2dc440	0.042423487
111	0x3d505931	0.05086631
112	0x3e1b6241	0.151742
113	0x3e1cd4ed	0.153156
114	0x3e5138a1	0.20431758
115	0x3db84459	0.08997411
116	0x3d02825e	0.03186261
117	0x3d823c5e	0.063591704
118	0x3d36d9ee	0.044641428
119	0xbd81fccb	-0.063470446
120	0xbb1e83e2	-0.0024187495
121	0x3d1ebb78	0.038753003
122	0x3e09b7ee	0.1344907
123	0x3dbc5b7f	0.09197139
124	0x3e073580	0.13204002
125	0x3d1f21d2	0.038850613
126	0x3cf9ac84	0.03047777
127	0x3d818d16	0.06325738
128	0x3d404ffb	0.046951275
129	0x3d0ccfad	0.034377743
130	0x3d412d7d	0.04716252
131	0x3e151137	0.14557348
132	0x3e017220	0.12641191
133	0x3e140898	0.14456403
134	0x3e0daa59	0.13834514
135	0x3de3bef6	0.11120407
136	0x3e1678d5	0.14694531
137	0x3e119d23	0.14220099
138	0x3e1adab5	0.15122493
139	0x3d351e26	0.044218205
140	0x3e06c17c	0.13159746
141	0x3cb36b0d	0.021901632
142	0xbc556084	-0.013023499
143	0x3deec666	0.11658935
144	0x3dcf4b8d	0.10121832
145	0x3d075cf4	0.03304763
146	0x3e063eed	0.13109942
147	0x3d831afa	0.0640163
148	0xbd824eb0	-0.06362665
149	0x3d1378dd	0.036003936
150	0xbda0a6a2	-0.07844283
151	0x3caba485	0.020952472
152	0x3cc5ff1b	0.024169495
153	0x3bacc8a1	0.0052729403
154	0xbdcd8d9d	-0.10036776
155	0x3d4c8cbb	0.0499389
156	0xbd13df37	-0.036101546
157	0xbc205653	-0.009786206
158	0xbdb7269d	-0.08942912
159	0xbe02a590	-0.1275847
160	0x3b306c9d	0.0026920207
161	0xbd68e1a3	-0.05685581
162	0x3c01572f	0.007894321
163	0xbc37c765	-0.011216973
164	0xbb939fdc	-0.0045051407
165	0xbdde0237	-0.10840266
166	0x3cca701e	0.024711665
167	0xbd21032b	-0.03930966
168	0x3bf1f8b0	0.007384382
169	0xbdc58d0d	-0.09646044
170	0xbda0bf38	-0.07848972
171	0xbd9b39b9	-0.07579369
172	0xbda2361f	-0.07920479
173	0xbd551496	-0.052021585
174	0x3d54b7cb	0.05193309
175	0xbdccb53f	-0.099955074
176	0xbd247cd5	-0.04015811
177	0xbbce57ab	-0.006297072
178	0x3cbfba1a	0.02340417
179	0x3ce2ddbc	0.027693622
180	0xbd24b37e	-0.04021024
181	0xbd075ac8	-0.03304556
182	0xbc8ff1e7	-0.017571403
183	0xbd54e9e9	-0.051980887
184	0x3d046754	0.032325104
185	0xbce62d42	-0.028097752
186	0x3d2dd8f2	0.042443223
187	0x3b4e6bda	0.003149739
188	0x3d84d7b1	0.06486452
189	0xbce7aebe	-0.028281566
190	0xbdf3e773	-0.1190938
191	0x3dc8016b	0.097658955
192	0xbe03727d	-0.12836643
193	0xbe0f610f	-0.14001869
194	0xbdaf7f2f	-0.0856918
195	0xbd3ccdfa	-0.046094872
196	0x3d6683e3	0.05627812
197	0x3dd0fc84	0.102044135
198	0x3e444f19	0.19170798
199	0x3dcb4a4d	0.09926281
200	0x3d313fa8	0.043273598
201	0xbc807914	-0.015682735
202	0x3d2c1376	0.042010747
203	0x3dc276eb	0.09495338
204	0xbdc19ba5	-0.09453515
205	0xbd418b27	-0.047251847
206	0x3c363072	0.011119949
207	0x3de7aae4	0.11311892
208	0x3d181276	0.03712698
209	0x3cac355e	0.021021541
210	0xbd399c1e	-0.0453149
211	0x3d48ec51	0.049053494
212	0x3d1d7093	0.038437437
213	0x3d9ea24e	0.07745801
214	0x3d71604e	0.058929734
215	0xbcafa2ba	-0.021439899
216	0x3c2ef453	0.010678369
217	0x3bbb535e	0.0057167253
218	0xbd539e42	-0.0516646
219	0x3dff1d36	0.124567434
220	0x3c8ce927	0.01720102
221	0x3d7228a2	0.05912078
222	0x3e4b6fd4	0.19866878
223	0x3de2cae7	0.11073857
224	0x3d96c3b5	0.07361547
225	0xbc348359	-0.011017644
226	0x3cddc87c	0.027073137
227	0x3d4ffd18	0.05077848
228	0xbda87f8f	-0.08227455
229	0xbd25c18d	-0.040467788
230	0x3bdaf29f	0.0066817547
231	0x3d16fc51	0.03686172
232	0x3dc8fd8e	0.09813987
233	0x3d886e1d	0.066616274
234	0x3d504660	0.050848365
235	0x3cb276f9	0.021785246
236	0xbcfd302b	-0.030906757
237	0xbda2c594	-0.07947841
238	0x3d09eaa6	0.033671044
239	0xbd182661	-0.037145976
240	0x3c5e983e	0.013586102
241	0xbcd755c5	-0.026286015
242	0x3d8e497c	0.0694761
243	0x3dc8338a	0.09775455
244	0x3ccf19ad	0.025280798
245	0x3e23c0e6	0.15991554
246	0x3e1d5ff4	0.15368634
247	0x3d6e15e1	0.058126334
248	0x3d4c6f81	0.049911026
249	0x3df4b9ec	0.11949524
250	0x3db3f6f2	0.087873355
251	0x3dae61c2	0.085147396
252	0x3de13a33	0.10997429
253	0x3ca95d81	0.020674469
254	0x3dbc2362	0.09186436
255	0x3e0977f4	0.13424665

bias f4 [200]
0	0x38485f60	4.777254e-05
1	0xb8d85974	-0.000103163446
2	0x38ace536	8.244293e-05
3	0xb75935ba	-1.2946717e-05
4	0x39816d29	0.00024686128
5	0x37b712d0	2.182406e-05
6	0x37ddf30b	2.6458429e-05
7	0x39601860	0.00021371385
8	0x3808d34e	3.262172e-05
9	0x36231fa0	2.43073e-06
10	0x3860b3be	5.357316e-05
11	0x37c7d076	2.381972e-05
12	0x37c46c36	2.341541e-05
13	0x371638b4	8.953899e-06
14	0x38550186	5.0784576e-05
15	0xb90fc1a4	-0.0001370968
16	0x3789196a	1.6343507e-05
17	0x389f5190	7.596903e-05
18	0x389c92cd	7.4660034e-05
19	0x3849483c	4.7989408e-05
20	0x3849c101	4.8101883e-05
21	0xb7c11338	-2.3016342e-05
22	0xb69b013d	-4.619504e-06
23	0x383e3f12	4.535827e-05
24	0xb7d46ebf	-2.532394e-05
25	0xb899a45e	-7.326224e-05
26	0x3704eb54	7.922605e-06
27	0xb8740fd9	-5.8188893e-05
28	0xb8216055	-3.8475107e-05
29	0x36a6e238	4.973521e-06
30	0x37d5950c	2.5460984e-05
31	0xb8753b54	-5.8467806e-05
32	0xb92daa2c	-0.0001656196
33	0x3882144c	6.202664e-05
34	0xb76cf765	-1.4124297e-05
35	0x39ccc10a	0.00039053737
36	0xb85af281	-5.22011e-05
37	0x37d3559a	2.5193021e-05
38	0x37e1cbc8	2.6916983e-05
39	0xb7234e98	-9.733856e-06
40	0x3753b474	1.2618595e-05
41	0xb7520f0a	-1.2520477e-05
42	0xb7b0192c	-2.0992557e-05
43	0xb89537ff	-7.115304e-05
44	0x37fd19f8	3.0172043e-05
45	0xb890e90f	-6.9098656e-05
46	0xb6f7eb3b	-7.388558e-06
47	0xb8254f29	-3.941279e-05
48	0xb7c9623e	-2.4006815e-05
49	0xb8af6b74	-8.364665e-05
50	0xb842d593	-4.645211e-05
51	0xb78ff02c	-1.7158767e-05
52	0x39829d25	0.00024912614
53	0x38a48e76	7.846665e-05
54	0x38bed496	9.099503e-05
55	0x37ccaecc	2.4400091e-05
56	0xb797220e	-1.801646e-05
57	0x385ce0ab	5.2661326e-05
58	0xb881075d	-6.152571e-05
59	0xb798546b	-1.8159122e-05
60	0x375cac6f	1.315317e-05
61	0xb7602d38	-1.3361969e-05
62	0xb890aff4	-6.899229e-05
63	0xb7cf5e84	-2.4720335e-05
64	0xb75857c0	-1.2895034e-05
65	0x38f41a59	0.00011639734
66	0x371038f2	8.5963275e-06
67	0xb7548a2c	-1.2668355e-05
68	0xb70f031f	-8.524191e-06
69	0xb6c1f302	-5.780138e-06
70	0x37dda0ce	2.6420134e-05
71	0xb7c2d9f0	-2.3228087e-05
72	0x389872fb	7.2693416e-05
73	0xb6165840	-2.240311e-06
74	0x374faad8	1.2377939e-05
75	0x38078de5	3.2318658e-05
76	0x387be4b0	6.0056045e-05
77	0x3869d4f3	5.5749853e-05
78	0xb96ab059	-0.00022381674
79	0xb7ece0b4	-2.8238028e-05
80	0x37394376	1.1042566e-05
81	0xb73197f8	-1.0585405e-05
82	0x375f8182	1.3321989e-05
83	0x385d68e3	5.278819e-05
84	0xb8d8d8e6	-0.00010340083
85	0xb80c7f5e	-3.349722e-05
86	0x381931a1	3.6524263e-05
87	0xb83388f3	-4.280447e-05
88	0x365d5289	3.2979608e-06
89	0x38a4f6ce	7.8661e-05
90	0x38d4f45f	0.000101544654
91	0xb95afa81	-0.0002088342
92	0xb7c6816c	-2.3663706e-05
93	0xb7263f0a	-9.9090485e-06
94	0x37d97f62	2.5927733e-05
95	0xb7263082	-9.905665e-06
96	0x38e8b7ce	0.00011096858
97	0xb9113c98	-0.0001385085
98	0xb4e8b600	-4.334579e-07
99	0xb839da14	-4.431054e-05
100	0x382cdf1a	4.1215775e-05
101	0xb7b4d8b5	-2.1558584e-05
102	0xb6861d0c	-3.9968927e-06
103	0xb787a013	-1.6167794e-05
104	0x38181f01	3.62685e-05
105	0x37d82f50	2.5771238e-05
106	0xb700c0f0	-7.674316e-06
107	0x35e7e394	1.7277075e-06
108	0xb7b9c3d1	-2.2144903e-05
109	0xb7484f5c	-1.1939406e-05
110	0x38deeec9	0.00010630262
111	0x39199953	0.00014648335
112	0x379174b4	1.7339691e-05
113	0x39181196	0.00014502401
114	0x37d937e0	2.5894435e-05
115	0x367e0fb0	3.785808e-06
116	0x36b0e6ba	5.272069e-06
117	0x359da7e8	1.1746279e-06
118	0xb7909f2c	-1.7240258e-05
119	0xb7d197a0	-2.4985347e-05
120	0xb6391e76	-2.7584879e-06
121	0x36f26884	7.2243292e-06
122	0xb7157cef	-8.91018e-06
123	0xb8aa2ca9	-8.11455e-05
124	0xb8cbdce2	-9.720937e-05
125	0xb7f91b84	-2.9695926e-05
126	0x37183fb4	9.074738e-06
127	0xb7d27ceb	-2.509212e-05
128	0xb84461c4	-4.6821093e-05
129	0xb7aa521f	-2.030382e-05
130	0xb8d4ddcd	-0.000101502614
131	0x38036184	3.1323652e-05
132	0x386255de	5.396257e-05
133	0xb88ee8e0	-6.814464e-05
134	0x38b65264	8.693783e-05
135	0xb867100f	-5.5089648e-05
136	0x3787ce53	1.6189331e-05
137	0x37d561b6	2.5437079e-05
138	0x38d22eba	0.00010022284
139	0xb7d6e496	-2.5617232e-05
140	0xb5645e80	-8.5074134e-07
141	0xb742bdf2	-1.1607526e-05
142	0xb8a31a9e	-7.7774035e-05
143	0x373fc492	1.1430255e-05
144	0x38760c86	5.8662634e-05
145	0xb6e64965	-6.8630784e-06
146	0xb7b27d26	-2.127753e-05
147	0x37ed58dc	2.829398e-05
148	0xb740b5fb	-1.1486462e-05
149	0x37a76b7c	1.9958003e-05
150	0xb6c284a8	-5.7970938e-06
151	0x381f8bc8	3.8038736e-05
152	0x38e5d20c	0.00010958695
153	0xb924cb57	-0.00015716009
154	0xb87f2b9c	-6.0837352e-05
155	0x3797f83f	1.8116201e-05
156	0x37ca144c	2.4089728e-05
157	0xb85aeaf0	-5.2194053e-05
158	0xb6f05370	-7.162271e-06
159	0x35af92d6	1.3081251e-06
160	0x388d54f5	6.7392284e-05
161	0x389dbfa0	7.522036e-05
162	0xb73d002a	-1.1265316e-05
163	0xb843b3a0	-4.665891e-05
164	0x384eeb16	4.9333168e-05
165	0x37b447c2	2.1491087e-05
166	0x384bf73a	4.862922e-05
167	0xb8d7d26e	-0.000102911945
168	0x346fc680	2.2330823e-07
169	0x381312fa	3.5065204e-05
170	0xb7ec34bc	-2.8157949e-05
171	0x386fffd4	5.72203e-05
172	0xb9468e34	-0.00018935726
173	0xb90112ea	-0.00012309445
174	0x37901781	1.7177083e-05
175	0xb8016b60	-3.0855997e-05
176	0x381823fc	3.6273137e-05
177	0xb84f124a	-4.936968e-05
178	0xb7cfa5f4	-2.47536e-05
179	0xb830d55e	-4.2160384e-05
180	0xb908d1d1	-0.00013048133
181	0xb7c7ccc2	-2.3817996e-05
182	0x38cd355d	9.7851014e-05
183	0xb78ea068	-1.7002414e-05
184	0x37fbd298	3.0019597e-05
185	0x381e80e8	3.779019e-05
186	0xb826db2c	-3.9781604e-05
187	0xb623d2f2	-2.441168e-06
188	0xb7a0b231	-1.9156463e-05
189	0xb983358b	-0.0002502616
190	0x34407280	1.7923048e-07
191	0x37f81560	2.9573857e-05
192	0x38e7c6d4	0.00011051973
193	0x39538fc0	0.00020176079
194	0x37296d38	1.0098614e-05
195	0xb74ac4c4	-1.2085951e-05
196	0x39fc34c9	0.00048104514
197	0xb7b32eac	-2.1360196e-05
198	0x38f220b7	0.00011545553
199	0x37adfffe	2.0742413e-05

weight f4 [200]
0	0x3f71511d	0.94264394
1	0x3f6d9a0a	0.9281317
2	0x3f754942	0.9581491
3	0x3f3a886b	0.7286441
4	0x3f7778d6	0.96668756
5	0x3f5c005f	0.85938066
6	0x3f5b83cd	0.8574799
7	0x3f760845	0.9610637
8	0x3f6077ab	0.876826
9	0x3f666cf3	0.90009993
10	0x3f5ba022	0.8579122
11	0x3f66a9df	0.9010295
12	0x3f700950	0.9376421
13	0x3f861aff	1.0476989
14	0x3f71ac05	0.94403106
15	0x3f70643f	0.93902963
16	0x3f696753	0.91173285
17	0x3f693ff9	0.9111324
18	0x3f73c262	0.9521848
19	0x3f804179	1.0019981
20	0x3f702401	0.9380494
21	0x3f5d590b	0.86463994
22	0x3f4eb3b2	0.80742943
23	0x3f6a4896	0.9151701
24	0x3f740625	0.95321876
25	0x3f6862bd	0.9077566
26	0x3f7bab7e	0.9830855
27	0x3f6b569a	0.9192902
28	0x3f5b994c	0.8578079
29	0x3f5f2a3c	0.8717382
30	0x3f696b46	0.9117931
31	0x3f6dcee8	0.9289384
32	0x3f7b477d	0.9815596
33	0x3f6f70aa	0.93531287
34	0x3f3d1d41	0.7387276
35	0x3f786f5a	0.9704491
36	0x3f5af141	0.85524374
37	0x3f6b45d6	0.91903436
38	0x3f7efb85	0.9960254
39	0x3f669676	0.90073335
40	0x3f57b549	0.84260994
41	0x3f73bfa5	0.952143
42	0x3f563a06	0.83682287
43	0x3f72fd8c	0.9491813
44	0x3f4c1a50	0.7972765
45	0x3f6c4aca	0.9230162
46	0x3f4994f8	0.78742933
47	0x3f6def46	0.9294323
48	0x3f65ea09	0.89810234
49	0x3f747b2c	0.95500445
50	0x3f636e00	0.8883972
51	0x3f4aea7a	0.7926403
52	0x3f6c4090	0.92286015
53	0x3f641884	0.8909991
54	0x3f80f1dc	1.007381
55	0x3f6fd1b2	0.93679345
56	0x3f5e6fe3	0.86889476
57	0x3f66bbc9	0.9013029
58	0x3f60ad7d	0.8776472
59	0x3f6ffb18	0.93742514
60	0x3f4999aa	0.787501
61	0x3f5b5d03	0.856888
62	0x3f6c1505	0.92219573
63	0x3f78f3f1	0.97247225
64	0x3f4a6e0c	0.7907417
65	0x3f7432cb	0.95390004
66	0x3f51cc73	0.8195259
67	0x3f6fd8ab	0.93689984
68	0x3f706422	0.9390279
69	0x3f699d5a	0.91255724
70	0x3f691d1c	0.9106004
71	0x3f7a55cc	0.97787166
72	0x3f7c568d	0.98569566
73	0x3f68e661	0.9097653
74	0x3f729aa3	0.94767207
75	0x3f4e9e02	0.8070985
76	0x3f72689f	0.9469089
77	0x3f5e172f	0.86754125
78	0x3f799e0c	0.97506785
79	0x3f59b044	0.85034585
80	0x3f68311b	0.9069993
81	0x3f6765fd	0.90389997
82	0x3f715fe7	0.9428696
83	0x3f613dbf	0.8798484
84	0x3f6e530c	0.9309547
85	0x3f5cf5c1	0.8631249
86	0x3f77333b	0.96562546
87	0x3f779784	0.9671557
88	0x3f62dc5e	0.88617504
89	0x3f6d49ba	0.9269062
90	0x3f734c4f	0.9503831
91	0x3f8de120	1.1084328
92	0x3f6eb289	0.93241173
93	0x3f77d5c8	0.9681058
94	0x3f5e7c51	0.8690844
95	0x3f6b03cf	0.91802686
96	0x3f70832a	0.9395014
97	0x3f6d51f3	0.9270317
98	0x3f69f777	0.91393226
99	0x3f76d3d1	0.96416956
100	0x3f73cd43	0.9523508
101	0x3f7073a2	0.9392644
102	0x3f2864b3	0.65778655
103	0x3f67b074	0.9050362
104	0x3f799bf6	0.975036
105	0x3f6d8efb	0.92796296
106	0x3f791e71	0.97312075
107	0x3f418283	0.7558977
108	0x3f6abc06	0.9169315
109	0x3f6ae30a	0.91752684
110	0x3f6b1c47	0.9184002
111	0x3f684f2f	0.90745825
112	0x3f693d1c	0.9110887
113	0x3f6d2a6b	0.9264285
114	0x3f43ca83	0.76480883
115	0x3f5f62df	0.8726024
116	0x3f6346fd	0.88780195
117	0x3f84f058	1.0385847
118	0x3f730a0f	0.94937223
119	0x3f75ae40	0.9596901
120	0x3f417ccd	0.75581056
121	0x3f585f0b	0.84520024
122	0x3f559617	0.83432144
123	0x3f7439f6	0.9540094
124	0x3f759cb7	0.9594225
125	0x3f6780e7	0.90431064
126	0x3f71c29d	0.9443758
127	0x3f713631	0.94223315
128	0x3f73615c	0.95070434
129	0x3f69f7de	0.9139384
130	0x3f7effb8	0.99608946
131	0x3f4c76e4	0.7986891
132	0x3f62b4c6	0.8855709
133	0x3f67970b	0.9046485
134	0x3f6c3b26	0.92277753
135	0x3f8fa489	1.1222087
136	0x3f5e54b0	0.8684797
137	0x3f72b45d	0.9480646
138	0x3f85617b	1.0420374
139	0x3f7024e2	0.9380628
140	0x3f65a9df	0.8971233
141	0x3f71c135	0.94435436
142	0x3f5f2391	0.87163645
143	0x3f6c704a	0.9235884
144	0x3f71a8eb	0.94398373
145	0x3f5036ae	0.81333435
146	0x3f58e8f5	0.84730464
147	0x3f5ac8bc	0.85462546
148	0x3f62eec6	0.8864559
149	0x3f6a8e61	0.916235
150	0x3f53761f	0.82602113
151	0x3f7ab019	0.97924954
152	0x3f7d416b	0.98927945
153	0x3f6b5386	0.9192432
154	0x3f7bb1a0	0.9831791
155	0x3f6b927b	0.92020386
156	0x3f70ab88	0.94011736
157	0x3f6bd4b0	0.9212141
158	0x3f74124b	0.9534041
159	0x3f560ecb	0.8361632
160	0x3f7fdc8a	0.9994589
161	0x3f6a4ae1	0.91520506
162	0x3f431dfa	0.76217616
163	0x3f5a58e3	0.8529188
164	0x3f6d5119	0.9270187
165	0x3f6a7db3	0.9159805
166	0x3f69d788	0.913445
167	0x3f71f049	0.9450727
168	0x3f5dbee3	0.86619395
169	0x3f72a715	0.94786197
170	0x3f6e9037	0.93188804
171	0x3f623d7a	0.88375056
172	0x3f70b548	0.94026613
173	0x3f6b7eca	0.9199034
174	0x3f7c5591	0.98568064
175	0x3f708414	0.93951535
176	0x3f8ad74d	1.0846955
177	0x3f70901b	0.9396989
178	0x3f5be243	0.85892123
179	0x3f7148fe	0.94252
180	0x3f87af62	1.0600398
181	0x3f629d7d	0.8852156
182	0x3f677b92	0.9042293
183	0x3f5daeb1	0.8659468
184	0x3f665c91	0.89984995
185	0x3f4d237e	0.8013228
186	0x3f5ba64b	0.8580062
187	0x3f60d961	0.87831694
188	0x3f71ef25	0.9450553
189	0x3f651cf1	0.89497286
190	0x3f68d5e9	0.909514
191	0x3f73f0ad	0.9528912
192	0x3f5cc49e	0.86237514
193	0x3f72147a	0.94562495
194	0x3f744db6	0.9543108
195	0x3f6f2bfe	0.934265
196	0x3f714c72	0.9425727
197	0x3f5f5df8	0.8725276
198	0x3f7642fa	0.9619595
199	0x3f4f3c6e	0.80951583

bias f4 [200]
0	0x3d238de8	0.039930254
1	0xbdd84034	-0.10559121
2	0xbe15b628	-0.14620268
3	0xbde98418	-0.11402148
4	0x3dc0d9d3	0.09416547
5	0xbeb27723	-0.3485652
6	0xbdd2068a	-0.102551535
7	0x3db30b35	0.08742372
8	0x3da5972a	0.08085473
9	0x3de7eee1	0.113248594
10	0xbd480cea	-0.04884044
11	0xbdea5498	-0.11441916
12	0x3e0d826f	0.13819288
13	0xbec351be	-0.38148302
14	0x3d265f12	0.04061801
15	0x3db64f97	0.08901899
16	0xbe83d2e9	-0.2574685
17	0xbcdd6a34	-0.02702818
18	0xbea46854	-0.32110846
19	0x3e2a67a5	0.166411
20	0xbc97f5af	-0.018549768
21	0xbd8aaee5	-0.0677164
22	0xbdf4d437	-0.11954539
23	0x3e157a39	0.14597405
24	0x3e21778a	0.15768257
25	0xbe55d1b7	-0.20880781
26	0xbdc171c0	-0.09445524
27	0x3d7fb7b2	0.062431045
28	0xbd8dc1f4	-0.06921759
29	0xbbe20792	-0.006897875
30	0xbe96587c	-0.29364383
31	0xbd18f635	-0.037344176
32	0xbda6c90e	-0.08143817
33	0xbe0dfa6b	-0.13865058
34	0xbd8075b8	-0.06272453
35	0x3e8afe69	0.27147225
36	0xbe41bac3	-0.189189
37	0xbdedf658	-0.11619252
38	0x3e35291f	0.17691468
39	0xbe353a03	-0.17697911
40	0xbdaaa7f5	-0.083328165
41	0x3df2461f	0.11829781
42	0xbc85bf92	-0.0163267
43	0x3d961ceb	0.073297344
44	0xbde85a93	-0.11345401
45	0x3df8252b	0.12116464
46	0xbd5f06ae	-0.05444973
47	0xbebd602f	-0.36987445
48	0xbe55d7bf	-0.20883082
49	0x3d8d6613	0.06904235
50	0xbcbdf2b6	-0.023187023
51	0x3d87ae4f	0.066250436
52	0xbe13a63b	-0.1441888
53	0xbddccea4	-0.10781601
54	0x3dc67899	0.09690971
55	0x3d9205a0	0.07129979
56	0xbe8cbadc	-0.27486312
57	0xbd82e515	-0.0639135
58	0xbe3a6d76	-0.18205819
59	0x3d4a3d4b	0.04937486
60	0xbdaa05d3	-0.08301892
61	0xbea9d41c	-0.3316964
62	0x3dd305a8	0.10303813
63	0xbdda7433	-0.106666945
64	0xbb6d94e4	-0.0036252076
65	0x3da29c5f	0.07939982
66	0xbe8a197a	-0.26972562
67	0x3dc2a253	0.09503617
68	0x3dd72e0a	0.10506828
69	0x3c9ca149	0.019119876
70	0xbe56b49d	-0.20967336
71	0xbddd696e	-0.10811125
72	0xbd9092cb	-0.070592485
73	0xbdc4f6b2	-0.09617366
74	0x3df82c65	0.121178426
75	0x3be7c358	0.0070728473
76	0x3e20181d	0.15634198
77	0x3d8faa69	0.07014925
78	0x3d081e6b	0.033232134
79	0xbead65ab	-0.3386663
80	0x3d6e35d6	0.05815681
81	0xbe75ce81	-0.24004556
82	0x3de436f2	0.111432925
83	0xbea871b4	-0.3289925
84	0xbe316a08	-0.17325604
85	0x3df86ceb	0.121301495
86	0xbde5ba30	-0.11217153
87	0x3e0c967f	0.13729285
88	0xbe655fdc	-0.22399849
89	0x3e0c1555	0.13680013
90	0xbc26717a	-0.010158891
91	0x3da4f43f	0.08054399
92	0x3e18eb0b	0.14933412
93	0x3e1ebf58	0.1550268
94	0x3dd1f501	0.10251809
95	0x3d76dea3	0.060270917
96	0x3d3ffb37	0.046870437
97	0xbd032302	-0.032015808
98	0x3e19ce5e	0.15020129
99	0x3d2619bf	0.040551897
100	0x3db11ac6	0.08647685
101	0xbde8c90b	-0.11366471
102	0xbe58312f	-0.21112512
103	0xbe465e57	-0.19371925
104	0xbddb0cb9	-0.10695786
105	0xbd76db5b	-0.060267787
106	0xbde86907	-0.113481574
107	0xbd7539d3	-0.0598696
108	0x3e14ad13	0.14519148
109	0xbe9ec005	-0.31005874
110	0xbde26e8b	-0.11056241
111	0xbdc9a15d	-0.09845231
112	0xbe14e3c4	-0.1454001
113	0x3d93d90c	0.07219133
114	0xbe57aec4	-0.21062762
115	0xbe8661ea	-0.26246578
116	0xbe2094cd	-0.15681763
117	0x3d296519	0.04135618
118	0xbda62fd0	-0.08114588
119	0x3d965b9d	0.073416926
120	0xbe4c9dac	-0.19982022
121	0x3d8fad29	0.070154496
122	0xbe4f3ab4	-0.20237237
123	0xbc1d683c	-0.009607371
124	0x3ce53d44	0.027983315
125	0x3df7ec8e	0.12105666
126	0x3e17f27e	0.14838597
127	0xbdb77a2a	-0.08958848
128	0x3e19b0a0	0.15008783
129	0xbe544575	-0.20729621
130	0x3dc19b06	0.094533965
131	0x3b918125	0.004440444
132	0xbe8acaae	-0.27107757
133	0x3e0a97cd	0.1353447
134	0x3c8fee46	0.017569672
135	0x3e9e760d	0.3094944
136	0x3d833911	0.06407369
137	0x3dedbc9e	0.116082415
138	0xbd039948	-0.032128602
139	0x3d15e2a4	0.036593094
140	0xbd7cc650	-0.061712563
141	0x3e2ce9f5	0.16886123
142	0xbccd20cb	-0.025040051
143	0xbb910100	-0.004425168
144	0x3e2deec7	0.16985618
145	0xbe06c01d	-0.13159223
146	0xbdd33ace	-0.103139505
147	0xbe0a419e	-0.13501593
148	0x3cd4d7dc	0.025981836
149	0x3e10b89d	0.14132924
150	0xbe8b8187	-0.2724726
151	0xbdc8c629	-0.09803421
152	0xbdc055dc	-0.093913764
153	0x3e238b93	0.15971212
154	0xbdcf3d4c	-0.10119113
155	0x3d595d49	0.05306748
156	0xbe99788f	-0.2997479
157	0xbe3eecff	-0.18645094
158	0xbe236cb1	-0.15959431
159	0xbdd0ba0e	-0.10191737
160	0xbd3a66d3	-0.045508217
161	0xbd0a8cbe	-0.03382563
162	0xbd11ecb8	-0.035626143
163	0xbd9c3da4	-0.076289445
164	0x3de83109	0.11337478
165	0xbd8343c9	-0.06409413
166	0x3dfe3c3e	0.12413834
167	0xbdcac288	-0.09900385
168	0xbea8d0ef	-0.32971904
169	0xbdcb874e	-0.09937917
170	0x3dbf3fd7	0.09338348
171	0x3c916379	0.017747628
172	0x3cc3f1e6	0.023919057
173	0x3dd275db	0.102763854
174	0x3e6fc9d3	0.23416834
175	0x3dd5da9b	0.10442086
176	0xbccec2c0	-0.025239348
177	0x3d6f7181	0.058457855
178	0xbd1723a3	-0.03689922
179	0xbd9973b7	-0.07492774
180	0xbcfb5c3a	-0.030683625
181	0x3e20dea2	0.15709928
182	0xbe8992bf	-0.2686977
183	0xbc1795d9	-0.009252035
184	0xbe440b88	-0.19145024
185	0xbe554bc8	-0.2082969
186	0xbe15861c	-0.1460194
187	0x3c502d18	0.012706064
188	0x3da38790	0.07984841
189	0x3d91c286	0.071171805
190	0xbe343390	-0.17597795
191	0xbe0846c5	-0.13308246
192	0xbe198e1a	-0.14995614
193	0xbe0830d2	-0.13299873
194	0x3dc64fe6	0.09683208
195	0xbdb78088	-0.08960062
196	0x3d848a7c	0.06471726
197	0x3ba28922	0.004960195
198	0x3de956d9	0.11393518
199	0xbeacebae	-0.3377356

running_mean f4 [200]
0	0x4072975b	3.790488
1	0xc0dfe617	-6.996837
2	0x3fd878b8	1.691184
3	0xc11985be	-9.595152
4	0x3f825bed	1.0184304
5	0xbeed20cb	-0.46314082
6	0x40d57555	6.6705728
7	0x3f0a9959	0.5414024
8	0xbfd6acab	-1.6771444
9	0x3f45f530	0.7732725
10	0x3ed64cd1	0.4185548
11	0xbf5c2ade	-0.8600291
12	0xbfb56f7c	-1.4174647
13	0x3f433d1e	0.7626513
14	0x4082f117	4.09193
15	0x3f9c0a73	1.2190689
16	0xbf9e7319	-1.2378875
17	0x40aca5c5	5.3952355
18	0x3f6b1d73	0.9184181
19	0xbda812ba	-0.08206697
20	0xbf52ddf7	-0.8236994
21	0x3fddec24	1.7337689
22	0xbf77229a	-0.9653717
23	0xbfe5e06d	-1.7959114
24	0xc03d0d7d	-2.9539483
25	0xc0e3b5af	-7.115928
26	0xbf81c250	-1.0137424
27	0xbf2eb2d4	-0.6824162
28	0xc0d09fa4	-6.5194874
29	0xc06eea29	-3.733042
30	0xbf2238f6	-0.63368165
31	0xc0caf857	-6.342815
32	0x408102b1	4.0315785
33	0x40429a68	3.0406742
34	0xbeea3306	-0.45742053
35	0xc04acfdb	-3.1689365
36	0x3f8c59a4	1.0964856
37	0xbf9a20ad	-1.2041222
38	0xc115a30d	-9.352307
39	0xbf83e54b	-1.030435
40	0x4066edf3	3.6082733
41	0xc071c376	-3.777555
42	0xbec600c3	-0.38672456
43	0x3fe441ba	1.7832558
44	0x3fee7be6	1.8631561
45	0xbf6f4cf3	-0.9347679
46	0xbf5f56a1	-0.8724156
47	0x4011fc40	2.281021
48	0xc0385e7c	-2.8807669
49	0x4027d132	2.6221433
50	0x3f41ea14	0.757478
51	0x3d2707dc	0.04077898
52	0x40897b5c	4.2963085
53	0x40bfa141	5.9884343
54	0xc0631280	-3.5480042
55	0x3fffd18c	1.9985824
56	0xc028352e	-2.6282458
57	0xc084175c	-4.1278515
58	0xc0cd16bf	-6.4090266
59	0x4063c29f	3.5587537
60	0xbe4ea665	-0.20180662
61	0xbf5f2747	-0.8716931
62	0xbf917a1c	-1.136539
63	0x40cc7539	6.3893094
64	0xc1032aab	-8.197917
65	0x4045e6a9	3.0922034
66	0x40482d36	3.1277595
67	0xbf1f5a6e	-0.6224736
68	0xbf1166ab	-0.56797284
69	0x3fe78004	1.8085942
70	0xc100b76d	-8.044782
71	0x4012be92	2.2928815
72	0x3f3d963f	0.7405738
73	0x40597c20	3.398201
74	0xc0e6fba4	-7.218218
75	0xbe0c492d	-0.1369979
76	0xc0476f93	-3.116185
77	0xc09bb14e	-4.8653936
78	0x3f8c9c75	1.0985247
79	0xc00e2190	-2.2207985
80	0xbee2c43c	-0.4429034
81	0xbf599ece	-0.8500794
82	0xc097868d	-4.7351747
83	0xbdf035b4	-0.11728993
84	0xc0aafc5c	-5.3433056
85	0xbe71982d	-0.23593207
86	0xbfd8b1a9	-1.6929218
87	0xbfb0641c	-1.3780551
88	0xc0c3564e	-6.1042852
89	0xbf7cfb38	-0.9882083
90	0xbf9c1c6e	-1.2196176
91	0x3dfa8d66	0.12234001
92	0xc040cf9d	-3.0126717
93	0xc026b0de	-2.604545
94	0xc031aad9	-2.7760527
95	0x402111ea	2.5167184
96	0x40a72432	5.2231684
97	0x3f80a01c	1.0048862
98	0xc0846bb1	-4.138146
99	0xc11269b6	-9.150808
100	0x3f00849f	0.50202364
101	0xc069d336	-3.6535163
102	0xbf3598c8	-0.7093625
103	0xbfa6e5d0	-1.3038883
104	0x4088667c	4.2625103
105	0xc081edbc	-4.0602703
106	0x3fd7900e	1.6840837
107	0xc039dd19	-2.9041197
108	0xc0a92f0e	-5.286994
109	0x3ff283a2	1.8946421
110	0xbf405504	-0.75129724
111	0x40b1751b	5.545545
112	0xbfa62d95	-1.298266
113	0xc02fb7e5	-2.745599
114	0x3e5afea3	0.21386199
115	0xc082d2c3	-4.0882277
116	0x40d6018f	6.6876903
117	0xc0186544	-2.3811808
118	0x40b988b2	5.7979364
119	0x403b1733	2.923291
120	0x408e04c0	4.43808
121	0xbee0b930	-0.43891287
122	0xc09d7968	-4.92107
123	0xc052285c	-3.2837133
124	0x4090fd3a	4.5309114
125	0x3eec893e	0.46198457
126	0x3fa3217f	1.2744597
127	0xbf84ba28	-1.036931
128	0xc025eeba	-2.5926957
129	0xc0df8ce1	-6.985947
130	0x3f9eec6a	1.2415898
131	0xc0342d74	-2.8152742
132	0xbf6431f9	-0.8913875
133	0x3f4ab7d1	0.7918673
134	0x4041ba14	3.0269823
135	0xbf8e3f25	-1.111302
136	0x3f2295fd	0.63510114
137	0xbf9257fd	-1.1433102
138	0x3f7d3cd7	0.9892096
139	0x40772433	3.8615844
140	0x40997a41	4.7961736
141	0xc027adc4	-2.6199808
142	0xc045cb70	-3.0905418
143	0x4065a306	3.5880752
144	0xc021e439	-2.5295546
145	0x4011ca7e	2.2779841
146	0x40163370	2.3468895
147	0xc032b98d	-2.7925751
148	0xc09ef5ca	-4.9675035
149	0x3edd4e99	0.43224028
150	0xbfdfd391	-1.748644
151	0xc0698f02	-3.6493535
152	0xbfe98e14	-1.8246484
153	0x3faae016	1.3349636
154	0x3eddaafa	0.43294507
155	0xc01d6c67	-2.4597414
156	0x3fe6b814	1.8024926
157	0xc0e1f9dd	-7.061751
158	0xc04c7cb1	-3.1951106
159	0xbf742218	-0.9536452
160	0x409f55cc	4.9792233
161	0x3facee6a	1.3510258
162	0xbf32b4bd	-0.69807035
163	0xbf033d3f	-0.5126533
164	0xc09fe5a8	-4.996784
165	0xbf56ead4	-0.8395207
166	0xbfd96382	-1.6983492
167	0x407999df	3.9000165
168	0xbfab3dd8	-1.3378248
169	0x40e0b05a	7.0215273
170	0x3fda05cf	1.7033023
171	0x3f160280	0.58597565
172	0x408347ca	4.1025133
173	0x3f3ab1ee	0.7292775
174	0xc0abeece	-5.372901
175	0xc008490a	-2.129458
176	0x4001a7a9	2.0258582
177	0x4035a525	2.8382046
178	0xbe71833f	-0.23585223
179	0xc03cda10	-2.9508095
180	0xc0242068	-2.564478
181	0xc0c0118c	-6.002142
182	0xc0695a83	-3.6461494
183	0x3f62af2a	0.8854853
184	0x408204ac	4.0630703
185	0x404d5536	3.2083259
186	0xc07d216a	-3.9551644
187	0xc104415f	-8.26596
188	0xbf49b144	-0.7878611
189	0xc0a061b0	-5.0119247
190	0xbf217300	-0.630661
191	0x3ff08288	1.8789835
192	0xc0297de6	-2.6483092
193	0x404963c3	3.146714
194	0x3fe800f8	1.8125296
195	0xc008a0b5	-2.1348088
196	0xbf362fdf	-0.71166795
197	0x3e140919	0.14456595
198	0xbfbbd3c0	-1.4673996
199	0x3ee2ce36	0.4429795

running_var f4 [200]
0	0x4302b6a3	130.71342
1	0x43040cf8	132.05066
2	0x42dc6768	110.201965
3	0x41cf4dd0	25.912994
4	0x42c3b27a	97.84859
5	0x428aa46b	69.32113
6	0x42c44b88	98.14752
7	0x42db9a7d	109.801735
8	0x42692424	58.285294
9	0x41eb8011	29.437532
10	0x42a34c6e	81.64928
11	0x41c578a0	24.683899
12	0x42cf74d9	103.72822
13	0x41ef0a2b	29.879965
14	0x433e4e2f	190.3054
15	0x42d66c57	107.2116
16	0x42110bef	36.261654
17	0x43058357	133.51305
18	0x41f3081d	30.378962
19	0x41fb455b	31.408865
20	0x4193e6c4	18.487679
21	0x43158280	149.50977
22	0x4180d89d	16.105768
23	0x42b2d0e6	89.408005
24	0x430066d6	128.4017
25	0x431f08d7	159.03453
26	0x427e82c8	63.627716
27	0x423faafe	47.916985
28	0x428b945b	69.78976
29	0x428534b4	66.602936
30	0x426d2f01	59.295902
31	0x42b2a6d6	89.32585
32	0x42735266	60.830467
33	0x4266a16e	57.657646
34	0x41210297	10.063132
35	0x41844021	16.531313
36	0x4234bcd3	45.1844
37	0x427e3a17	63.55673
38	0x41766f52	15.402178
39	0x419a496a	19.285847
40	0x427a57af	62.58563
41	0x42eb0d11	117.52552
42	0x420bbebb	34.93626
43	0x42ae973d	87.29539
44	0x42722d2c	60.544113
45	0x42b1ab9f	88.8352
46	0x4215c75b	37.444683
47	0x425ef447	55.738552
48	0x422333ee	40.800713
49	0x4300f195	128.94368
50	0x4291067e	72.51268
51	0x41fad53d	31.35412
52	0x41146144	9.2737465
53	0x41dc7bc6	27.560436
54	0x4207448c	33.81694
55	0x42e485ca	114.26131
56	0x42af4542	87.63527
57	0x4235f46d	45.488697
58	0x42df7b13	111.74038
59	0x4317910f	151.56664
60	0x4187e2dd	16.985773
61	0x42a2c458	81.383484
62	0x42e9de92	116.93471
63	0x42f7e5d2	123.94887
64	0x41680451	14.501054
65	0x433c2ba1	188.17043
66	0x42256e92	41.35798
67	0x42ac3ceb	86.11898
68	0x42d986a4	108.76297
69	0x4203e4f9	32.973606
70	0x434b5177	203.31822
71	0x433efbcd	190.9836
72	0x430320fa	131.12881
73	0x42c30490	97.50891
74	0x423e6790	47.601135
75	0x414fd1a9	12.988687
76	0x43177946	151.47372
77	0x422576dc	41.366074
78	0x41885749	17.04262
79	0x42d83d49	108.1197
80	0x4287548c	67.66513
81	0x422ac997	42.696865
82	0x432ab65a	170.71231
83	0x421a8894	38.633377
84	0x42bb5f51	93.686165
85	0x420a9476	34.64498
86	0x42cd15d7	102.542656
87	0x42dba698	109.82538
88	0x43099847	137.59483
89	0x42bc8229	94.25422
90	0x41673a07	14.451667
91	0x417be590	15.743546
92	0x431cc1cb	156.757
93	0x42cc8311	102.25599
94	0x42dc96c1	110.29444
95	0x431ab84b	154.7199
96	0x430de00f	141.87523
97	0x414a3118	12.636986
98	0x430779a3	135.47514
99	0x41bbda5d	23.481623
100	0x41cb0c31	25.380953
101	0x42251915	41.274494
102	0x42028df6	32.638634
103	0x41acbe15	21.592813
104	0x42b37683	89.73147
105	0x4100c3d9	8.047814
106	0x42a23570	81.10437
107	0x42414246	48.31472
108	0x42edc425	118.883095
109	0x4177bbbd	15.483335
110	0x42a0c4ed	80.38462
111	0x43186afb	152.4179
112	0x418e412d	17.781824
113	0x4107cb44	8.487125
114	0x42a472a3	82.2239
115	0x42f126e2	120.57594
116	0x42e0771c	112.232635
117	0x41715b81	15.08484
118	0x426e607d	59.594227
119	0x4301348a	129.20523
120	0x431e051d	158.01997
121	0x423699f4	45.650345
122	0x4295c70d	74.88877
123	0x42757338	61.36252
124	0x42bb56fd	93.6699
125	0x42509f57	52.155605
126	0x41399777	11.599479
127	0x41b82791	23.01932
128	0x42ea02d7	117.00555
129	0x433f43f4	191.26544
130	0x4166ad44	14.417301
131	0x4170f0c7	15.058784
132	0x427fb36f	63.92523
133	0x41b2a480	22.330322
134	0x42e51f26	114.56084
135	0x41b34321	22.407778
136	0x421f954b	39.895794
137	0x43036b27	131.41856
138	0x417baff4	15.730457
139	0x43133056	147.18881
140	0x425bc7e3	54.9452
141	0x42d33404	105.60159
142	0x41a313f0	20.384735
143	0x43204376	160.26352
144	0x42fb313e	125.596176
145	0x4211c8ac	36.44597
146	0x42cae58f	101.44836
147	0x4161a2fe	14.102293
148	0x42a8811b	84.25216
149	0x428ff25f	71.97338
150	0x422f9c2f	43.902523
151	0x428b32ee	69.59947
152	0x4234c7d9	45.195164
153	0x421fc8d1	39.94611
154	0x42d7574d	107.67051
155	0x42bda025	94.81278
156	0x41af03e1	21.876894
157	0x432827ed	168.15596
158	0x421cc83c	39.19554
159	0x419add2b	19.357992
160	0x40b48a9f	5.6419215
161	0x421e5538	39.58322
162	0x41a95bd0	21.16983
163	0x4132c9c0	11.174255
164	0x4253b386	52.925316
165	0x42f053f9	120.16401
166	0x4244552e	49.083183
167	0x428923f4	68.57022
168	0x42e2d387	113.41314
169	0x42478e6e	49.88909
170	0x420c9a1b	35.150494
171	0x42fc9bce	126.304306
172	0x42f85a97	124.17693
173	0x41e3f91c	28.496635
174	0x41e59520	28.697815
175	0x42cf98da	103.79854
176	0x417c57f3	15.771472
177	0x430488a7	132.5338
178	0x4256fbba	53.745827
179	0x42e59896	114.79802
180	0x41716e6e	15.08946
181	0x4254421a	53.064552
182	0x42fc4ca5	126.1497
183	0x4259186b	54.273846
184	0x42967fbd	75.24949
185	0x42cbdd90	101.93274
186	0x41bf440a	23.908222
187	0x41ee8d3e	29.818966
188	0x4242cee9	48.70206
189	0x410eb67c	8.919552
190	0x41937221	18.430727
191	0x42d39b6e	105.80357
192	0x415d6bd5	13.838826
193	0x42a668b3	83.20449
194	0x42f6faeb	123.490074
195	0x41eab301	29.337404
196	0x410cdb39	8.803521
197	0x42ba52fe	93.162094
198	0x4280e366	64.44414
199	0x4205f578	33.489716
