experiments/synthetic_data/model_synthetic.pth (torch, 819182 bytes, 27 tensors)

weight f4 [10, 1, 10]
000000 1b 39 5c 3c af f1 2c 3e 2a fe e9 3c b9 d9 22 3c
       0.013441349 0.1688907 0.028563578 0.009939604
000010 c1 69 bf 3d 25 46 d3 bd a4 fc 4b be e7 63 1b 3e
       0.09346343 -0.103161134 -0.19920594 0.15174828
000020 d3 f3 24 be 7e a3 3e be 9b 67 2b 3e b7 44 95 3e
       -0.16108637 -0.18617055 0.16738741 0.29153988
000030 a3 24 00 bc 61 55 d0 bd 62 0f 1d bd 85 cd 0f be
       -0.007821235 -0.10172535 -0.03834475 -0.14043243
000040 b7 27 81 bd 36 85 55 3e c5 c7 e2 bd 78 12 8d 3c
       -0.06306403 0.20851597 -0.11073259 0.01722072
000050 ae b8 bc be c3 e2 a0 be 2d eb a3 3d 59 0a b8 3c
       -0.3685965 -0.31423005 0.080038406 0.022465872
000060 3d be bf be d8 ba 88 be f9 c4 75 bc bf 7f ff bc
       -0.37449828 -0.2670505 -0.015000575 -0.031188844
000070 ab 64 ed bd 6f 6f b4 bd 63 3d 12 3e 8b 18 04 3e
       -0.115914665 -0.08810317 0.1428123 0.12899987
000080 50 68 0d 3e 4e 42 0d 3e 1d c9 1c 3e 02 fc 12 3e
       0.13809323 0.13794824 0.15311094 0.14353946
000090 79 16 10 3e 9e 88 eb 3d 68 75 3b 3e 31 ba e5 3d
       0.14071073 0.11500667 0.18306506 0.11217154
0000a0 d6 03 4a be df 9e 4a be 19 50 93 3d 6a aa 2e 3d
       -0.19728026 -0.19787167 0.07193012 0.04264299
0000b0 a7 14 4f be 9b 78 7e be 72 a0 66 3b e8 80 c8 bd
       -0.20222722 -0.24850695 0.0035190848 -0.09790212
0000c0 73 e2 ee bd b0 2a 1e be 82 a2 62 be 0b ec 3e be
       -0.116642855 -0.15445971 -0.22132304 -0.18644731
0000d0 fe aa 5e be 95 f0 e7 3d 94 1a 4c 3d 3b d6 8c bd
       -0.21744916 0.11325184 0.049830034 -0.06876799
0000e0 a0 54 9a 3d a1 58 04 3d f1 4b 2f 3e 9d 16 0f 3e
       0.07535672 0.032311086 0.17118813 0.1397347
0000f0 72 fa 36 3e 3e 77 f1 3d 7d c0 27 be 54 e1 29 3e
       0.17868975 0.11790322 -0.16382022 0.16589862
000100 d7 89 cf bc 32 39 62 bd 94 00 45 3e ff cd 06 be
       -0.025334282 -0.055230327 0.19238502 -0.13164519
000110 b5 e3 26 bc 50 60 9b bd 54 63 01 3e 82 e1 d9 3d
       -0.0101861255 -0.075867295 0.12635547 0.10638715
000120 1c 81 eb 3d cd 64 08 3e 9d a7 1b 3e 2e e7 01 3e
       0.11499235 0.13319702 0.15200658 0.12685844
000130 ca 3b 02 3e ff 35 ef 3d 4b 7f 3a 3e 85 7c ed 3d
       0.1271812 0.11680221 0.18212621 0.11596016
000140 82 de 40 be 8e fa 22 be 8c 70 b9 3d 07 27 88 3d
       -0.1883488 -0.15915892 0.0905467 0.06648069
000150 3d 84 dc be 58 08 8d be 23 b0 f5 3c 54 aa 70 bb
       -0.4306964 -0.27545428 0.029991215 -0.0036722617
000160 77 81 41 be ab 28 13 be e5 a6 fa 3c 49 bd bc 3b
       -0.18897043 -0.14370982 0.03059716 0.0057598692
000170 27 f5 c0 be 05 ce bf be 52 f8 26 3d 7a 80 76 3c
       -0.37687036 -0.37461868 0.04076416 0.01504528
000180 73 ce ee be f8 0b 99 be 85 7b d2 bd 73 82 93 bd
       -0.46641883 -0.29891944 -0.10277466 -0.072026156

bias f4 [10]
000000 f9 cc 84 b8 ba ce de 3a aa 75 25 39 07 32 b2 b9
       -6.3324296e-05 0.0016998865 0.0001577946 -0.0003398808
000010 68 18 af b9 11 dd 23 ba 20 81 dd 36 18 39 13 ba
       -0.00033396785 -0.0006250898 6.6013454e-06 -0.00056161126
000020 47 3c 66 3a d8 f1 38 b9
       0.0008782786 -0.00017637701

weight f4 [10]
000000 4a df 0a 3f 93 8b 93 3f ac a3 8f 3f 6f 43 66 3f
       0.5424696 1.152697 1.1221824 0.89946645
000010 14 12 7d 3f eb 4f 24 3f 79 bf 85 3f ea 2d 49 3f
       0.9885571 0.64184445 1.0449058 0.78585684
000020 d1 81 99 3f 8f 71 88 3f
       1.1992742 1.0659655

bias f4 [10]
000000 64 30 94 be 5b d2 c7 3d 48 29 02 be 77 19 1e bd
       -0.2894317 0.09756919 -0.1271106 -0.038598504
000010 6e 10 66 be 93 16 1f be e5 76 bf 3d 31 9f b4 bd
       -0.22467205 -0.15535955 0.09348849 -0.08819426
000020 22 16 6c bc 44 fd 0b be
       -0.014409574 -0.13670832

running_mean f4 [10]
000000 62 f2 9d 3a 70 5b ce ba ef fa 3b 3c 0b e5 29 bc
       0.0012050385 -0.0015743803 0.011473401 -0.0103695495
000010 b0 4d 09 3c 55 89 36 3a 08 e8 31 bb 30 7b 13 bc
       0.008380339 0.0006963213 -0.0027146358 -0.009001538
000020 1f 9b 14 3c 13 48 3d 3c
       0.009070187 0.011552828

running_var f4 [10]
000000 1c a6 a5 3d e3 3b ce 3d 54 cb af 3f d3 ee 93 3f
       0.080883235 0.10070016 1.3733926 1.1557258
000010 0e b8 3f 3f b0 3c a2 3d ce 33 aa 3d 55 b3 80 3f
       0.7489022 0.079217315 0.08310662 1.0054728
000020 21 b5 71 3f 20 fb d2 3f
       0.94417006 1.6482887

weight f4 [10, 10, 9]
000000 46 63 46 be 79 ff d9 3c b2 3b 0b 3e f4 20 13 bd
       -0.19373807 0.026611077 0.1359699 -0.0359201
000010 7c dd 9e 3c d6 45 40 3d a5 23 f2 bd dc ef 99 bd
       0.019392721 0.0469416 -0.11823205 -0.07516453
000020 e2 e4 c0 3b ce 7a 83 3e fe de 0b bc cb 71 d0 bd
       0.00588666 0.2567963 -0.008537052 -0.10177954
000030 90 c4 a4 3d cd a5 74 bd a8 d3 73 3d af 06 6f 3e
       0.08045304 -0.059728432 0.059528023 0.23342393
000040 96 be c6 3c 2d f8 1b be b2 e7 37 be d3 11 56 be
       0.0242608 -0.1523139 -0.17959478 -0.20905237
000050 f0 ee 0e be 87 8e b3 bd c6 8c e8 bd 52 03 0c be
       -0.13958335 -0.08767419 -0.113549754 -0.13673142
000060 5f 19 d3 bd 4c db 2e be f7 ee f7 bd 3e 4e ab 3d
       -0.103075735 -0.17075843 -0.12106126 0.08364533
000070 38 0e c7 3d 14 39 b9 3d 74 cd f1 3d e9 51 8a 3d
       0.09719509 0.0904409 0.11806765 0.06753904
000080 5c 35 a8 3d fb 5c 05 3e d2 63 cf 3d 5b d8 61 3d
       0.082133025 0.1302375 0.10126461 0.055137973
000090 24 63 25 be a4 f5 10 be bf 43 21 be 30 7e aa bd
       -0.161511 -0.14156204 -0.157485 -0.083248496
0000a0 0c e2 25 be cc e2 0f be 1b 88 12 be 54 d5 18 be
       -0.16199511 -0.1405136 -0.14309733 -0.14925128
0000b0 61 63 7d be 9e 9b cf bc 71 11 84 3d 98 c6 d1 3a
       -0.24744941 -0.025342759 0.06448639 0.001600462
0000c0 46 b5 22 3e b2 c5 4e 3d a9 a3 81 3d 3e 57 13 3e
       0.15889463 0.050481506 0.06330044 0.14388749
0000d0 70 1e ae 3d 23 a8 34 3e 6d 68 0f 3e 9e 26 f1 3d
       0.08501899 0.17642264 0.14004679 0.11774944
0000e0 cf aa 56 3e b2 5f 93 3e ad 36 1a bd d3 3b 9f 3e
       0.20963596 0.28783947 -0.0376498 0.3110033
0000f0 1c 7f 61 3e 85 e9 b2 3d 5e 56 a9 3c 89 b0 66 3d
       0.22021145 0.087359466 0.020671066 0.0563207
000100 87 eb d2 3d b2 b5 b5 3d a3 2d a5 3d 12 bd cb 3d
       0.102988295 0.08872546 0.08065345 0.09948172
000110 4f 2e a5 3d 9a 6a b2 3d df 63 a2 3d 66 80 37 3d
       0.08065473 0.08711739 0.07929205 0.044800185
000120 74 29 18 be 00 aa 02 be 85 98 c1 bd 55 36 15 be
       -0.14859563 -0.12760162 -0.09452919 -0.14571507
000130 14 66 c3 bd 02 b2 49 be 53 ee e8 bd c1 d1 52 be
       -0.09540954 -0.19696811 -0.11373582 -0.20587827
000140 40 92 3e be 25 95 50 be 35 d6 45 be f5 f1 d3 bd
       -0.18610477 -0.20369394 -0.19319995 -0.10348884
000150 35 e8 09 be 61 4b 11 be 4f 44 15 be dc 62 1d be
       -0.13467486 -0.14188911 -0.14576839 -0.15369743
000160 68 67 2d be b3 26 77 be 78 4b 91 3d a7 4e 58 3c
       -0.16933978 -0.24135856 0.07094473 0.013202346
000170 a7 02 4c bd 1c 17 27 bd 6b 76 e3 3c 11 b3 97 3c
       -0.049807217 -0.040793523 0.027766427 0.018518003
000180 8a ed a3 bc d8 b7 ae 3d 8c 5d 96 3d 8d 32 17 bc
       -0.020010728 0.08531159 0.073420614 -0.009228361
000190 63 82 5e 3e 19 54 30 3e 8f 07 fd bd 9f 47 ca 3d
       0.21729426 0.1721958 -0.12354957 0.09876942
0001a0 2a 12 ce 3d ab 52 9b 3e 76 b7 4f 3e 04 dd 20 3e
       0.10062058 0.30336508 0.20284829 0.15709311
0001b0 77 37 db 3d 9d a5 64 3e 0d 83 aa be 11 66 43 3e
       0.107039385 0.22328801 -0.3330311 0.19081904
0001c0 5c 43 e6 be 9f 6e 5b 3d 2e 43 80 bd f4 2e 02 bc
       -0.44973266 0.053572293 -0.062628135 -0.007945765
0001d0 ab 28 ee 3d 87 98 ee bd 17 40 89 bd 43 7d fb bc
       0.116288505 -0.11650186 -0.06701677 -0.030699378
0001e0 ac dd 68 bd bb d5 ba bd 67 10 a2 bd b9 36 86 bd
       -0.056852028 -0.09122797 -0.07913285 -0.06553406
0001f0 e6 aa 2d bd 46 10 72 bc 2a b2 fb 3d 69 6b 29 3e
       -0.04239931 -0.014774388 0.122898415 0.1654488
000200 9f 0a 7b be 0b 11 a0 3d 7e 24 80 be 38 8e 10 3d
       -0.2451577 0.07815751 -0.2502784 0.03529188
000210 ce 30 06 3e ea 1b 4a 3d cc cc ef 3d f2 fa c3 3c
       0.13104555 0.049343027 0.11708984 0.023923371
000220 c5 a1 4e 3d a9 6b 4c 3d bc 82 ef 3c 2b 19 b1 3b
       0.050447244 0.04990736 0.029237144 0.0054046116
000230 29 12 13 be 51 95 c4 bd d2 b6 2f 3d 9f 01 39 bb
       -0.14362396 -0.09598792 0.04289896 -0.0028229726
000240 1b 90 2e 3d ea 6d 46 3d 86 18 eb 3d 27 95 98 3c
       0.0426179 0.048444666 0.11479287 0.018625809
000250 67 83 8c 3d f2 0d b2 3d cd 5c 33 3e 73 d6 29 3d
       0.068610005 0.08694066 0.1751587 0.04146428
000260 24 06 c7 3d 8e 1d b1 bd 21 7c 8e bd da 62 5b bd
       0.09717968 -0.08648215 -0.069572695 -0.05356107
000270 27 d8 c1 bd b4 71 9c bd a7 ee ea bc ac 02 47 bd
       -0.09465056 -0.07638875 -0.028678251 -0.048586532
000280 df d4 ba bc 78 d5 7e bd 18 ef 95 bb ec d4 4e 3e
       -0.022806583 -0.0622153 -0.0045756213 0.20198411
000290 63 ed 0e bf 42 bc fe 3d c1 c1 c9 be 13 a6 b5 3b
       -0.55830973 0.12438251 -0.39405635 0.005543479
0002a0 57 67 45 3d c8 64 62 bc d1 8f 41 3e 1f e2 45 3e
       0.048194256 -0.013817973 0.18902518 0.1932454
0002b0 47 05 02 be ff ba 03 3e c0 d3 04 bf 7b 39 be 3c
       -0.12697326 0.12864302 -0.51885605 0.023220768
0002c0 78 1e d1 bd 30 01 88 3d b9 de ac 3d 4c 53 3b 3d
       -0.102108896 0.066408515 0.084409185 0.045733735
0002d0 bc e8 18 bd dc d1 de 3c ce 33 79 bd 5c c4 1c 3d
       -0.037331328 0.027199678 -0.06084042 0.0382732
0002e0 a4 e8 d3 3d 72 ce 5c 3c 73 bf 12 3e a2 74 3e 3e
       0.10347107 0.013476955 0.14330845 0.1859918
0002f0 2b ce 72 3e 3f 20 3f be 8c 9b 05 3e 31 9a 0b 3d
       0.2371146 -0.18664645 0.13047618 0.034082595
000300 d9 09 86 be a5 08 cf 3d 19 43 28 3d b5 70 a6 3d
       -0.26179388 0.10109071 0.041079614 0.08126966
000310 a3 01 6e bc 39 b3 3c bc 68 ff d9 3d bc b7 21 3e
       -0.014526757 -0.011517339 0.10644418 0.15792745
000320 47 3e 1d 3d f9 bc e2 3d d4 c8 c3 3d 63 60 b7 3d
       0.03838947 0.110712 0.09559789 0.08953931
000330 e8 6e c5 3d d4 f9 a8 3d 9f ab cb 3d 07 58 07 be
       0.09640294 0.08250776 0.099448435 -0.13217174
000340 da ac fe bd 43 29 1c be af 1b 39 be 9f fa 39 be
       -0.124353126 -0.15250115 -0.18076967 -0.1816201
000350 50 4f 29 be 27 eb 40 be e3 90 13 be 00 18 b9 bd
       -0.16534162 -0.18839704 -0.14410739 -0.09037781
000360 68 75 b4 3d f7 f1 a2 3d d7 c7 bc 3d 88 58 81 3e
       0.08811456 0.079563074 0.09217804 0.25262856
000370 73 93 55 3e b8 50 1b 3e a7 7d e1 3d fa f4 84 3d
       0.20857029 0.1516751 0.110102944 0.06492038
000380 d8 8b 00 3e 8c 98 59 3e 57 a3 80 3d f1 c0 fd 3d
       0.12553346 0.21249598 0.062811546 0.12390316
000390 4f e1 f7 bb 8a 93 5b 3d 78 ac 0c be 18 51 4d 3e
       -0.0075647007 0.0536075 -0.13737667 0.20050466
0003a0 ca d5 27 3e e2 26 52 3e 17 4f 6d 3e 34 27 d8 bd
       0.16390148 0.20522645 0.23174702 -0.105543524
0003b0 6d d9 16 be 15 9e 1e bd 1a fd 90 bb a1 4e 03 be
       -0.14731379 -0.038724978 -0.0044247033 -0.12822963
0003c0 24 9e 32 bd 34 21 9c 3d c2 1e f2 bc 7b 89 db bd
       -0.043607846 0.076235205 -0.029555682 -0.10719582
0003d0 e0 6f f4 bd 2d b7 2b be b7 09 27 be a0 d6 26 be
       -0.11935401 -0.16769095 -0.163123 -0.1629281
0003e0 cb 88 01 be 88 ea 0a be a7 31 13 be 5e 2f 36 bd
       -0.12649839 -0.13566029 -0.1437441 -0.044478767
0003f0 34 9c 94 3d 9d 42 33 3e a4 ac 2b 3d 93 31 50 3e
       0.07256356 0.1750588 0.04191269 0.20331411

bias f4 [10]
000000 2e 5d 9f b8 09 e6 ee ba 97 7e 4e b9 9e 0c 0f b9
       -7.599067e-05 -0.0018226515 -0.0001969285 -0.00013642243
000010 20 e6 b3 b9 bb 90 f1 b8 80 5c 52 b7 00 95 cc b6
       -0.00034312997 -0.00011518734 -1.2538512e-05 -6.0970197e-06
000020 cb f8 65 b9 a5 c6 25 ba
       -0.00021931824 -0.0006323851

weight f4 [10]
000000 99 73 53 3f 6c f7 a7 3f 0d fa 7c 3f 60 c5 92 3f
       0.82598263 1.3122382 0.9881905 1.1466484
000010 94 3a 16 3f 98 ae 7d 3f 6b fa 5f 3f 76 6c 4e 3f
       0.58683133 0.99094534 0.8749148 0.8063425
000020 a9 97 50 3f 2f 29 2b 3f
       0.81481415 0.66859716

bias f4 [10]
000000 f0 f8 b8 bd 21 f8 5a bb 93 28 27 bd 54 08 9c be
       -0.09031856 -0.0033412057 -0.04081018 -0.30475104
000010 31 cd b8 be 1e df 80 bd 17 e7 bb be a2 02 39 bd
       -0.3609405 -0.06292556 -0.36699745 -0.045168526
000020 f4 a3 cc bd 50 95 5f be
       -0.09992209 -0.21834302

running_mean f4 [10]
000000 d8 54 0c bf e3 4a 53 3e a8 48 2a 3f c6 5d d7 bf
       -0.5481696 0.20634036 0.66517115 -1.6825492
000010 63 90 d8 bf c2 fa f5 3e 4b 90 0a bf 43 6d 47 c0
       -1.6919063 0.48042876 -0.54126424 -3.1160438
000020 19 2c cf bf 80 1c 1e c0
       -1.6185333 -2.4704895

running_var f4 [10]
000000 ca 41 09 41 fe fe 50 3f c6 07 cb 40 a3 f4 d0 3e
       8.578562 0.8163909 6.344699 0.40811643
000010 7e c0 19 3f 1b c5 d6 40 13 3e a0 3e 7a d4 bd 40
       0.60059345 6.7115607 0.3129736 5.932187
000020 b4 d0 8f 40 4e e5 87 3f
       4.4942265 1.0616853

weight f4 [200, 490]
000000 33 a5 84 be ea a8 d9 bd 41 78 c3 bd 80 25 0e bd
       -0.25907287 -0.10627921 -0.09544421 -0.03470373
000010 34 9f 89 bd 04 23 cc 38 dd 53 c2 bd 5d ec f4 bd
       -0.06719819 9.734e-05 -0.09488652 -0.11959145
000020 0b 8a 05 3d ea 49 99 bd 35 2c 0f be c3 b7 4a bc
       0.03260235 -0.07484801 -0.13981707 -0.012372914
000030 9a ed db bd 47 e0 2f be 95 88 2a bc 20 ed 65 be
       -0.10738678 -0.17175399 -0.01040854 -0.22453737
000040 55 02 8f bb 0d 55 40 bd 74 27 a3 bd 75 f6 60 be
       -0.0043642917 -0.04695611 -0.079665095 -0.21969016
000050 a6 ad 53 be c6 ed 55 be 82 ac 24 be 23 8a 8f bc
       -0.2067171 -0.20891485 -0.16081432 -0.017521923
000060 42 b7 5e be 6a 4a f8 bd 96 98 5f bd f7 9a 83 bc
       -0.21749595 -0.12123568 -0.054588877 -0.016065104
000070 b6 c5 92 bd 68 40 12 be 60 7d 72 be 3a 2f e5 bb
       -0.071666166 -0.14282382 -0.2368064 -0.0069941552
000080 18 39 28 be ce e3 14 be 6b 30 70 bc 5e f4 06 be
       -0.1642803 -0.14540026 -0.014659981 -0.13179156
000090 3c 9f a1 bd f0 a1 dc bc dc 16 dd bd 8d 09 dd bd
       -0.078917 -0.026932687 -0.10795376 -0.10792837
0000a0 da ce aa bd 2e 21 4d be 44 52 08 bd 5b 5e ae bd
       -0.08340235 -0.20032188 -0.03328158 -0.085140906
0000b0 7a 7f 13 3d 96 c7 07 be 9a 2d b6 bd 65 a9 89 bd
       0.036010243 -0.1325973 -0.088954166 -0.067217626
0000c0 a6 90 32 bd 16 c7 80 3c ea e9 c0 3e 93 0a 15 3e
       -0.04359498 0.015719932 0.37678462 0.14554815
0000d0 6f e4 76 3e 27 78 4c 3e 07 a9 30 3c 51 4b 1a 3d
       0.24110578 0.1996771 0.010782487 0.037669484
0000e0 9b b1 36 3e eb 9a 07 3d 2e 51 03 3f ba c3 87 3e
       0.17841189 0.033106726 0.51295745 0.26516515
0000f0 aa dd 9e 3d 28 02 25 3d 68 25 fd 3e 10 bb a8 3e
       0.07757123 0.04028526 0.494426 0.32955217
000100 de 82 b4 3e 8e d7 b7 3e a5 15 26 be 4a 02 5d bd
       0.35256094 0.35906643 -0.16219194 -0.05395726
000110 b1 68 d7 3e a8 66 34 3e 6b 60 1f 3e bb 27 a1 3e
       0.4207206 0.17617285 0.15564124 0.31475624
000120 29 1b 6a 3c 03 fc 54 ba 1c 69 a7 3e dd 3f 1e 3d
       0.014288702 -0.0008124711 0.3269738 0.038635124
000130 99 b0 51 3e 10 89 5e 3c 99 22 b3 3e 65 fc f2 3d
       0.20477523 0.013582483 0.34987333 0.11864547
000140 e4 c6 9a 3e e0 9e 3c be 63 df 81 be a6 49 97 3e
       0.30229867 -0.18419981 -0.25365743 0.29548377
000150 a7 95 cc 3e f9 90 26 3e fe 18 c1 bc fb a5 ad 3e
       0.39957926 0.1626624 -0.023571488 0.33915696
000160 97 c6 8b 3e 88 8e c4 bd fd ed de 3d 83 41 3e 3e
       0.2729995 -0.09597498 0.108852364 0.18579678
000170 77 08 94 3d 74 44 11 bc b1 96 a2 3e 34 44 d7 bb
       0.07228177 -0.008866418 0.31755593 -0.0065694097
000180 75 47 de 3b ad 91 e8 bd 10 ff 23 bb 55 64 aa bb
       0.0067834207 -0.113559105 -0.0025023855 -0.005199949
000190 62 df a8 3c 80 3f 4e be 63 6d 11 3d b5 bb 30 bd
       0.02061433 -0.20141411 0.03550471 -0.04314776
0001a0 e4 37 e5 3c 59 3f dd 3d 49 3e 8d bd bb 94 5f bd
       0.027980752 0.10803098 -0.068966456 -0.0545852
0001b0 61 ab f6 bc 22 b2 dc 3c 06 75 bd 3c ff ca dd 3c
       -0.030111017 0.02694041 0.02312709 0.027074335
0001c0 51 e7 00 3e 48 46 0e 3e 22 a7 48 3c c6 4a 86 bc
       0.1258824 0.13893998 0.012246879 -0.016393077
0001d0 7f eb 1c 3d db 7f 6a 3c 96 64 bc bb a4 7c d0 bd
       0.038310524 0.01431271 -0.0057492955 -0.10180023
0001e0 ea a4 35 bd ad d8 c5 bc f0 e7 7e 3d 50 8e dc 3c
       -0.044346727 -0.02415117 0.06223291 0.026923329
0001f0 85 88 3c 3d c5 32 b7 bd 20 cb 3f 3d 6d 09 8f 3c
       0.046028633 -0.089452304 0.046824574 0.01746055
000200 08 6b a8 3b 78 d6 89 bc 62 b3 ca bc cb e7 21 3e
       0.0051397122 -0.0168259 -0.02474374 0.15811078
000210 7e 4b 45 3c 2c 46 34 bd a1 b9 be 3c ca d6 9c bc
       0.0120419245 -0.044012234 0.023281874 -0.019145388
000220 39 6d 6f bc f0 2a 8a 3d 32 f2 92 3d 0b 07 ca bd
       -0.014613443 0.06746471 0.07175101 -0.098646246
000230 9e 1f 1c 3e 39 aa 35 3e ee 68 3a 3d 61 31 92 3d
       0.15246436 0.17740716 0.045510225 0.071383245
000240 b5 a5 00 3e 0c bf e7 3c b0 b9 07 3e 75 3d 92 bc
       0.12563212 0.02828934 0.13254428 -0.01785157
000250 bc 72 69 ba 04 9f e5 3d bc 95 7b bb dc 83 f2 bd
       -0.00089053414 0.112119704 -0.003838881 -0.118415564
000260 5c ab 65 be 43 1f 38 be 96 09 07 bc 3f 13 c8 3d
       -0.2242865 -0.17980675 -0.008242032 0.09769296
000270 65 0e f6 bd 5d 03 9d bd 34 d6 5d 3b 41 30 c1 bd
       -0.12014464 -0.07666657 0.00338496 -0.09433032
000280 64 a1 d9 3c 53 7e 67 3e cb 5f 9c be 98 55 23 be
       0.026566215 0.22606783 -0.30541834 -0.1595062
000290 08 89 98 be a8 5b b5 be 6a 5a 9d bd 71 0f a0 3c
       -0.29792047 -0.3542149 -0.07683261 0.019538613
0002a0 7c d6 17 be 67 50 c1 bb 66 39 f9 bc 50 38 36 3c
       -0.14827913 -0.0058994773 -0.030422878 0.011121824
0002b0 c7 cf c5 3d 4e b6 aa be 59 57 e1 3d 8b 89 90 be
       0.09658771 -0.33342212 0.11002988 -0.28229937
0002c0 48 e3 06 be ae c7 cc bd c5 89 a9 bc 68 c6 42 be
       -0.13172638 -0.099990234 -0.020695576 -0.19020998
0002d0 cf 7c 1d be 57 f1 e3 bc e6 5f e2 3d ab 71 bf bd
       -0.15379642 -0.02782504 0.110534474 -0.09347852
0002e0 7d 0e 8e bd 45 ce 58 bd 98 ec d3 3d 8f f0 cb bd
       -0.06936357 -0.05293109 0.10347861 -0.09957992
0002f0 97 f3 2e 3b 46 90 6a be 6b 89 c8 bc 16 e3 c7 bc
       0.0026695484 -0.22906598 -0.024479588 -0.024400275
000300 8c be 70 be e8 b9 8f 3a cf 63 63 3d 49 a6 e0 bd
       -0.23510188 0.0010965439 0.055515107 -0.109692164
000310 06 58 7c be d4 61 b6 bc a5 9b 0d be cf 7c bf bd
       -0.24642953 -0.022263445 -0.13828905 -0.09349977
000320 78 5d a3 3d 3d 7e 2f bd e7 b6 08 be f8 62 07 be
       0.07976812 -0.042845 -0.13351022 -0.13221347
000330 ad 20 c0 bd 77 f1 66 bd ad 5e eb be 1e 91 15 3d
       -0.093812324 -0.056382623 -0.4597067 0.036515348
000340 a8 c2 13 be ab 98 76 3c ab 94 b2 be 44 5d 09 be
       -0.14429724 0.015051047 -0.3487905 -0.13414484
000350 d9 39 44 bd d7 ad 45 3e 24 28 2b be 76 e4 d3 3d
       -0.04790673 0.19304596 -0.16714531 0.1034631
000360 f9 c9 84 be f4 38 21 be 1d f4 c1 bd 57 fc 17 bd
       -0.25935343 -0.15744382 -0.09470389 -0.037105884
000370 13 be b4 be 91 d3 30 be 3b 1e a6 3d 5f b4 13 be
       -0.35301265 -0.17268206 0.08111235 -0.14424275
000380 80 3c 39 3e 4b b9 a9 3d da 48 95 bd 03 ad 03 be
       0.18089485 0.08287295 -0.07289286 -0.12858967
000390 dc e0 3b 3d 51 34 8f be 3f 74 2b 3d 1b 43 0e be
       0.04586874 -0.27969602 0.041858908 -0.13892786
0003a0 09 56 db bc d0 ee 6f 3d 6b a7 74 3d c5 2e 21 ba
       -0.026774423 0.05857736 0.059729975 -0.0006148632
0003b0 63 21 03 be c8 20 06 bd d7 1a 5b bc 6b 2f f4 bd
       -0.12805705 -0.032746106 -0.013373098 -0.11923107
0003c0 f9 a3 a2 be b2 c5 20 3d 6a 25 23 be 0f 24 10 be
       -0.31765726 0.039251037 -0.15932241 -0.14076255
0003d0 01 1c 22 bd 26 8e c6 bd 5d d2 9d 3d ab fd a7 bd
       -0.039577488 -0.096950814 0.07706139 -0.0820268
0003e0 2e 30 c0 3d 18 16 dc bd 97 58 82 3d 38 d4 6a 3d
       0.093841895 -0.107464015 0.063645534 0.057331294
0003f0 eb ab da 3d a8 1b a1 3d 0b ea 88 3d 52 8d bb 3c
       0.10677322 0.07866603 0.06685265 0.022894535

bias f4 [200]
000000 ec d4 96 38 ba 51 00 38 38 ca 2c b7 8c 3c 54 b8
       7.192217e-05 3.0593692e-05 -1.0299082e-05 -5.0601127e-05
000010 33 a2 83 37 30 cd b1 35 d1 c7 f9 b6 65 68 f1 b5
       1.5691947e-05 1.3247245e-06 -7.44404e-06 -1.7986282e-06
000020 36 60 a9 37 f4 10 a9 37 eb 18 6e b6 59 73 19 b8
       2.0191172e-05 2.0154264e-05 -3.5479268e-06 -3.658547e-05
000030 9d 4e d5 b7 b6 0f 57 b7 8f 88 83 b8 6c 15 6f b8
       -2.5428186e-05 -1.2818657e-05 -6.272003e-05 -5.700199e-05
000040 cd c8 5a b7 a4 02 02 38 49 53 ba b3 30 b9 e1 08
       -1.3040565e-05 3.0996875e-05 -8.6764494e-08 1.3585232e-33
000050 32 7c db b7 a6 91 20 b6 f6 c4 a7 b7 ec b9 e2 b7
       -2.6164667e-05 -2.3926636e-06 -1.9999668e-05 -2.7027876e-05
000060 18 06 88 b7 8c 21 55 b6 05 28 8d 38 91 c3 84 b7
       -1.6215301e-05 -3.1759e-06 6.730858e-05 -1.5826694e-05
000070 10 0c db 35 54 80 90 b5 a4 77 c8 b7 dc 45 90 37
       1.6320282e-06 -1.0766184e-06 -2.389757e-05 1.7198669e-05
000080 de 63 a4 37 40 da 58 b7 25 ce 06 37 8e 09 83 90
       1.9596828e-05 -1.2925419e-05 8.035019e-06 -5.168511e-29
000090 1e 0e 96 b7 cd 98 4a 38 3e 66 a2 37 75 bb b2 b6
       -1.7887967e-05 4.830286e-05 1.9359515e-05 -5.3266363e-06
0000a0 10 c8 80 34 b0 af 2c 32 37 4b d7 37 58 c5 d2 36
       2.3987423e-07 1.0051664e-08 2.5665022e-05 6.2814615e-06
0000b0 3a a1 ab b7 20 15 02 37 00 23 6b b5 b6 f8 a4 b7
       -2.0459865e-05 7.753522e-06 -8.7595254e-07 -1.9666139e-05
0000c0 a9 6c 87 b7 c0 93 cb 37 d4 83 73 37 06 a2 c4 38
       -1.6143853e-05 2.4268287e-05 1.4514622e-05 9.3761875e-05
0000d0 70 74 2b b7 74 17 af 36 52 10 ed b7 79 48 4c 37
       -1.02195045e-05 5.2181367e-06 -2.8260201e-05 1.2176221e-05
0000e0 c4 c1 81 37 27 aa 44 37 dc ee 74 37 d1 a3 6a 37
       1.5468228e-05 1.1722127e-05 1.4599147e-05 1.3985628e-05
0000f0 15 e1 56 38 3a 82 0d b7 03 0d 24 37 5e 11 9c b6
       5.12312e-05 -8.434576e-06 9.778191e-06 -4.651184e-06
000100 00 5e 94 35 22 93 26 37 01 0e b9 b7 c4 13 97 b6
       1.1054217e-06 9.928628e-06 -2.206024e-05 -4.5024517e-06
000110 37 79 d1 36 d9 eb 26 b7 7a 6c 31 38 80 73 82 b5
       6.2427966e-06 -9.949284e-06 4.2301115e-05 -9.71937e-07
000120 3e 13 8a 37 f7 a3 37 38 cc 54 a7 37 a3 bd 6b 37
       1.6459842e-05 4.3783304e-05 1.9947438e-05 1.4051245e-05
000130 44 67 2e 38 46 0b 14 35 b8 59 6e 37 2c 4c 1d 37
       4.1581006e-05 5.51507e-07 1.4206795e-05 9.375664e-06
000140 32 c0 9e 81 3d cf c0 36 be 16 ae 34 38 b2 cf 35
       -5.831582e-38 5.7461716e-06 3.2426573e-07 1.547457e-06
000150 bc 76 d7 37 3b 8f 85 37 2c 47 b8 b5 d8 f2 a9 b6
       2.5685287e-05 1.5921532e-05 -1.3729782e-06 -5.064863e-06
000160 5d 98 99 2b b8 90 c1 36 dc aa a3 b6 26 33 c5 37
       1.0913593e-12 5.7686957e-06 -4.877669e-06 2.3508048e-05
000170 93 88 a1 38 d4 d7 d7 b5 ef 68 b8 2b bb 79 25 38
       7.702517e-05 -1.6081563e-06 1.3103111e-12 3.9452436e-05
000180 52 98 04 b7 96 1b 96 38 78 92 9f b6 ee ef 8e b7
       -7.903278e-06 7.157696e-05 -4.7556205e-06 -1.7039445e-05
000190 a8 b6 e7 b7 92 c4 91 38 3a fd 2c 37 ba 60 dc b7
       -2.7622402e-05 6.950753e-05 1.0310958e-05 -2.6271086e-05
0001a0 c3 1a 27 35 d8 7f 35 37 1c 65 51 38 34 71 7a 36
       6.225129e-07 1.0818207e-05 4.992365e-05 3.7318796e-06
0001b0 58 40 12 b6 5a b0 15 38 f2 a7 56 36 bc 4c 9d b6
       -2.1793148e-06 3.568861e-05 3.1986242e-06 -4.6878977e-06
0001c0 15 29 0a 37 d4 5f ae b7 68 ea 95 b6 e1 e7 a0 37
       8.235006e-06 -2.078704e-05 -4.4678345e-06 1.9181463e-05
0001d0 bc 08 f2 36 b9 34 84 93 b2 91 9c 37 a8 8a 09 b9
       7.213179e-06 -3.3373473e-27 1.8664494e-05 -0.00013116992
0001e0 35 f6 15 39 18 e2 4d b8 98 10 be b7 ec 13 72 37
       0.00014301467 -4.9086375e-05 -2.2657492e-05 1.44289625e-05
0001f0 ee 58 ab 36 98 88 23 35 52 aa 51 38 c6 42 7a 36
       5.10655e-06 6.0921e-07 4.9988106e-05 3.729177e-06
000200 cb 8d 93 37 ba 2e 0d 36 d0 2d ac 36 e2 83 1c b8
       1.7589793e-05 2.1037836e-06 5.1313327e-06 -3.7316124e-05
000210 9f f8 7d 36 c0 f3 b6 35 4b ab 4c 37 82 96 7f b8
       3.7844654e-06 1.3630997e-06 1.219923e-05 -6.093691e-05
000220 42 c5 35 b7 b8 99 41 35 36 48 25 b7 9f 58 1c b7
       -1.0834368e-05 7.2121793e-07 -9.851579e-06 -9.318958e-06
000230 dc 18 26 38 98 33 61 38 20 1d 1f 36 b9 a6 1e b8
       3.9600636e-05 5.369223e-05 2.37098e-06 -3.7825408e-05
000240 35 78 9a 36 85 08 91 37 d8 2b 87 33 14 0f 1a 38
       4.6035516e-06 1.7289314e-05 6.2944025e-08 3.6730504e-05
000250 10 57 f6 35 00 f3 f4 b2 c0 7a 53 b5 f4 c4 9a b8
       1.8353767e-06 -2.8515842e-08 -7.878225e-07 -7.3799776e-05
000260 0e 76 7f 37 92 3e 6f b4 24 9e 15 36 57 17 7d 37
       1.5226671e-05 -2.2281372e-07 2.229478e-06 1.5085409e-05
000270 49 e4 06 b9 ae 22 5e b6 9e c9 ae 37 61 b6 ec b3
       -0.00012864279 -3.3100764e-06 2.0836302e-05 -1.1022781e-07
000280 73 51 af b8 3b 83 fc 31 7d 6b 9e 38 9e df d0 36
       -8.3598214e-05 7.3490845e-09 7.554048e-05 6.2249155e-06
000290 ac cb 6b b6 01 b7 2a b5 7f d0 e9 b6 5f a7 e9 36
       -3.5136281e-06 -6.359624e-07 -6.9682133e-06 6.9634257e-06
0002a0 54 33 f3 38 33 d9 53 b8 e0 71 9e b8 9c ad a5 37
       0.000115967036 -5.0508603e-05 -7.555238e-05 1.9750376e-05
0002b0 d0 dd 8d b5 70 40 1f 38 28 12 9f 35 30 37 d9 38
       -1.0569875e-06 3.7968566e-05 1.1851707e-06 0.00010357646
0002c0 40 85 42 b7 b1 88 3a b7 a7 61 f9 b7 73 00 02 b7
       -1.1594326e-05 -1.111829e-05 -2.9728586e-05 -7.748708e-06
0002d0 80 55 0b 9e 98 a6 4a b7 60 30 0c 26 b0 c3 92 38
       -7.37628e-21 -1.2078926e-05 4.863782e-16 6.998272e-05
0002e0 3b 9b fd 36 3b 5a 40 b8 a5 94 06 b8 10 bb ce 35
       7.5580588e-06 -4.58604e-05 -3.2086526e-05 1.5402638e-06
0002f0 56 36 09 b6 c6 b7 28 38 00 c3 fd 35 38 64 73 b8
       -2.0446219e-06 4.0225474e-05 1.8906721e-06 -5.802905e-05
000300 18 1f 3b b5 40 2d 81 36 7f da 91 37 33 0e 70 37
       -6.9708176e-07 3.8497674e-06 1.7387092e-05 1.4308421e-05
000310 a8 27 1d 36 02 da 77 38 a3 e7 a1 b6 26 96 ff b6
       2.3417906e-06 5.9092425e-05 -4.82514e-06 -7.617072e-06

weight f4 [200]
000000 19 aa 64 3f 6e b4 4e 3f 00 9e 19 3f d6 f4 1e 3f
       0.8932205 0.80744064 0.60006714 0.6209234
000010 4a 0f 62 3f bb 4e 24 3f fd 00 1a 3f 06 88 fa 3e
       0.8830458 0.64182633 0.6015776 0.48931903
000020 e9 14 f7 3e 4c ea 11 3f 99 95 32 3f 3d 92 68 3f
       0.4825814 0.56998134 0.6975952 0.9084814
000030 63 f1 5b 3f d4 96 5f 3f b1 ed 54 3f 5e b6 39 3f
       0.859152 0.8733952 0.8317519 0.72543895
000040 b6 3f 3a 3f d6 c6 24 3f 5e f3 c1 3e ab d0 12 16
       0.72753465 0.643659 0.37880987 1.185963e-25
000050 7e 26 21 3f eb 47 62 3f 6a b1 62 3f 84 11 52 3f
       0.6294936 0.8839099 0.8855196 0.82057977
000060 d0 a7 4d 3f 62 77 38 3f 2f c1 52 3f 12 86 2f 3f
       0.80334187 0.72057164 0.82326025 0.6856395
000070 04 dc 5f 3f 96 f4 8e 3e e4 dc 09 3f 6c 7a 57 3f
       0.8744509 0.2792098 0.5385268 0.84171176
000080 5d f7 06 3f e2 3f 45 3f 13 4b 39 3f 39 89 2c 3e
       0.52721196 0.770506 0.7238018 0.16849221
000090 b0 a1 33 3f b9 50 5f 3f 84 b1 72 3f ce c1 24 3f
       0.7016859 0.8723255 0.9480212 0.6435822
0000a0 a5 f2 09 3f 0f eb ef 3e ba dd 2f 3f 61 00 36 3f
       0.5388587 0.46859023 0.686977 0.7109433
0000b0 23 fe 38 3f 78 b2 51 3f a5 eb 66 3f 28 4a 32 3f
       0.7226278 0.81912947 0.90203315 0.69644403
0000c0 f6 df fd 3e 35 7e e8 3e a8 a4 44 3f 3a 4b 4b 3f
       0.4958493 0.45408788 0.76813745 0.7941166
0000d0 ca 87 42 3f ae 6b c7 3e 5c e6 60 3f a5 37 20 3f
       0.7598845 0.3894934 0.878515 0.62584907
0000e0 9c 0d 68 3f 48 7e 35 3f c2 cd 15 3f d4 1b 86 3f
       0.90645766 0.70895815 0.58517087 1.0477242
0000f0 2b 81 5f 3f 23 d8 49 3f db 9d 38 3f 68 3f 22 3f
       0.8730647 0.78845423 0.7211587 0.63378
000100 24 30 3c 3f fe 12 52 3f 40 b0 09 3f c3 13 35 3f
       0.73510957 0.8206023 0.5378456 0.7073328
000110 56 f9 44 3f 7b 26 43 3f 23 b2 37 3f 18 83 08 3f
       0.76942956 0.7623059 0.7175619 0.53325033
000120 ac 7c f7 3e ca 8d 42 3f 79 03 4c 3f 33 f7 fa 3e
       0.48337305 0.759976 0.796928 0.49016723
000130 65 b5 3b 3f 62 69 dc 3e 91 1f 67 3f a7 59 f3 3e
       0.7332366 0.4304915 0.9028254 0.47529337
000140 b1 5d 5e 3e 97 76 5e 3f b9 d8 af 3e 18 f2 00 3f
       0.21715428 0.86899704 0.34345034 0.50369406
000150 75 74 17 3f 09 e2 22 3f 50 6f ca 3e 7c 3e 5c 3f
       0.59162074 0.6362615 0.3953805 0.86032844
000160 b1 78 9c 3d 4e 8a 2c 3f e1 9c 14 3f a9 2a 01 3f
       0.076402076 0.67398536 0.5805188 0.5045572
000170 51 11 64 3f c8 90 3a 3f f8 03 ab 3e 47 2e 38 3f
       0.8908892 0.7287717 0.33401465 0.71945614
000180 8f 06 32 3f c0 ae 4e 3f aa 87 06 3f 5a a2 54 3f
       0.6954126 0.807354 0.52550757 0.8306023
000190 96 93 3e 3f bb a0 16 3f f0 db 8b 3e 8b 20 29 3f
       0.7444395 0.58839005 0.27316236 0.6606528
0001a0 a8 12 65 3f 84 ff 2f 3f 55 49 6f 3f 97 87 cd 3e
       0.8948159 0.6874926 0.9347127 0.4014251
0001b0 35 1d 1e 3f a5 f3 fb 3e 8d e4 20 3f b5 a0 36 3f
       0.61763316 0.49209324 0.6284874 0.7133897
0001c0 b6 98 29 3f b1 ab 3f 3f 1b 0e e6 3e 9c 38 42 3f
       0.66248643 0.74871355 0.44932637 0.7586763
0001d0 0e 98 12 3f dc 24 84 3d 81 23 0c 3f ff bb 6f 3f
       0.5726327 0.06452343 0.54741675 0.93646234
0001e0 d4 22 70 3f a6 f7 53 3f 4b b3 5a 3f 6f 1b 59 3f
       0.93803144 0.82799757 0.8542983 0.84807485
0001f0 d6 dc 2f 3f ad d0 1b 3f 97 75 54 3f bb 5e d7 3e
       0.68696344 0.6086529 0.8299193 0.4206446
000200 db 7e 45 3f ae 87 87 3f 6f ac 43 3f 3f b2 79 3f
       0.7714669 1.0588281 0.7643499 0.97537607
000210 6a af 4d 3f 91 75 2e 3f 0f 42 37 3f 5f f2 63 3f
       0.80345786 0.6814814 0.7158517 0.89041704
000220 9d 9a 27 3f d8 03 21 3f 38 06 5b 3f f4 0c 29 3f
       0.65470296 0.6289649 0.85556364 0.6603539
000230 47 48 90 3f 1e bf 52 3f d3 d6 13 3f b4 ef 49 3f
       1.1272057 0.8232287 0.5774967 0.7888138
000240 d6 a4 08 3f af a5 08 3f 0b ef f8 3e ff 76 62 3f
       0.5337652 0.53377813 0.48619875 0.88462824
000250 d2 e6 28 3f 4d 6f ba 3e 8c 50 22 3f 59 cf 48 3f
       0.65977204 0.3641304 0.63404155 0.7844139
000260 10 f0 4c 3f f5 1a 0f 3f b3 46 5d 3f fa 04 55 3f
       0.80053806 0.5590051 0.86436003 0.8321072
000270 a0 5a 90 3f 76 34 23 3f 2d 04 4e 3f f4 4d d0 3e
       1.1277657 0.63751924 0.8047512 0.40684474
000280 f4 c0 60 3f 25 eb c3 3e e0 da 46 3f 8d 86 ec 3e
       0.87794423 0.3826534 0.77677727 0.46196404
000290 30 80 14 3f c3 9a ed 3e 75 ca a2 3e 75 6b 1a 3f
       0.580081 0.46407136 0.31795087 0.60320216
0002a0 f5 e0 72 3f 37 6f 45 3f db 6c 57 3f 63 43 14 3f
       0.9487451 0.77122825 0.84150475 0.57915324
0002b0 eb d1 41 3f f9 57 36 3f 79 c1 a0 3e eb 39 5c 3f
       0.75710934 0.71227986 0.31397608 0.86025876
0002c0 ef e0 4e 3f 4a 16 2d 3f bd af 03 3f df 0a 39 3f
       0.8081197 0.67612135 0.5144003 0.7228221
0002d0 30 88 b7 3d 16 7f e6 3e 52 80 2c 3c b3 ba 5f 3f
       0.089615226 0.45018834 0.010528641 0.87394255
0002e0 99 d2 05 3f 5b fa 29 3f e2 93 3e 3f d4 a8 14 3f
       0.5227447 0.6639764 0.744444 0.5807011
0002f0 f8 67 2a 3f 1d 58 36 3f a0 24 5e 3f c7 4c 66 3f
       0.66564894 0.712282 0.86774635 0.899609
000300 10 f9 29 3f 71 56 4b 3f 68 79 19 3f 4e ae c3 3e
       0.66395664 0.79428774 0.59950876 0.3821892
000310 e5 82 3a 3f 1d 1b 66 3f ac 55 24 3f 7a d3 3f 3f
       0.7285598 0.8988512 0.64193225 0.7493206

bias f4 [200]
000000 ab f6 92 3e 13 bf 8f 3e 8d f5 c1 bd 2d 8b c4 3e
       0.28703818 0.28075466 -0.09470663 0.38387433
000010 94 e2 40 3e d4 13 f8 be 5c fa f5 be 2e 76 ae be
       0.18836433 -0.48452628 -0.48042572 -0.3407454
000020 6e f5 b1 be 19 38 5f be b1 b5 0f 3d 8b fc c2 be
       -0.3475756 -0.21798743 0.035085384 -0.380833
000030 51 74 4f be bc dc 9b 3d f9 55 cd 3e 42 ff b9 be
       -0.20259215 0.07610461 0.40104654 -0.3632756
000040 5f 19 07 bf 3a 81 f3 be 7a 68 a4 be ee 6b f1 bc
       -0.5277309 -0.4755953 -0.3211096 -0.02947041
000050 65 9c 89 be 40 51 b9 be 72 d2 10 3d 11 87 0b 3e
       -0.26877132 -0.361948 0.035356946 0.13625742
000060 07 6b 9a be fb d8 24 bf 01 9f 3c 3e 4c 89 c8 be
       -0.3015978 -0.64393586 0.1842003 -0.3916725
000070 a7 cd 5b be 1d 56 fe be 6c 10 5c bd 21 a4 a5 be
       -0.21465169 -0.49675074 -0.0537266 -0.32351783
000080 0f ea 3c be 1f 08 a7 be 8c 66 a6 bc f9 f0 61 be
       -0.18448661 -0.32623383 -0.02031257 -0.2206458
000090 43 65 a1 3d a4 b8 ba be ad b4 b9 3e 3a 9e d9 be
       0.07880642 -0.36468995 0.36270657 -0.4250353
0000a0 b1 0f d6 be a6 7e d2 be 0c d5 8b be 21 8b fe be
       -0.41808847 -0.4111225 -0.2731098 -0.49715522
0000b0 91 8e 88 be 33 d6 85 3c 3b d5 1b bd 5c e5 84 3c
       -0.2667127 0.01633749 -0.03804515 0.016222648
0000c0 a2 50 9c bd a4 fe a9 be eb 9e 02 bf bc 54 22 be
       -0.07632567 -0.33202088 -0.5102374 -0.15852636
0000d0 ae 99 59 be 37 c3 61 be 89 38 5a 3e 5a 99 00 3e
       -0.2125003 -0.22047125 0.21310629 0.12558499
0000e0 41 3b 49 be 38 0d 98 bd e2 35 c3 3e 77 bc 9f 3d
       -0.1965151 -0.07424396 0.38127047 0.07799619
0000f0 52 07 ba 3d 41 38 16 3e 7b 4e 3c 3d 4b dc d1 be
       0.090834275 0.14669897 0.045973282 -0.40988383
000100 01 d9 cb be e7 43 0e 3e ac 1f 24 bf fd 91 7d bd
       -0.39813998 0.1389309 -0.6411083 -0.061906803
000110 3b bc a7 be c1 e7 71 3d 8a e6 8a ba 6a 79 f0 be
       -0.32760796 0.05905891 -0.001059727 -0.46967632
000120 c5 56 dc be 9b 4c 86 3e 91 e1 06 bf 52 c0 66 bd
       -0.4303495 0.2623032 -0.5268794 -0.056335755
000130 f0 06 bc 3c 4f 47 9d be 00 9b 32 be c8 b3 35 bf
       0.022952527 -0.30718467 -0.1744194 -0.7097745
000140 cb d5 b5 be 1c a5 4d be 17 dd d2 be 38 80 30 bf
       -0.35514674 -0.20082515 -0.41184303 -0.68945646
000150 e3 49 00 bf cc 46 06 3e e5 2a bf 3b 1b 9b 81 be
       -0.5011274 0.13112944 0.005833971 -0.2531365
000160 eb 9d 9f be a9 72 bb be 37 40 bc be 3f 64 b8 be
       -0.3117517 -0.36610916 -0.36767742 -0.36013982
000170 03 cf c9 3d 08 90 ce be 3a a5 ae be f5 d8 33 3e
       0.098539375 -0.40344262 -0.34110433 0.17563231
000180 1c 71 8a be 60 39 6d 3e c1 f5 18 be d2 2b f4 be
       -0.2703942 0.23166418 -0.14937498 -0.47689682
000190 53 b4 f9 bd 15 61 d9 bb 85 b2 11 bf 0b 52 b7 3d
       -0.12192597 -0.0066338875 -0.56913024 0.08951195
0001a0 8a fe 1b 3e 27 c4 d0 be 91 0a 80 be 17 07 14 bf
       0.15233818 -0.40774652 -0.25008062 -0.5782332
0001b0 43 66 3a be 08 55 c1 bc 13 74 2a 3e ae 88 bc be
       -0.18203072 -0.023600116 0.16645841 -0.36823028
0001c0 6f 82 a9 be e6 97 c7 be e6 44 7c be 8d 70 64 3c
       -0.33107325 -0.38983077 -0.24635658 0.01394285
0001d0 77 fd ab be 24 95 8f be c3 62 92 be 8c 2c 19 3e
       -0.33591816 -0.28043473 -0.28590974 0.149584
0001e0 2e 97 bb be 7d 1b 80 3d 7e f8 c9 3c de 0b 3e 3e
       -0.36638778 0.06255243 0.024654623 0.18559214
0001f0 42 b4 d0 be 6e 67 e9 be e2 1f 40 3e 42 34 e1 bd
       -0.40762526 -0.45586723 0.18762162 -0.109962955
000200 43 40 94 be 16 fc e7 be 03 36 a6 be 8a 8e 59 3d
       -0.28955278 -0.45309514 -0.32463083 0.05311445
000210 77 45 a2 be df f7 30 3e a3 0f 9f b9 66 75 94 3d
       -0.31693622 0.17282055 -0.00030338494 0.072489545
000220 d1 a2 c1 3d 6d 26 27 3d 2f 69 8e be 0c c7 e9 bd
       0.09454883 0.04080813 -0.27814624 -0.11414918
000230 ad 83 a6 3e 37 f8 8f 3d 3a b1 85 bd 84 93 c4 bd
       0.32522336 0.07029765 -0.06527944 -0.09598449
000240 89 70 e4 be 2b 18 e7 be d1 b5 ef be c2 01 6a be
       -0.44617108 -0.45135626 -0.46818402 -0.22852233
000250 8e d4 53 3e 7d 8b 99 be 98 cc dc be b3 93 4c 3e
       0.20686552 -0.29989234 -0.43124843 0.19978218
000260 27 57 dc be 5f b1 e9 be 8e f0 89 be ce 2a c8 3d
       -0.43035242 -0.45643136 -0.2694134 0.09773789
000270 c1 6d 82 3c ef ee e7 bb 56 72 b4 3d ba 0f b5 be
       0.015921475 -0.0070780437 0.0881087 -0.3536356
000280 34 86 8b be 07 0f c1 be e1 ed a1 3e ec 90 32 bf
       -0.27250826 -0.37706777 0.316268 -0.69752383
000290 87 d4 e9 be 3a df 19 bf ab a7 17 bf a2 4b 70 bd
       -0.45669958 -0.6010624 -0.59240216 -0.05866588
0002a0 d7 cc 1f be e4 8d ab 3d 29 b4 9e be 09 5d e3 bc
       -0.15605484 0.08376673 -0.30996826 -0.027754324
0002b0 25 c8 cf 3d dc 33 e1 bd 8c ae 30 bf 62 43 3a 3e
       0.101455964 -0.109962195 -0.6901634 0.18189767
0002c0 5e 6a 80 3e b2 53 ef bb 9b df 12 be 76 5b e1 be
       0.25081152 -0.0073036784 -0.14343111 -0.44015092
0002d0 c6 75 8d be 06 51 f2 bd c3 41 2a bd c8 33 d9 3d
       -0.27628917 -0.1183186 -0.04156662 0.106055796
0002e0 88 f6 bb be 0c f7 1a 3e 3c 53 8e be ec c0 e5 be
       -0.36711526 0.15133303 -0.27797878 -0.4487375
0002f0 53 f2 b6 be e2 72 9e be 45 2c e0 3d 6f af 94 be
       -0.35731754 -0.30947024 0.10945944 -0.29040095
000300 e0 4f 3f be 58 51 84 bd f4 1a 3b bd 17 f3 24 bf
       -0.18682814 -0.064608276 -0.04568 -0.64433426
000310 de 40 be be 9b e9 1a 3e a8 d9 79 be 45 36 79 be
       -0.37158865 0.15128176 -0.24399436 -0.24337108

running_mean f4 [200]
000000 dd d7 d3 be 49 8a 2d 3f db 16 07 bf 33 22 09 c1
       -0.41375628 0.6778913 -0.5276925 -8.570849
000010 c6 46 98 3f d2 98 0c c0 90 72 83 be b8 9c 39 c0
       1.1896598 -2.1968274 -0.25673342 -2.9001904
000020 cb 33 3a 40 38 83 81 bf a9 09 76 c0 f5 a4 2a c0
       2.9094112 -1.011817 -3.8443396 -2.6663182
000030 22 5d e1 3f 8d ad e1 40 13 45 ad c0 78 38 22 c0
       1.7606547 7.0524354 -5.414682 -2.5346966
000040 64 cb 61 c0 aa 3e 19 c0 b1 88 da bf 3c b1 d2 11
       -3.528039 -2.3944497 -1.7072965 3.3241387e-28
000050 ae 45 3c bf 48 18 7c c0 4b 94 27 41 c1 5c ea c0
       -0.7354382 -3.938982 10.473704 -7.3238225
000060 c5 6e 42 c1 61 c7 41 c0 d5 9f d2 bf df f5 a6 c0
       -12.152043 -3.0277941 -1.6455027 -5.2175136
000070 55 0e a6 40 ba 4c c4 bf bf 74 8b bf f3 3e 15 c1
       5.1892495 -1.5335915 -1.0895003 -9.327868
000080 fe 1b 92 c0 5d a0 fe c0 8e 90 0c 40 3d 34 a5 be
       -4.565917 -7.9570756 2.196323 -0.32266417
000090 6a d2 bb c0 85 79 00 c0 8b 87 96 bf c3 f7 89 c0
       -5.8694353 -2.007417 -1.1760114 -4.3114944
0000a0 54 4b 21 c0 15 f8 a8 bf 08 69 f5 bf 50 a2 2f c0
       -2.5202227 -1.3200709 -1.9172678 -2.7442818
0000b0 97 8a e9 bf 60 7f 12 41 5f 3f bb be 66 38 58 c1
       -1.8245419 9.156097 -0.36571786 -13.513769
0000c0 9c 99 39 c1 3e 3a 86 c0 93 8c 36 41 67 f7 53 bf
       -11.600002 -4.1946096 11.40932 -0.8279938
0000d0 39 18 91 c0 8e fd 63 c0 a2 b2 6d bf a4 a5 90 c0
       -4.534207 -3.5623507 -0.928507 -4.52022
0000e0 8b be 7e 40 cc 7a c8 40 e0 18 d9 c0 df 4a 79 bf
       3.9803798 6.26499 -6.7842865 -0.9737987
0000f0 51 4d e2 40 90 17 d0 bf 75 65 4e c0 fd 2b 62 c0
       7.071938 -1.6257191 -3.2249424 -3.5339348
000100 bc 74 19 41 69 a5 88 c0 9c 13 4f 40 f9 22 b9 40
       9.591 -4.2701917 3.2355719 5.785519
000110 1a 11 d1 c0 85 32 ee 3f b6 af 38 3f 43 af 9e bf
       -6.5333376 1.8609167 0.72143114 -1.2397236
000120 e9 8a cf 40 cb f6 df c0 06 d3 50 c0 87 da 97 c0
       6.485707 -6.998876 -3.2628798 -4.7454257
000130 5a 40 25 c0 f1 2d d1 c0 f6 5d 9d c0 70 1d cd 40
       -2.5820527 -6.536858 -4.91772 6.4098434
000140 8a 9b 51 bf 9b 87 03 c0 e6 10 b7 bf 87 02 ac 3f
       -0.8187796 -2.0551517 -1.4302032 1.3438271
000150 cd c6 ae 40 bf f9 ca 3e ea c3 c3 c0 d6 c6 e2 40
       5.4617677 0.39643666 -6.1176653 7.086772
000160 c6 36 a9 3e c0 d4 14 c1 9c 77 d9 40 60 91 91 3f
       0.330496 -9.301941 6.7958508 1.137249
000170 4c 8e 0d 41 e8 23 76 c0 c5 c6 63 c0 5f 10 d5 c0
       8.84724 -3.8459415 -3.559007 -6.6582484
000180 61 51 13 c1 7b b8 69 40 9e 16 ce be a8 c8 85 bf
       -9.207368 3.6518848 -0.4025163 -1.045186
000190 13 9c 03 41 01 90 35 c1 e9 56 fd bf 15 2f d3 3f
       8.225604 -11.347657 -1.9792148 1.6498743
0001a0 1e 64 36 40 08 c2 b2 c0 00 11 1c c0 07 ff 41 3c
       2.8498607 -5.5861855 -2.4385376 0.011840588
0001b0 0f 18 84 bf f3 33 9d 3d 55 48 aa c0 e2 d7 89 c0
       -1.0319842 0.07675924 -5.3213296 -4.307603
0001c0 a9 18 f2 3e ad 31 95 c0 7c a9 f6 be 12 c8 4d 40
       0.4728444 -4.662314 -0.4817618 3.2153363
0001d0 92 5a 35 c0 1c e2 e7 3f cb 2e fd bf 58 57 be c0
       -2.833653 1.8115878 -1.9779905 -5.948162
0001e0 c7 37 f6 bf 05 12 3b 40 b7 4a 53 c0 68 9a c0 c0
       -1.9235772 2.9229748 -3.3014352 -6.0188484
0001f0 b7 7d 9d c0 19 3a 87 c0 d1 5b 8e c0 99 32 6d c0
       -4.921596 -4.225842 -4.448708 -3.7062132
000200 29 2b 0d c0 02 db db bf 55 14 50 c1 d1 8e 2a c0
       -2.2057593 -1.7176211 -13.004964 -2.6649668
000210 fa 4f 37 c1 9e 22 d5 c0 99 75 0b c0 b5 d7 00 41
       -11.457026 -6.6604757 -2.1790526 8.052663
000220 1c b1 a8 c0 6b 86 c2 c0 09 f3 66 c1 fc 5c da 3e
       -5.27162 -6.0789084 -14.434335 0.42649066
000230 7d df 44 c0 bf 54 84 c0 6e b2 fe bf 57 4d 98 3f
       -3.0761406 -4.135345 -1.9898202 1.1898602
000240 16 38 64 3f 36 16 d7 bf 84 74 c3 c0 6b a6 10 41
       0.8914808 -1.6803653 -6.107973 9.040629
000250 be cb cd 3e aa 58 9b c0 ec 9f 01 c0 26 db 5e c0
       0.40194505 -4.8545732 -2.0253859 -3.4821258
000260 91 21 5c c0 ea 1c 80 c0 3c 9f a4 40 df f5 54 40
       -3.4395487 -4.0035295 5.144438 3.3275068
000270 de 62 67 c0 50 f6 c4 bf e6 f0 8f c0 58 8b 03 c0
       -3.6154094 -1.5387669 -4.4981565 -2.0553799
000280 14 56 73 c1 11 1a 9c bf b6 4e 9e bf 46 6c aa 40
       -15.208515 -1.2195455 -1.2367771 5.325717
000290 9e 01 86 c0 ed 35 ac 3b e9 0b 0c 3f f8 f7 00 c0
       -4.1876974 0.005255452 0.54705673 -2.0151348
0002a0 68 a6 d0 40 ba c7 11 3f 96 0b 4f c1 51 e8 c8 c0
       6.5203133 0.56945384 -12.940329 -6.278359
0002b0 49 36 85 c0 01 db 9d bf 60 84 85 40 94 7e a1 c0
       -4.1628766 -1.233246 4.172409 -5.0467014
0002c0 42 13 a3 c0 6d 79 f6 bf 57 bf 14 c0 b0 9f 6a c0
       -5.096101 -1.9255806 -2.3241785 -3.6659966
0002d0 16 42 bb 3e 5e 73 bc 3f ec 95 6e be e0 f2 8d 40
       0.36573857 1.4722707 -0.23299378 4.435898
0002e0 5b c1 59 40 73 0e 7c bf 44 54 74 41 b2 9b fa 3d
       3.4024265 -0.9845955 15.270573 0.12236728
0002f0 b9 e6 aa c0 3a d6 2c c0 61 17 b2 40 dd 79 3a 41
       -5.3406644 -2.7005754 5.565354 11.654752
000300 ff 55 92 3e bc 9a fe bf 4b f2 86 3e 74 ed 01 41
       0.28581235 -1.9890971 0.2635673 8.120472
000310 f3 88 cb 40 8b 52 5f 40 18 f4 7f bf 24 74 50 bf
       6.3604674 3.489413 -0.9998183 -0.81427217

running_var f4 [200]
000000 7a 2e 97 42 21 f9 d0 42 9b 49 03 43 fe ff 89 42
       75.590775 104.48658 131.28752 68.999985
000010 76 be d8 43 44 58 09 42 2d e8 a0 42 fc 09 c8 41
       433.48798 34.336197 80.45347 25.004875
000020 02 bd 01 43 63 36 0c 42 37 bc 22 43 43 d8 88 42
       129.73831 35.053112 162.73521 68.422386
000030 3e 09 c2 43 a8 31 cc 43 52 9b c8 42 75 69 c9 41
       388.0722 408.38794 100.30336 25.176493
000040 48 9c 46 42 c1 92 17 41 07 6e 0c 41 04 00 00 00
       49.65262 9.473329 8.776862 6e-45
000050 b1 c8 09 42 31 15 18 43 ae 7a b1 43 43 e2 be 43
       34.445988 152.08278 354.95844 381.76767
000060 68 91 3e 43 89 1d 26 42 35 9c 94 43 09 85 cf 41
       190.568 41.528843 297.22037 25.939959
000070 53 d2 e2 43 29 fc 7e 42 cf 7a 86 42 10 0f 74 43
       453.64316 63.74625 67.23986 244.05884
000080 5c 6f 73 42 47 ae 00 43 be 9a 94 43 83 11 9f 3d
       60.85875 128.68077 297.20892 0.07767012
000090 3f 7a 1b 43 32 88 9a 42 40 62 b7 42 cc 4f 1a 42
       155.47752 77.26601 91.691895 38.577927
0000a0 1f 5e 04 42 4c f4 21 42 be 15 2b 42 8d de ba 41
       33.091915 40.48857 42.771233 23.358667
0000b0 8c 3f 4b 42 46 4c ba 43 6d a1 bb 42 a5 2a 41 42
       50.812057 372.5959 93.815285 48.291645
0000c0 4a f7 2b 42 12 9b ea 41 f4 25 a4 43 63 b8 a6 41
       42.991493 29.325718 328.2965 20.840033
0000d0 61 7e 19 43 57 95 73 42 e6 f5 d3 43 3b 2f 16 43
       153.49367 60.89584 423.92108 150.1845
0000e0 6a 4d f1 43 03 4a 94 43 2f 3d 2b 42 31 f6 97 42
       482.6048 296.57822 42.80975 75.98084
0000f0 eb 52 f1 43 5d 54 24 43 b2 21 22 43 02 6c 33 42
       482.6478 164.32954 162.13162 44.855476
000100 39 5d 2e 42 19 69 8a 43 71 29 28 43 d4 ef 81 43
       43.591038 276.82108 168.16188 259.87366
000110 79 91 cb 42 a7 49 b6 43 0a f7 83 43 c3 11 b2 41
       101.78413 364.5754 263.93 22.258673
000120 83 b5 a8 43 a7 e7 7e 43 1f 53 72 42 7a 05 d9 42
       337.41806 254.90489 60.581173 108.5107
000130 56 2c 28 42 29 c7 01 42 41 d4 7e 43 01 a6 3a 43
       42.043297 32.444492 254.82912 186.64845
000140 c5 0d a5 3f 26 74 99 42 c0 55 09 42 3b 84 04 43
       1.2894827 76.72685 34.33374 132.51653
000150 90 6c 81 43 cb b9 5f 42 1d ca a3 42 20 bb d9 43
       258.84814 55.93144 81.89475 435.4619
000160 98 80 9a 3f 8b 67 2d 42 d0 4e 41 42 97 19 63 42
       1.2070494 43.351116 48.326965 56.77499
000170 d2 7d fc 43 10 12 68 42 0c 9a a1 41 b9 57 73 43
       504.98297 58.01764 20.200218 243.34267
000180 23 ba 7e 42 29 fa 14 42 f8 6b 72 42 94 97 c4 41
       63.681774 37.244297 60.60544 24.574013
000190 4b 10 92 43 c0 de 8a 42 1d 01 8b 41 6e 3d 9c 42
       292.1273 69.43506 17.375544 78.11998
0001a0 ae cb d8 43 00 6f 29 42 a0 c8 6d 42 2a 64 82 42
       433.59125 42.3584 59.445923 65.19563
0001b0 db 15 b8 42 d9 74 91 42 25 cd 0f 43 b6 ca 28 42
       92.04269 72.72822 143.80135 42.19796
0001c0 d7 0d 4b 43 77 18 ae 42 e3 61 6e 42 41 ef a7 43
       203.05406 87.04778 59.595592 335.86917
0001d0 7a 4c c5 41 72 d4 5c 41 4f e3 32 42 54 ed 89 42
       24.662342 13.801867 44.72198 68.96353
0001e0 e5 07 46 42 c4 63 dc 43 96 33 80 42 7e 65 b2 43
       49.50771 440.77942 64.10075 356.7929
0001f0 9f b4 00 42 94 92 05 42 49 ff 87 43 5e 46 1b 42
       32.176388 33.393143 271.99442 38.818718
000200 66 ce 23 42 4d 25 89 42 18 d4 35 43 80 9e ae 42
       40.95156 68.57285 181.82849 87.30957
000210 0c 6b 55 43 d3 bf cd 42 eb 09 8e 42 d8 9b c0 43
       213.41815 102.87466 71.01937 385.21753
000220 23 2a 2a 43 62 d3 e6 42 2e d9 86 43 11 f6 65 42
       170.1646 115.41286 269.69672 57.4903
000230 90 32 a6 42 a2 b8 98 42 6e fa d2 42 c1 e1 be 43
       83.098755 76.36061 105.48912 381.7637
000240 71 06 68 41 14 ab 44 42 b5 32 3a 42 b8 44 e5 43
       14.501573 49.16707 46.54952 458.53687
000250 c0 e8 17 42 84 70 d5 41 42 a6 c5 41 92 65 55 43
       37.977295 26.67994 24.70618 213.39676
000260 67 34 9a 42 98 ea 5d 41 ff bb b4 43 d6 43 ce 43
       77.10235 13.869774 361.46872 412.52997
000270 d6 12 60 42 76 5c da 42 07 15 86 43 24 28 7f 41
       56.018394 109.18059 268.16428 15.9473
000280 78 3d d6 43 18 92 3a 41 c6 07 08 43 88 8f 33 43
       428.48022 11.660667 136.03036 179.56067
000290 b7 8a 80 42 a6 d1 61 42 6c ce 74 42 da d2 20 43
       64.27093 56.454735 61.201584 160.82364
0002a0 6e f1 fc 43 d1 9e 9b 43 b7 5c 84 43 0c eb ed 42
       505.88617 311.24075 264.72433 118.959076
0002b0 e4 c4 5d 43 07 00 06 43 69 7c 0d 43 9e 41 a7 43
       221.7691 134.0001 141.48598 334.51263
0002c0 07 08 87 42 86 e0 f8 42 37 32 dc 42 8a 06 28 42
       67.51568 124.43852 110.098076 42.006386
0002d0 df 74 13 40 42 15 7e 42 3d 1d ed 3d cd 0c ed 43
       2.3040082 63.52076 0.115778424 474.1
0002e0 73 69 04 43 21 00 cf 42 f6 08 dc 41 d1 76 1d 43
       132.41191 103.50025 27.504375 157.46413
0002f0 6a ca 69 42 97 f1 a8 41 fb bc d7 43 17 15 dc 43
       58.44767 21.117964 431.4764 440.16476
000300 9a de 8a 43 9f 72 92 41 ac 98 8b 42 a3 42 4f 43
       277.73907 18.305967 69.79819 207.2603
000310 e3 f2 5b 43 c3 5c 01 44 56 e5 09 42 fb e2 88 42
       219.94878 517.4494 34.47396 68.44332
